Final_Project/chkpt/deepcgsr.pt (torch, 94299 bytes, 2 tensors)

weight f4 [1076, 20]
0.26812717 -0.25581405 0.1804214 0.24525177 -0.049244054 -0.22530541 -0.11949051 -0.23769581
0.20073333 0.16066483 0.19748732 -0.16881266 0.2901001 -0.0078604 -0.2515413 -0.22522976
0.25877684 -0.23220886 -0.23628542 -0.110030025 0.17853735 -0.18573117 0.22820924 0.20545362
-0.28068697 -0.23944995 -0.28827104 -0.17452635 0.24669492 0.22717686 0.24446611 -0.22140492
0.28667992 0.25092396 -0.2952811 -0.1663012 0.25481558 -0.18827796 -0.17338648 -0.22809744
0.51903087 -0.53707355 -0.3676771 0.2651796 -0.41748744 0.37485728 -0.37341562 -0.45972046
-0.5317802 -0.59522915 0.50690556 -0.428512 -0.6334772 -0.37723407 -0.4875036 -0.2657436
0.33748296 0.43955415 0.06700617 0.4233028 0.2589552 -0.23831676 0.2124668 0.2327066
-0.0775906 -0.2651543 -0.14514324 -0.25285837 0.22002198 0.20602933 0.13609315 -0.21814395
0.24479899 0.042453125 -0.24917324 -0.24454634 0.25159863 -0.22663356 -0.23835266 -0.2936618
0.23089376 -0.22166304 0.21323654 0.22130075 -0.313093 -0.22574796 -0.25105035 -0.22176294
0.21433793 0.2228483 0.23582643 -0.20956986 0.23463298 0.22147407 -0.27951714 -0.22391929
0.22138251 -0.22407305 -0.22161973 -0.26139143 0.25346577 -0.2197163 0.2281784 0.11682987
-0.23281844 -0.22037071 -0.26122892 -0.22033824 0.14310825 0.24399161 0.2663062 -0.122081496
0.25661588 0.24541788 -0.19507924 -0.23359574 0.2582076 -0.2073946 -0.22904898 -0.17853941
0.24059205 -0.23389041 0.23984233 0.24126855 -0.20874037 -0.23293197 -0.2468655 -0.23825265
0.25238675 0.2261027 0.2570883 -0.23793407 0.25306037 0.118947 -0.2469136 -0.23777254
0.24601321 -0.22566521 -0.2213974 -0.14337203 0.21756296 -0.20671083 0.21636926 0.2199448
-0.10743641 -0.21486782 -0.14055175 -0.19901194 0.19909601 0.19907273 0.17904389 -0.20029657
0.2456868 0.07990472 -0.22953099 -0.21935175 0.25359166 -0.21255906 -0.19552372 -0.16268502
0.27000985 -0.31142142 0.29710788 0.3149755 -0.056051135 -0.28033608 -0.17154951 -0.2543615
0.26347315 0.2480042 0.17828062 -0.19908471 0.33271027 0.12685628 -0.20695315 -0.28679404
0.3330497 -0.22587717 -0.29172176 -0.13982072 -0.37369856 0.3873986 0.3504584 -0.38502043
0.087213196 0.3893226 0.3886575 -0.13675836 -0.39029664 -0.34852758 0.39041784 -0.37044486
-0.31231374 0.24511684 -0.38020653 -0.40223083 -0.37069923 0.39723054 -0.3599597 0.33268806
0.23571655 -0.2780267 -0.21452595 -0.15704827 -0.37783444 0.22647423 -0.2057812 -0.24981877
-0.25647858 -0.26784703 0.27782747 -0.23875189 -0.2817098 -0.31363425 -0.29643932 -0.30420908
0.249596 0.25541532 0.22262825 0.22179413 0.27385598 -0.3922661 0.33170417 0.351062
-0.19158398 -0.28610703 -0.29177755 -0.31226265 0.33027455 0.37465575 0.27345124 -0.41134918
0.36402926 -0.22025913 -0.3794706 -0.23863356 0.40643948 -0.3968461 -0.31211907 0.15908524
0.24082099 -0.25552943 0.24904452 0.23323423 -0.10217295 -0.22827512 -0.16289832 -0.24595289
0.25876296 0.24367549 0.15336077 -0.25851125 0.27096382 0.092227004 -0.2756994 -0.2615373
00000000: f747 893e 0ffa 82be 63c0 383e 4823 7b3e
00000010: 22b4 49bd 76b6 66be 71b7 f4bd 8866 73be
00000020: 0a8d 4d3e 5285 243e 1e3a 4a3e 3add 2cbe
00000030: 0088 943e e8c8 00bc 05ca 80be a1a2 66be
00000040: 667e 843e 29c8 6dbe cef4 71be 6c57 e1bd
00000050: 7fd2 363e 5030 3ebe afaf 693e 6f62 523e
00000060: 34b6 8fbe 5e32 75be 4398 93be 09b7 32be
00000070: 989d 7c3e 0da1 683e 5355 7a3e f9b7 62be
00000080: b6c7 923e 1b79 803e 162f 97be dd4a 2abe
00000090: 3077 823e f0cb 40be 3a8c 31be 6092 69be
000000a0: 35df 043f a77d 09bf 2c40 bcbe 9fc5 873e
000000b0: eac0 d5be 4bed bf3e 5530 bfbe 7b60 ebbe
000000c0: bf22 08bf f060 18bf 90c4 013f ed65 dbbe
000000d0: 902b 22bf d324 c1be 129a f9be 8c0f 88be
000000e0: 91ca ac3e 3e0d e13e 883a 893d 25bb d83e
000000f0: c795 843e 4f09 74be e690 593e a44a 6e3e
00000100: d2e7 9ebd 4ec2 87be 6ea0 14be a776 81be
00000110: 714d 613e 5af9 523e 015c 0b3e 2161 5fbe
00000120: 96ac 7a3e 54e3 2d3d 4527 7fbe 5b6a 7abe
00000130: 89d1 803e a112 68be b812 74be d75a 96be
00000140: 6a6f 6c3e a3fb 62be ae5a 5a3e aa9c 623e
00000150: ba4d a0be 792a 67be ac89 80be d315 63be
00000160: 677b 5b3e 5832 643e 7c7c 713e 7b99 56be
00000170: a143 703e 19ca 623e df1c 8fbe 194b 65be
00000180: 19b2 623e 6873 65be 48f0 62be 19d5 85be
00000190: 44c6 813e 4ffd 60be 99a7 693e 8044 ef3d
000001a0: f567 6ebe dca8 61be ccbf 85be 59a0 61be
000001b0: f88a 123e f0d8 793e 4959 883e dd05 fabd
000001c0: 2863 833e d34e 7b3e dac2 47be b933 6fbe
000001d0: c933 843e 405f 54be d18b 6abe 09d3 36be
000001e0: c35d 763e f880 6fbe 3a99 753e 1a0f 773e
000001f0: 09c0 55be b885 6ebe 4fca 7cbe 81f8 73be
00000200: d638 813e 7787 673e 14a1 833e fda4 73be
00000210: 2191 813e 7c9a f33d ebd6 7cbe a57a 73be
00000220: e3ea 7b3e c814 67be 00b6 62be 1ed0 12be
00000230: d3c8 5e3e 01ac 53be e78f 5d3e 3639 613e
00000240: 9f07 dcbd 4f06 5cbe ccec 0fbe c9c9 4bbe
00000250: d3df 4b3e b9d9 4b3e 4857 373e 8b1a 4dbe
00000260: 5295 7b3e 16a5 a33d 2c0a 6bbe bf9d 60be
00000270: c4d6 813e 15a9 59be 5f37 48be e796 26be
00000280: bb3e 8a3e a172 9fbe 861e 983e 7844 a13e
00000290: e095 65bd 3688 8fbe adaa 2fbe ac3b 82be
000002a0: f4e5 863e d0f4 7d3e 328f 363e dddc 4bbe
000002b0: 0059 aa3e 9de6 013e 87eb 53be abd6 92be
000002c0: 7e85 aa3e 584c 67be 8e5c 95be 2a2d 0fbe
000002d0: 6b55 bfbe 1c59 c63e 496f b33e 6621 c5be
000002e0: d59c b23d 4b55 c73e 1efe c63e 620a 0cbe
000002f0: f6d4 c7be 3572 b2be d9e4 c73e f3aa bdbe
00000300: 96e7 9fbe e9ff 7a3e 6eaa c2be 33f1 cdbe
00000310: 4acc bdbe cd61 cb3e a34c b8be 1756 aa3e
00000320: ae5f 713e 8459 8ebe b1ac 5bbe 43d1 20be
00000330: 8473 c1be dce8 673e 4fb8 52be 7ed0 7fbe
00000340: 2951 83be 3f23 89be 673f 8e3e 607b 74be
00000350: 443c 90be ab94 a0be e5c6 97be 4bc1 9bbe
00000360: 1896 7f3e ccc5 823e a9f8 633e 001e 633e
00000370: da36 8c3e 1ad7 c8be 21d5 a93e 66be b33e
00000380: 972e 44be 9f7c 92be de63 95be e4e0 9fbe
00000390: bf19 a93e e1d2 bf3e cd01 8c3e 5c9c d2be
000003a0: 0b62 ba3e 9c8b 61be f849 c2be 5b5c 74be
000003b0: d618 d03e 692f cbbe 12ce 9fbe 3ee7 223e
000003c0: c799 763e c1d4 82be 8705 7f3e f4d4 6e3e
000003d0: 0d40 d1bd f4c0 69be d1ce 26be 13db 7bbe
000003e0: 947c 843e 1186 793e 9b0a 1d3e 965b 84be
000003f0: c5bb 8a3e 83e1 bc3d 7928 8dbe 38e8 85be

weight f4 [1076, 1]
2.2745643 -0.6183037 1.8233368 0.62000525 -0.29412344 0.09189135 0.7903036 2.044186
0.65867406 0.1215731 1.4031926 -0.13342129 -0.12360134 -0.589409 1.1042204 0.11271684
0.9385805 0.21068639 1.4415603 -0.18778898 1.0518904 0.93560386 0.4113748 -1.3084891
-0.45627826 -0.28932804 -0.8272421 1.3088317 0.13729043 -1.1451313 0.16142751 0.05713058
1.9363745 0.19685303 -0.33745867 -0.5775897 0.14919506 0.11400923 -0.051315024 0.170639
1.3898708 0.14070365 -0.40731713 0.42346877 0.2004023 -0.5602624 -0.5841612 0.21569228
-0.44680402 1.2987876 0.15565298 0.22009796 -0.9771511 0.16513996 -1.6622515 0.37897485
-0.8101651 0.5603288 -1.2664009 0.7324758 1.338843 0.41946366 0.12802906 0.26064903
0.12108291 -0.98941505 0.1288688 1.3377135 0.12733734 1.2177148 0.107044116 1.6863511
0.13321668 -1.0025289 -0.83283234 0.38117722 0.26284918 -0.1570637 -0.64957786 -0.91664505
-0.40889156 -0.8654756 0.71474594 1.5576701 1.4305122 1.6548612 0.33863422 -0.072658814
-0.0941244 1.8236527 0.1804481 1.2110858 0.04613037 1.3407493 1.3232162 -0.53202176
-0.4503551 0.8397729 -0.5507117 -0.40912068 0.84382933 0.54195297 0.11407559 0.11779541
-0.33512697 -0.3676324 -0.16547517 0.104342185 0.2119195 0.09805899 0.74696195 0.08484305
0.12540253 0.47948718 0.16317914 -0.48700026 0.24320118 -0.8595126 0.16273916 0.13089788
-0.35267338 0.9949923 -0.09637156 0.14055173 0.15253583 -0.7945255 -2.319013 0.56198794
0.14227426 -0.42355597 -0.8801146 -1.7766181 0.39559534 -0.25509036 0.4261957 0.52462274
0.1541855 0.6953518 -0.5474013 -1.4572127 -0.527765 0.64716494 0.6006641 0.5908138
0.12929513 0.18053779 -0.24484222 1.0082321 0.7895307 -1.0419682 0.9097168 0.19491881
-1.1089427 0.1262501 0.45871767 0.2548721 1.9422154 0.18857463 -1.2977262 0.0027870634
-0.29582658 0.07072993 0.4436754 0.10421206 0.1716528 -0.20098121 -1.8678555 -1.450136
0.3836524 0.16494244 -0.21456122 0.49945363 -1.0170841 -0.53273046 0.1294685 -0.18462457
0.16760756 0.54612815 0.9586636 -0.72213614 0.995373 -1.2246298 -0.07837166 -0.96072614
0.38727036 0.66723275 1.1602741 -0.73025715 0.23635474 -1.4100537 0.8083645 1.6309105
0.28298357 0.12882243 0.32159138 2.4933116 0.6653324 0.5385171 -0.4901452 -0.8555967
1.0932964 -1.0027659 0.26464996 -1.4529749e-07 0.19153985 0.14387341 0.10852174 0.58516395
-0.69193435 1.7019417 0.9965955 -1.0399727 0.9919468 0.8701496 1.057971 2.0366561
-0.27526495 0.4317831 1.1014987 1.4459913 0.10794041 0.15360314 -0.045220748 -0.21971917
-1.3195139 -0.3073331 0.056587048 0.08679201 -0.4949463 0.2915796 -1.0630072 -0.09320976
-0.0010366982 -0.37339213 1.3228455 -0.079454675 0.17463833 -1.5822694 0.6325581 0.21294668
-0.24476334 0.41087264 0.2278112 0.6389482 0.1062868 1.0193884 -0.7231152 0.21013808
-0.28514814 0.037464574 0.1432723 -0.05435127 0.43266085 0.48568374 0.49778217 0.3094211
00000000: 7692 1140 2749 1ebf 1a63 e93f aab8 1e3f
00000010: 5997 96be 8831 bc3d 5651 4a3f f2d3 0240
00000020: dd9e 283f 51fb f83d d19b b33f 979f 08be
00000030: b322 fdbd 82e3 16bf 1857 8d3f 16d8 e63d
00000040: d046 703f 2cbe 573e 0c85 b83f c14b 40be
00000050: 58a4 863f bc83 6f3f b89f d23e 927c a7bf
00000060: 4e9d e9be ce22 94be 23c6 53bf cc87 a73f
00000070: dd95 0c3e aa93 92bf 414d 253e c101 6a3d
00000080: 1fdb f73f d793 493e 62c7 acbe ebdc 13bf
00000090: 97c6 183e ac7d e93d b42f 52bd fdbb 2e3e
000000a0: 49e7 b13f 9e14 103e df8b d0be e6d0 d83e
000000b0: 4336 4d3e 5b6d 0fbf 978b 15bf 70de 5c3e
000000c0: 7fc3 e4be ac3e a63f 7f63 1f3e 5c61 613e
000000d0: 9326 7abf 731a 293e a8c4 d4bf fe08 c23e
000000e0: fb66 4fbf b571 0f3f 6d19 a2bf 8983 3b3f
000000f0: 355f ab3f f1c3 d63e 0d1a 033e ca73 853e
00000100: 51fa f73d 4e4a 7dbf 2ff6 033e 323a ab3f
00000110: b864 023e 14de 9b3f f239 db3d 5ada d73f
00000120: f469 083e de52 80bf 8034 55bf a929 c33e
00000130: 2b94 863e 4ed5 20be bc4a 26bf 40a9 6abf
00000140: 3c5a d1be cf8f 5dbf 97f9 363f bc61 c73f
00000150: 061b b73f 7ed2 d33f 7761 ad3e 25ce 94bd
00000160: 4bc4 c0bd 746d e93f 63c7 383e dc04 9b3f
00000170: 33f3 3c3d ac9d ab3f 265f a93f 9432 08bf
00000180: f294 e6be 5bfb 563f 71fb 0cbf 4478 d1be
00000190: 3305 583f 6ebd 0a3f 77a0 e93d b83e f13d
000001a0: c395 abbe 503a bcbe 5372 29be 5bb1 d53d
000001b0: 6d01 593e 27d3 c83d e638 3f3f 31c2 ad3d
000001c0: 8569 003e 587f f53e 6f18 273e 1958 f9be
000001d0: bb09 793e 0509 5cbf 18a5 263e 180a 063e
000001e0: 9b91 b4be d1b7 7e3f 745e c5bd cbec 0f3e
000001f0: 5a32 1c3e 0666 4bbf b66a 14c0 71de 0f3f
00000200: 58b0 113e 54dc d8be 314f 61bf 3968 e3bf
00000210: 798b ca3e 349b 82be 5336 da3e ad4d 063f
00000220: cee2 1d3e 9302 323f 7e22 0cbf f285 babf
00000230: 9b1b 07bf 9aac 253f 1fc5 193f 933f 173f
00000240: f165 043e e6de 383e ebb7 7abe c00d 813f
00000250: af1e 4a3f 375f 85bf 33e3 683f cc98 473e
00000260: d6f1 8dbf b547 013e 0bdd ea3e 997e 823e
00000270: 849a f83f b519 413e e41b a6bf 2aa7 363b
00000280: 9576 97be dbda 903d 6c29 e33e 226d d53d
00000290: c0c5 2f3e 05ce 4dbe e415 efbf 0e9e b9bf
000002a0: 166e c43e ace6 283e f0b5 5bbe 63b8 ff3e
000002b0: d02f 82bf 0661 08bf 6493 043e 390e 3dbe
000002c0: 51a1 2b3e 0ecf 0b3f fa6a 753f eadd 38bf
000002d0: c4d0 7e3f abc0 9cbf 5281 a0bd 26f2 75bf
000002e0: 4d48 c63e c4cf 2a3f dd83 943f 22f2 3abf
000002f0: fa06 723e a47c b4bf faf0 4e3f adc1 d03f
00000300: 39e3 903e 07ea 033e a0a7 a43e 6b92 1f40
00000310: 3953 2a3f 42dc 093f 50f4 fabe 6308 5bbf
00000320: 23f1 8b3f a25a 80bf 3380 873e 1203 1cb4
00000330: 0623 443e 8d53 133e a540 de3d 4ecd 153f
00000340: 9c22 31bf 3ad9 d93f e220 7f3f d31d 85bf
00000350: 3af0 7d3f 20c2 5e3f 986b 873f 9358 0240
00000360: 87ef 8cbe ad12 dd3e e9fd 8c3f 3e16 b93f
00000370: dd0f dd3d 244a 1d3e 6439 39bd 10fe 60be
00000380: d5e5 a8bf c45a 9dbe d2c7 673d 02c0 b13d
00000390: 9a69 fdbe ec49 953e 9f10 88bf c2e4 bebd
000003a0: d2e1 87ba 412d bfbe 0053 a93f 22b9 a2bd
000003b0: 64d4 323e ce87 cabf 54ef 213f b20e 5a3e
000003c0: 3ea3 7abe e65d d23e 5747 693e 1c92 233f
000003d0: e5ac d93d 527b 823f 141e 39bf 702e 573e
000003e0: f0fe 91be 7474 193d f9b5 123e 709f 5ebd
000003f0: b985 dd3e 8aab f83e 4edd fe3e 716c 9e3e
