DeepCGSR_triet/results/Digital_Music_5/RemovedOutliner/triet_deepcgsr.pt (torch, 30923 bytes, 4 tensors)

user_bias f4 [5276]
000000 81 9c 2b 3e e5 1b 92 3e 00 00 00 00 fa 0b af 3e
       0.1675892 0.28536907 0.0 0.34188825
000010 00 00 00 00 15 d0 62 3e f5 ff 1b 3e 87 7b 10 3e
       0.0 0.2214969 0.15234359 0.14109622
000020 77 26 4b 3e e0 39 3e 3e 31 bb 92 3e 41 78 38 3e
       0.19838892 0.18576765 0.2865844 0.18014623
000030 df d1 06 3e 00 00 00 00 bb 94 36 3e fd fc 36 3e
       0.13165997 0.0 0.17830174 0.17869945
000040 4d cc 44 3e d3 5f fc 3d bb 8f 89 3e 3a 44 1b 3e
       0.1921856 0.123229645 0.2686747 0.15162745
000050 f3 32 3d 3e 44 c0 00 3f ee e9 9f 3e 00 00 00 00
       0.18476467 0.50293374 0.31233162 0.0
000060 4c a6 77 3e 7a 20 61 3e 5b 8f 52 3e d9 f5 96 3e
       0.24184531 0.21985045 0.20562498 0.29484442
000070 fc cd 2c 3e 69 41 4e 3e 32 a9 31 3e 91 a1 35 3e
       0.16875452 0.2014214 0.17349699 0.17737414
000080 3d ed 3f 3e 31 17 17 3e ca 5d 4f 3e de 04 32 3e
       0.18742843 0.1475494 0.20250621 0.17384669
000090 73 21 5e 3e 00 00 00 00 00 00 00 00 33 8c ae 3e
       0.21692447 0.0 0.0 0.3409134
0000a0 6e 13 a3 3d f0 47 46 3e 0c 66 39 3e 38 d7 43 3e
       0.0796269 0.1936338 0.18105334 0.19125068
0000b0 00 00 00 00 fa a6 0e 3e 31 b3 10 3e 32 7a 35 3e
       0.0 0.13930884 0.14130856 0.17722395
0000c0 e5 fc 59 3e e9 71 21 3e 5c 32 a6 3e 65 02 2b 3e
       0.21287878 0.1576611 0.32460296 0.16700132
0000d0 72 a6 3c 3e 00 00 00 00 34 53 1b 3e 00 00 00 00
       0.18422869 0.0 0.15168458 0.0
0000e0 5e a7 dc 3e cd e8 54 3e e4 18 50 3e 00 00 00 00
       0.4309644 0.20791931 0.20321995 0.0
0000f0 00 00 00 00 15 7e 13 3e 00 00 00 00 f0 11 07 3e
       0.0 0.14403565 0.0 0.13190436
000100 e9 5b 47 3e c0 07 57 3e 00 00 00 00 9a de 22 3e
       0.19468655 0.2099905 0.0 0.15905228
000110 9c 24 42 3e f8 81 04 3e 00 00 00 00 72 8f 20 3e
       0.18959278 0.12940204 0.0 0.1567972
000120 00 00 00 00 b7 29 34 3e 00 00 00 00 08 a9 4a 3e
       0.0 0.17594038 0.0 0.19791043
000130 79 5b 53 3e 00 00 00 00 00 00 00 00 39 7e 46 3e
       0.20640363 0.0 0.0 0.19384088
000140 ac 96 4b 3e 26 d1 9c 3e ba 75 66 3e 7f ea 41 3e
       0.19881696 0.30628318 0.22505847 0.1893711
000150 7c a0 0e 3e 00 00 00 00 3a 8a 83 3e 49 2f 51 3e
       0.13928407 0.0 0.25691396 0.20428194
000160 02 ca 47 3e 00 00 00 00 a8 56 c1 3e 00 00 00 00
       0.19510654 0.0 0.37761426 0.0
000170 9b 3d 1e 3e 32 ee 7e 3e 26 bf 13 3e 00 00 00 00
       0.15453188 0.24895552 0.14428386 0.0
000180 c3 91 5e 3e 71 04 00 3e 7b 3d 58 3e 10 95 05 3e
       0.21735291 0.12501694 0.21117203 0.13045144
000190 00 00 00 00 11 4a 33 3e 60 1c 86 3e 7c a2 3d 3e
       0.0 0.17508723 0.26193523 0.18519014
0001a0 0a 46 17 3e bb 2c 45 3e 68 7f 7c 3e 15 81 2d 3e
       0.14772812 0.19255345 0.24657977 0.16943772
0001b0 5f 3f 1a 3e 00 00 00 00 de 8b 53 3e 46 17 3d 3e
       0.15063237 0.0 0.20658824 0.1846591
0001c0 a3 77 88 3e 49 87 5d 3e 00 00 00 00 fc d0 10 3e
       0.26653776 0.21633638 0.0 0.14142221
0001d0 f6 64 53 3e 00 00 00 00 cc 06 3c 3e 52 30 25 3f
       0.20643982 0.0 0.18361968 0.64526856
0001e0 28 89 23 3e 9b 98 38 3e 96 c4 5f 3e af 3d 95 3e
       0.1597029 0.18026964 0.21852335 0.29148623
0001f0 00 00 00 00 e0 f7 2f 3e cf 2c 4b 3e 99 dc 5c 3e
       0.0 0.171844 0.19841312 0.21568526
000200 23 8e 2b 3e 86 b4 2e 3e 17 2d 39 3e 52 c3 41 3e
       0.1675344 0.17061052 0.18083607 0.18922165
000210 1a 4c 84 3e 19 89 07 3e 71 6e d2 3e 8e 6b 18 3e
       0.2583931 0.13235892 0.41099885 0.14884779
000220 61 28 17 3e 73 7c 3f 3e 9b cc 93 3e 41 05 32 3e
       0.14761497 0.18699817 0.2886704 0.17384817
000230 a5 88 f8 3d 00 00 00 00 2d f6 8f 3e ab 08 09 3e
       0.12135438 0.0 0.28117505 0.13382213
000240 00 00 00 00 6c 1c 3a 3e 00 00 00 00 b6 40 c3 3e
       0.0 0.18174905 0.0 0.38135308
000250 d9 15 80 3e ba 7b 77 3e b9 f0 5e 3e 0a c8 f4 3e
       0.25016668 0.24168292 0.21771516 0.47808868
000260 4d 6b 2f 3e dd 09 4d 3e 0b 83 a0 3e 10 2c 17 3e
       0.17130776 0.20023294 0.31349978 0.14762902
000270 f0 e6 6b 3e 3c c0 38 3e 1c 3b 6f 3e 9c 34 06 3e
       0.23037314 0.18042082 0.23362392 0.13106006
000280 46 ab 1b 3e b9 a2 27 3e 58 1e 46 3e c7 f5 17 3e
       0.15202054 0.16370668 0.19347513 0.1483985
000290 d6 f1 39 3e 00 00 00 00 00 00 00 00 b5 e1 12 3e
       0.1815866 0.0 0.0 0.14343913
0002a0 0b 46 3f 3e dc 3f 36 3e 5d ef 56 3e 74 ed 18 3e
       0.18679063 0.17797798 0.20989747 0.14934331
0002b0 9b 69 5b 3e ad ec 2c 3e 58 15 03 3e 1b 22 77 3e
       0.21427004 0.1688716 0.1280111 0.24134104
0002c0 8f 46 02 3e 44 a3 16 3e 02 01 58 3e 2c 32 21 3e
       0.12722228 0.14710718 0.21094134 0.15741795
0002d0 92 5f 24 3e 00 00 00 00 2f 79 89 3e 34 a4 3e 3e
       0.16052082 0.0 0.26850268 0.18617326
0002e0 76 e6 87 3e a3 32 da 3e 44 e8 30 3e 00 00 00 00
       0.26543015 0.42616758 0.17276102 0.0
0002f0 00 00 00 00 00 00 00 00 f6 99 43 3e a1 04 4c 3e
       0.0 0.0 0.191017 0.19923641
000300 9e 51 36 3e 7b 0f b4 3d 10 8a ff 3d 00 00 00 00
       0.17804572 0.08792015 0.12477505 0.0
000310 65 97 0f 3e 00 00 00 00 fd 9a 49 3e 00 00 00 00
       0.14022596 0.0 0.1968803 0.0
000320 dd 10 67 3e 86 7d 50 3e 57 6f 4d 3e b9 3c 0d 3e
       0.22565027 0.20360383 0.20062004 0.13792695
000330 cb 13 49 3e da e6 a9 be 3a ce 56 3e 6e 4c 4b 3e
       0.19636457 -0.33183938 0.20977107 0.19853374
000340 c3 52 33 3e 47 4e 6b 3e cc 2f 2e 3e 27 7e 87 3e
       0.1751204 0.22979079 0.1701042 0.26463434
000350 00 00 00 00 93 ba 4d 3e e1 b7 0e 3e 4a 83 fe 3d
       0.0 0.20090704 0.13937332 0.12427385
000360 d0 e5 9d 3e 00 00 00 00 f9 d5 96 3e 4e b2 19 3e
       0.30839396 0.0 0.29460123 0.15009424
000370 01 85 15 3e 00 00 00 00 00 00 00 00 2e 4d 8c 3e
       0.14601518 0.0 0.0 0.27402633
000380 00 00 00 00 36 7c 9d 3d 0a 42 50 3e 01 fe 67 3e
       0.0 0.07689707 0.20337692 0.22655489
000390 00 00 00 00 57 58 4e 3e a2 b5 17 3f 5f 89 80 3e
       0.0 0.20150886 0.59261525 0.25104806
0003a0 3f a9 18 3e 5b a3 12 3e e0 dc 0b 3e 36 37 28 3e
       0.14908312 0.14320128 0.13658476 0.16427311
0003b0 b9 ee 45 3e 8f 4e 31 3e 00 00 00 00 81 91 2c 3e
       0.19329347 0.17315124 0.0 0.1685238
0003c0 a3 11 14 3e 03 55 53 3e 6b bc e7 3d 1d 4c e4 3c
       0.14459853 0.20637898 0.11315235 0.027868325
0003d0 1d 47 57 3e 46 52 f9 3d 4a 7b 43 3e f6 98 08 3e
       0.21023221 0.121738955 0.1909 0.133396
0003e0 66 d1 b6 3e 25 16 40 3e 00 00 00 00 82 61 fb 3e
       0.35706633 0.18758447 0.0 0.4909783
0003f0 ae bc ce 3d 1d 50 3e 3e ec a9 1c 3e 47 6e 3e 3e
       0.100945815 0.18585248 0.15299195 0.18596755

item_bias f4 [1221]
000000 3b 9b b6 3e 39 fc e9 3e 33 0f de 3e b6 d9 88 3f
       0.35665306 0.45700243 0.4337097 1.069144
000010 69 87 13 3f aa 0b 8c 3f f2 4e 1d 3f e5 b1 09 3e
       0.57628495 1.094106 0.61448586 0.13446768
000020 56 d5 fc 3e d5 c0 55 3e c2 42 2a 3e 61 67 02 3e
       0.49381512 0.20874341 0.16627029 0.12734748
000030 00 00 00 00 19 79 55 3e 16 77 9b 3e cf da ae 3e
       0.0 0.20846976 0.30364293 0.34151313
000040 c5 78 95 3e bf 38 99 3e 53 4d a1 3e 92 ff b8 3e
       0.29193702 0.29926106 0.31504306 0.36132485
000050 16 dd 80 bd bf 2a 52 3e 0f 9a ae 3e a5 85 0e 3e
       -0.06292169 0.20524119 0.34101912 0.13918169
000060 01 a5 c7 3e e5 52 8b 3e a5 b0 8e 3e 95 97 e9 3e
       0.38993075 0.2721168 0.27869144 0.4562346
000070 f2 08 c1 3e ac b3 9e 3e dd 9d d6 3e b9 34 9f 3e
       0.37702137 0.30996454 0.41917315 0.31094912
000080 20 d4 39 3e 69 b3 2f 3e 1c f6 83 3e cd 77 fa 3e
       0.18147326 0.17158283 0.25773704 0.48919526
000090 8f a0 11 3f 69 42 0c 3f 82 f8 9a 3e 24 18 08 3f
       0.5688562 0.54788834 0.3026772 0.53161836
0000a0 87 1d a6 3e c3 be 5b 3e 85 53 12 3e 00 00 00 00
       0.32444403 0.21459489 0.14289673 0.0
0000b0 3e ff 33 3e 5c 77 4c 3e b4 b8 36 3f 2c 08 dc 3e
       0.17577836 0.19967407 0.71375585 0.42974985
0000c0 74 ec a5 3e a1 18 02 3e 48 5e c4 3e f2 0e e1 3e
       0.32406962 0.12704708 0.3835318 0.43956715
0000d0 0f 3b 4c 3e 64 c1 5a 3e 57 c1 5e 3e e4 02 66 3f
       0.19944404 0.21362835 0.21753441 0.8984816
0000e0 24 e3 03 3f 4f fb 8e 3e 2d 35 96 3e f7 a2 58 3e
       0.51518464 0.27926108 0.29337445 0.21155916
0000f0 86 75 76 3e 7d 37 89 3e 08 61 16 3f 87 82 0e 3f
       0.24068269 0.26800147 0.5874181 0.5566792
000100 9b ea 3c 3e 27 a8 f7 3d 1a bf 6b 3e 38 91 48 3e
       0.1844887 0.120926194 0.23022118 0.19586647
000110 a2 17 28 3e 91 80 5c 3e 23 cc 28 3f 36 50 fe 3e
       0.16415265 0.21533419 0.6593649 0.4967057
000120 82 e1 07 3e 3e a7 09 3f 0c a2 27 3f 00 00 00 00
       0.13269618 0.53770816 0.6548164 0.0
000130 f4 19 8c 3e 56 c5 9f 3e eb 84 a2 3e f0 eb 55 3e
       0.2736355 0.31205243 0.31742033 0.20890784
000140 cb 70 0f 3e 27 76 1b 3e d7 c5 8d 3e 86 df 08 3f
       0.14007871 0.1518179 0.27690002 0.5346607
000150 04 f3 29 3f 5c 38 55 3e 0c 55 da 3e 3b b3 24 3f
       0.6638644 0.2082228 0.4264301 0.64335984
000160 d8 e0 94 3e 22 4a a3 3f 65 38 0f 3f 8b 79 0c 3e
       0.29077792 1.2756999 0.55945426 0.1371824
000170 c2 52 ee 3e 08 7a 2c 3e a2 a6 47 3e 00 00 00 00
       0.46547514 0.16843426 0.19497159 0.0
000180 09 80 55 3e 09 66 bd 3e 4d f2 18 3e 81 2e 09 3e
       0.20849623 0.3699191 0.1493618 0.13396646
000190 db ff 55 3e fb 70 a6 3e a5 a3 96 3e f4 2f f3 3e
       0.20898382 0.32508072 0.29421726 0.47497523
0001a0 00 00 00 00 16 82 8d 3e f7 9c 01 3f a4 b5 15 3f
       0.0 0.2763831 0.50630134 0.58480287
0001b0 90 ee e5 3e 42 69 51 3e 91 dd a9 3e a8 f4 35 3f
       0.4490857 0.20450309 0.33176854 0.7107644
0001c0 08 ee f0 3e 2f 2d cc 3e d1 7a 0d 3f 9c f5 b2 3e
       0.47056603 0.39878222 0.5526553 0.3495301
0001d0 e3 7b 0e 3f d8 f8 ee 3e 92 68 7f 3e 89 df 43 3e
       0.55657786 0.46674228 0.24942234 0.1912824
0001e0 49 98 43 3e 2e 0d 64 3e 00 00 00 00 01 ab e1 3e
       0.19101061 0.22270653 0.0 0.44075778
0001f0 01 94 ba 3e 00 00 00 00 f5 2f 99 3e 36 45 9e 3e
       0.36441043 0.0 0.299194 0.3091218
000200 d5 fe 4f 3e de 3f d9 3e f1 38 36 3f 8f 1c ae 3e
       0.20312054 0.4243154 0.71180636 0.34006163
000210 2d 4e 09 3f 11 57 75 3e d0 16 65 3f d8 71 d6 3e
       0.5363491 0.23958994 0.89487934 0.4188373
000220 b4 16 a1 3e 3b 2e 08 3f d9 b3 3e 3e c3 d2 34 3e
       0.31462634 0.5319554 0.18623294 0.17658524
000230 a8 61 0f 3f 54 95 d6 3e d7 c2 31 3e cd c1 ec 3e
       0.56008387 0.41910803 0.17359482 0.46241608
000240 47 2a 40 3f 00 00 00 00 1e f3 96 3e d2 c1 c1 3e
       0.7506451 0.0 0.2948236 0.37843186
000250 77 9c 24 3f d1 4e 06 3f 9d 04 b5 3e 44 d9 88 3e
       0.64301246 0.52464014 0.35355082 0.2672826
000260 00 00 00 00 ff a2 d6 3e 4c 84 02 3f 5b a2 d2 3e
       0.0 0.4192123 0.5098312 0.41139492
000270 00 00 00 00 03 da 4e 3f 55 d2 42 3f c4 bb 31 3f
       0.0 0.8080141 0.7610219 0.6942713
000280 2e 00 0c 3f e2 67 71 3e 00 f1 e9 3d f7 18 e5 3e
       0.54687774 0.23574784 0.1142292 0.4474561
000290 30 e8 0c 3f 5f f8 8c 3e d8 83 20 3f 08 2f fc 3e
       0.5504179 0.27533242 0.6270118 0.49254632
0002a0 5b bd b7 3e c6 4e 09 3f 8e 68 03 3f 7e fd 5d 3e
       0.35886654 0.53635824 0.5133141 0.21678731
0002b0 11 8b 3e 3e 85 1b 1c 3e 3f 88 e1 3e 37 4a 03 3f
       0.18607737 0.15244873 0.4404926 0.5128512
0002c0 59 2b 81 3e bd 3e 7c 3e 25 af cf 3e 51 40 d3 3e
       0.25228384 0.24633308 0.40563312 0.41260007
0002d0 c3 da 5a 3e 77 28 c3 3e fe 45 42 3e e0 fc dc 3e
       0.21372513 0.3811681 0.18972012 0.43161678
0002e0 43 cd a1 3e 52 2c f5 3e a4 e8 41 3f ed ab 97 3e
       0.31601915 0.47885376 0.75745606 0.29623356
0002f0 1a 5e 85 3e c1 b6 01 3f 60 9c fc 3e 3c 8a 8d 3e
       0.26048356 0.50669485 0.49338055 0.27644527
000300 04 9e eb 3e c6 bd 5c 3e e4 7b 93 3e f6 98 08 3e
       0.46018994 0.21556768 0.2880546 0.133396
000310 91 eb d2 3e ff 05 83 3e 26 7f 96 3f 5a 47 48 3e
       0.41195348 0.25590512 1.1757553 0.19558468
000320 03 da 28 3e fe bc 0d 3f 7f 2f 5a 3e 61 02 06 3f
       0.16489415 0.55366504 0.21307181 0.5234738
000330 26 3f 05 3f 33 aa 25 3f 31 a5 96 3e 41 b0 c2 3e
       0.5204948 0.6471283 0.29422906 0.38025096
000340 fd d3 69 3f c3 9a 0d 3e 6c 71 16 3f 2d d7 1c 3f
       0.91339093 0.13828568 0.5876682 0.6126583
000350 76 ae b7 3e 00 00 00 00 30 02 6c 3e 00 00 00 00
       0.3587529 0.0 0.2304771 0.0
000360 76 55 3d 3e fa 3e 14 3f 97 66 23 3f 03 03 c4 3e
       0.18489632 0.57908595 0.63828415 0.38283548
000370 f9 ea 2e 3f 69 a8 df 3e a2 26 d4 3e fe 37 d0 3e
       0.6832729 0.43683174 0.41435724 0.4066772
000380 0c e8 fa 3e 7c 6e 35 3f 00 00 00 00 e8 21 a0 3e
       0.49005163 0.7087171 0.0 0.31275868
000390 16 e8 43 3e 5c 50 17 3f 86 67 31 3e 72 fa a3 3e
       0.19131503 0.59106994 0.17324647 0.32027012
0003a0 89 95 cc 3e fe d5 11 3f 98 43 42 3e 49 41 2b 3f
       0.39957836 0.5696715 0.18971097 0.6689649
0003b0 7c ac ce 3e 0d fc 9d 3e 1f b8 4d 3e 00 00 00 00
       0.4036597 0.30856362 0.20089768 0.0
0003c0 d3 22 1b 3e b0 7d d9 3e d8 57 a2 3e 9c d8 39 3f
       0.15150003 0.42478704 0.31707644 0.72596145
0003d0 24 1c 43 3e d5 dc 69 3e 1e 38 f0 3e 0d aa 75 3e
       0.19053704 0.22838147 0.46917814 0.2399065
0003e0 2f 0e e3 3e 80 37 61 3f 6b e1 55 3f 00 00 00 00
       0.4434676 0.8797531 0.83547086 0.0
0003f0 86 fe 22 3f 00 00 00 00 8d 2b a1 3e b3 41 d6 3e
       0.6366962 0.0 0.3147854 0.41847

weight f4 [21, 21]
000000 a7 2c aa bd 5e c0 9f bd 7e cf 9f 3d e3 40 4e 3e
       -0.08309298 -0.07800363 0.07803248 0.2014194
000010 d3 8a 1c 3e 0f 26 0d 3e 33 40 9c bd ae a2 1f be
       0.15287332 0.1378405 -0.076294325 -0.15589401
000020 ac 53 b3 3d 62 0b 27 be 71 49 ce 3c 2d 87 15 3e
       0.087561935 -0.16312936 0.025181504 0.14602347
000030 12 dd e2 bd 11 54 e8 3d 5f 31 26 3d cf 47 98 3c
       -0.11077322 0.113441594 0.040574428 0.018588929
000040 2e 63 40 be 47 56 fd bd 4c 88 39 3e 74 61 d4 bd
       -0.18787834 -0.12369972 0.181184 -0.1037015
000050 5b a7 f1 3d 12 ec 09 be 15 88 30 3d bb d5 10 3e
       0.11799499 -0.1346896 0.043098528 0.14144032
000060 e9 45 09 3e fe df 15 3e 8b db d5 bd b0 92 ea bd
       0.13405575 0.14636227 -0.10442265 -0.1145376
000070 1c 2c ea bc 3c 69 39 3e 60 e4 3d 3d 3d 58 52 be
       -0.028585486 0.1810655 0.046360373 -0.20541473
000080 98 12 8e 3c 88 58 18 3e 42 c3 2c bd 5b ea dd bc
       0.01734285 0.14877522 -0.0421784 -0.027089288
000090 78 d6 18 bb de af 3c bd 4e 5b 29 be 6d fb 5c 3e
       -0.0023321193 -0.046066158 -0.16538736 0.21580286
0000a0 f4 8f 83 3d 2e 15 19 3d fc 07 c7 bd 83 fd 20 3e
       0.06423941 0.037373714 -0.0971832 0.15721707
0000b0 af b1 18 be d4 05 a8 3d 99 b3 03 be 33 a5 b9 bd
       -0.14911531 0.082042366 -0.1286148 -0.090647124
0000c0 f5 26 e9 b9 5e bf 8e bc dc 23 57 3e e1 f5 16 be
       -0.00044470248 -0.017425235 0.21009773 -0.14742233
0000d0 5b 51 5c 3e 8e 19 2d be b4 a4 32 3e f7 ee ad bd
       0.2151541 -0.1690428 0.17445642 -0.084928446
0000e0 56 c1 51 be f9 cb a8 bd d4 2e 40 be bb e3 03 be
       -0.20483908 -0.0824203 -0.18767864 -0.12879841
0000f0 62 2f 06 be e3 d0 49 be cc 40 4f be bb 33 40 be
       -0.13104013 -0.1970859 -0.20239562 -0.18769734
000100 81 5b c8 bd c6 62 29 3e 4d 2e 56 3e 3e 04 78 bc
       -0.09783078 0.16541585 0.209161 -0.01513773
000110 d3 73 20 be 80 f3 08 be 6b b6 29 3d 25 1e 11 be
       -0.15669183 -0.13374138 0.041433733 -0.14171655
000120 81 39 49 3e 05 ec f3 3d 07 cb 06 be 25 3f 3c 3e
       0.19650842 0.119102515 -0.13163386 0.18383463
000130 f7 2d 29 be d9 2b 0c 3e 4a 71 e9 3d d1 2e fa bd
       -0.1652144 0.13688602 0.11398561 -0.12215961
000140 4b 8a 52 3e 40 0d 39 bc 4f 31 5c 3e 40 41 57 be
       0.20560567 -0.011294663 0.21503185 -0.21020985
000150 f5 3b 2d bd 38 54 1b 3e 8a eb 26 bd 54 9d fa 3d
       -0.042293508 0.15168846 -0.04075197 0.12237039
000160 30 53 39 3e da 19 12 3e 30 c2 02 3e 79 b1 7a 3d
       0.1809814 0.14267674 0.12769389 0.061204407
000170 01 0b da 3d 47 fa d3 bd 7a cf 60 3c 63 ea 1f bd
       0.1064663 -0.10350471 0.013721341 -0.039041888
000180 ee db f1 3d 2c 6f b1 3d 03 c0 60 bd 52 7f 52 3e
       0.118095264 0.086637825 -0.054870617 0.20556381
000190 08 ec cc bd f4 fc 56 3e c8 50 da 3d 06 e3 07 3e
       -0.10005957 0.20994931 0.10659939 0.13270196
0001a0 7b cd 82 bc 79 e7 38 bd f9 1f 3c be 81 e1 50 3d
       -0.015967121 -0.045142625 -0.18371572 0.050996307
0001b0 29 68 11 be 16 67 4d 3e 73 8e 53 be 6d c9 d2 bd
       -0.1419989 0.20058855 -0.20659809 -0.10292325
0001c0 17 eb 29 3d 38 31 15 3e 95 70 9a 3d 6a 19 ea 3d
       0.041483965 0.14569557 0.075410046 0.114306286
0001d0 d7 1c 44 3e 5a e9 38 3e f3 f9 00 3e 02 58 f0 3c
       0.19151627 0.18057767 0.12595348 0.02933884
0001e0 46 60 2c be a0 ee 50 be 02 c4 bd 3d 62 d1 e2 3c
       -0.168336 -0.20403528 0.09265901 0.027687732
0001f0 54 0a 8f 3d 91 a4 29 be 3f 1a d8 3d ea e6 8c 3d
       0.06984392 -0.16566683 0.10551881 0.06879981
000200 92 e1 ef bd 61 26 b7 bd 48 a7 ee bd eb 35 b1 3c
       -0.11712946 -0.08942867 -0.11653 0.021632155
000210 a9 80 cf bd 33 d1 3c bd 75 d1 91 bd ce 0e 10 3e
       -0.10131962 -0.046097945 -0.07120029 0.14068148
000220 02 e4 84 bd e5 9f d3 bd f1 9e 52 be ee 54 3b be
       -0.064888015 -0.10333232 -0.20568444 -0.18294117
000230 e8 23 47 be 11 b9 8a 3d 02 86 bd 3d f1 2e 54 be
       -0.19447291 0.0677358 0.092540756 -0.20721032
000240 c4 01 9f 3c 02 a7 dd bd 33 1b a9 3d 82 14 f5 3d
       0.019410022 -0.1082287 0.08257141 0.11966802
000250 f9 67 58 3e f6 cb c5 3d a3 a1 8e 3c b0 42 fe bb
       0.21133412 0.09658043 0.017411059 -0.0077594146
000260 47 34 57 be 2d 8a 4c bd 7a 6b c2 3d c9 31 f7 bd
       -0.21016036 -0.049936462 0.09493156 -0.12070043
000270 f8 6b ee 3d b9 4f ad bd f9 21 a2 bc 2b 03 cc 3d
       0.11641687 -0.084624715 -0.01979159 0.09961542
000280 ea b0 55 be 49 2c 30 be 76 53 c6 3d ae b3 ad 3c
       -0.20868269 -0.17204393 0.09683888 0.021203842
000290 90 89 15 be a9 94 d6 bd b9 4c 0c 3e a5 83 ad bd
       -0.14603257 -0.104775734 0.13701142 -0.08472375
0002a0 96 c1 6b 3d 74 68 1a 3e 0f af 30 be a5 81 ca bd
       0.057557665 0.15078908 -0.1725428 -0.09888009
0002b0 37 09 55 3e 8b b3 40 be cb 63 21 3e 2d 08 10 3e
       0.20804296 -0.1881849 0.15760724 0.14065619
0002c0 20 65 e4 bd 96 fd 93 bd 54 ab 48 3d 2a 11 32 3e
       -0.111521006 -0.07226102 0.048991516 0.1738936
0002d0 3c 7b 43 be f7 ae ac 3c 36 aa 23 be 35 82 90 3d
       -0.19089979 0.021079523 -0.15982899 0.07056085
0002e0 63 87 8c bd 42 15 bd 3c 1c a7 fa 3d 56 89 e4 bd
       -0.068617605 0.023081426 0.12238905 -0.11159007
0002f0 71 44 8b 3c ef 49 f4 bd c0 d7 b2 3d 5b 02 84 3d
       0.017000409 -0.11928164 0.08732557 0.06445762
000300 0e 97 c6 3d e7 0c f8 3d a1 a5 50 bc b9 74 32 be
       0.0969678 0.12111836 -0.0127348015 -0.17427339
000310 56 e3 b4 3d 81 66 04 be ab 6a 67 3d 7e 83 f7 bd
       0.088324234 -0.12929727 0.05649821 -0.12085627
000320 ab 24 1d be a3 ed b8 bd be 5e 57 bd 84 a7 30 3e
       -0.15346019 -0.090297006 -0.052580588 0.17251402
000330 e3 30 e5 3d 13 d4 ca bd 44 ea 46 bd bd a6 2e 3e
       0.11190965 -0.09903731 -0.048563257 0.17055793
000340 2a e1 be 3d 67 8a a6 3d 01 eb 71 3c ae 34 fa bd
       0.093202904 0.08131867 0.014765502 -0.12217079
000350 03 1d 02 be ab 57 eb 3d d4 27 d9 3c 48 5f 00 3e
       -0.1270638 0.11491331 0.02650825 0.12536347
000360 06 83 22 3e ac 95 07 3e 53 e6 13 be ea a0 a4 3c
       0.15870294 0.13240689 -0.1444333 0.020096261
000370 3a 89 9a 3d 12 21 71 bd f5 1c 2b 3e ac f0 e1 bc
       0.07545705 -0.05886943 0.16710265 -0.027580582
000380 a7 0a 5e bd 53 db 5d 3d e2 76 e0 bc 64 e5 18 3d
       -0.054209378 0.054164242 -0.027400438 0.03732814
000390 39 43 c4 3d b9 b8 44 be 6a b6 ab 3d e0 4d 39 be
       0.09583134 -0.19211091 0.08384402 -0.18096113
0003a0 1a 17 f9 3d 0e 37 b8 3d a0 d1 0b be 8c 9c ea 3b
       0.121626094 0.08994876 -0.13654184 0.007159775
0003b0 a3 04 12 3e 93 44 c9 bc 5c 84 29 3e ca 24 2f 3e
       0.14259581 -0.024568832 0.16554397 0.17103878
0003c0 ba 00 a4 bd 4a 66 16 3e d4 28 dc 3c 14 18 ee 3c
       -0.08007951 0.14687458 0.026874937 0.029064216
0003d0 22 af 1b be 6f 0b 22 3e 47 4d 00 3e 1c c9 3f 3e
       -0.15203527 0.15824674 0.12529479 0.18729061
0003e0 cb e0 bb bd 2e 96 3e 3e 35 05 e3 bd a4 07 50 bb
       -0.09173735 0.18611977 -0.110849775 -0.0031742835
0003f0 8f 20 3f 3e ad 8c 3b be 4d 6c 22 3e e2 a2 36 be
       0.18664764 -0.18315382 0.15861626 -0.17835572

bias f4 [21]
000000 db 42 37 be 2f a9 79 3d a9 b7 47 be ef 72 e7 bd
       -0.17896597 0.06095236 -0.19503655 -0.11301219
000010 63 e2 4d bd b5 9e 04 3e bb 4c 83 bd 40 9a 0c 3e
       -0.050264727 0.12951167 -0.064111196 0.13730717
000020 cc 3b 19 3e e9 91 f2 bd b3 91 c4 bb 7b 72 54 3e
       0.14964217 -0.118442364 -0.005998814 0.20746796
000030 4f a4 17 3d 91 51 53 be dd 4b cf bc 08 71 2b be
       0.03702193 -0.20636584 -0.02530473 -0.16742337
000040 87 f3 f1 3d 87 fd 5a 3e 31 21 0d be 4a 9d 00 bd
       0.11814027 0.21385776 -0.13782193 -0.031400003
000050 17 87 40 be
       -0.18801533
