DeepCGSR_triet/chkpt/deepcgsr.pt (torch, 77083 bytes, 2 tensors)

weight f4 [1076, 16]
000000 bb 45 8b 3e 8a 1f b3 bd d3 ab b3 3e 52 2a 36 3e
       0.27201638 -0.0874625 0.3509203 0.17789581
000010 85 da ca be 58 81 12 3d ee 25 b3 3e 92 21 ca 3e
       -0.39619842 0.035767883 0.34989876 0.39478737
000020 dd 74 10 3d ab fd 50 be 73 5d 98 be 03 a6 b6 3e
       0.0352677 -0.20409267 -0.29758796 0.35673532
000030 06 51 f0 3e 41 ec 7c 3e ae 7c 89 be 2f e8 3e be
       0.46936816 0.24699499 -0.26852936 -0.18643259
000040 f8 61 e7 3e 7c 7e c7 be 9f 62 f8 3e de b5 d5 3e
       0.45191932 -0.38963687 0.48512742 0.41740316
000050 6e 9e ec be ae c1 bd 3e b7 8c e1 3e 66 09 f5 3e
       -0.46214622 0.37061828 0.4405267 0.47858733
000060 69 a3 d0 3e 39 74 d3 be e3 82 ff be 08 cf 08 3f
       0.40749672 -0.41299608 -0.49904546 0.53440905
000070 8d 45 e9 3e be ce d8 3e 15 dd e7 be 5c e0 b0 be
       0.45560876 0.42345232 -0.4528586 -0.34546173
000080 67 4b dd 3e fc 46 50 3f fc ba 61 bf e7 e4 c4 be
       0.4322159 0.81358314 -0.8817594 -0.3845589
000090 b4 b1 aa bc e3 ae 61 3e 46 c6 57 3f 4c 4a c6 be
       -0.020836689 0.2203937 0.84286916 -0.3872856
0000a0 75 cc 9a 3e 48 11 5a 3d 71 46 7a bf 29 b0 e4 be
       0.30234113 0.053239137 -0.97763735 -0.4466565
0000b0 9a 99 13 3c 30 6e 4a 3f 7b 78 c7 be ce ad d4 be
       0.009008789 0.7907438 -0.38959107 -0.41538852
0000c0 dc 5e 91 3e d9 71 b8 be 9d fe b7 3e da 9a 65 3e
       0.28392684 -0.3602436 0.35936442 0.22422352
0000d0 7e b4 e1 be df 14 a1 3e 87 2c 9a 3e 7f 9d af 3e
       -0.44083017 0.31461236 0.30112097 0.34299847
0000e0 f5 c5 a8 3e 4b fc 52 be 39 8e ae be a0 74 da 3e
       0.3296353 -0.20604055 -0.34092882 0.42667103
0000f0 1d cb f8 3e d9 9b 73 3e 5d 56 70 be 21 de af be
       0.48592463 0.2378992 -0.23470445 -0.34349158
000100 7f 2a d8 3e 2c 58 ff be 1b 13 d2 3e 89 a9 e2 3e
       0.42219922 -0.49871957 0.410302 0.4426997
000110 c9 12 b5 be f0 fa e4 3e 35 e1 d1 3e d5 44 be 3e
       -0.35365894 0.447227 0.40992132 0.3716189
000120 d5 c1 fe 3e 5b 3f ce be fa ba c6 be 17 40 c8 3e
       0.49757257 -0.4028271 -0.38814527 0.39111397
000130 55 b3 b8 3e df e9 c8 3e b3 c6 d0 be 67 dd dd be
       0.3607432 0.3924093 -0.40776595 -0.4333298
000140 11 3e 10 3f d6 6f 13 bf df 46 da 3e ed c7 02 3f
       0.56344706 -0.57592523 0.42632195 0.5108631
000150 e8 cb 0e bf 27 64 f4 3e 14 a8 ff 3e 08 32 10 3f
       -0.55779886 0.4773266 0.4993292 0.5632634
000160 fc 1e fc 3e 9d af e9 be 9e 17 1c bf 64 08 13 3f
       0.4924239 -0.45641795 -0.60973537 0.5743468
000170 b3 a4 25 3f 42 99 ff 3e ec 40 09 bf 83 87 ca be
       0.64704436 0.49921614 -0.5361469 -0.39556512
000180 a3 33 c8 3e 38 1c e6 be d1 08 c8 3e 2b d2 c6 3e
       0.39101896 -0.44943404 0.39069226 0.3883222
000190 fe 18 d9 be 93 db bd 3e 21 bf c4 3e 7f ce cb 3e
       -0.4240188 0.37081584 0.3842707 0.39805982
0001a0 fc 71 e2 3e ee ab b6 be 59 a0 d0 be f6 c7 df 3e
       0.44227588 -0.35678047 -0.40747336 0.43707246
0001b0 8a fc e3 3e 13 55 ad 3e 4a 87 be be ea 30 ca be
       0.4452861 0.3385397 -0.37212592 -0.39490443
0001c0 c0 1f d5 3e cc 96 ef be 9d 21 c0 3e 17 c5 c7 3e
       0.41625786 -0.46794736 0.37525645 0.39017555
0001d0 db f9 bd be 07 b7 c1 3e 27 f6 c9 3e 4d 36 d2 3e
       -0.37104687 0.3783495 0.39445612 0.41057053
0001e0 a7 ca d4 3e fe 85 bd be 84 bf d5 be 70 53 c9 3e
       0.4156086 -0.3701629 -0.41747677 0.3932147
0001f0 40 94 d3 3e 55 24 c9 3e e4 8b c5 be cb 49 d0 be
       0.41324043 0.39285532 -0.3858329 -0.406813
000200 42 dc b7 3e a7 9a cd be fb de a4 3e 4d 7d ba 3e
       0.3591023 -0.40157053 0.3220137 0.36423722
000210 43 9d a3 be b1 58 b5 3e 87 f0 9d 3e 9c 99 bc 3e
       -0.3195592 0.3541923 0.3084757 0.36835945
000220 26 9b c1 3e 87 a0 b0 be 25 29 b2 be 99 cc aa 3e
       0.3781368 -0.34497473 -0.34797016 0.3335922
000230 1c 74 be 3e 9d 1d a5 3e f3 e8 b5 be a2 b4 bb be
       0.3719796 0.32249156 -0.3552929 -0.3666125
000240 70 e7 db 3e 57 1a eb be d4 19 f4 3e 39 6d dc 3e
       0.4295001 -0.45918533 0.47675955 0.4305208
000250 06 ea de be 8a 4b d6 3e b2 55 df be 89 cf 01 3f
       -0.4353792 0.41854507 -0.43620068 0.507073
000260 0b f5 e0 3e fb b8 f8 3e 84 42 d7 be b3 e8 f3 3e
       0.43936953 0.4857863 -0.42042935 0.47638473
000270 2b 21 da 3e 11 23 f7 be c4 5c e0 be de dd f1 be
       0.4260343 -0.4826894 -0.43820775 -0.47239584
000280 99 48 0d 3d 7a 90 7e be b1 02 a7 be 4e 9f 82 3e
       0.034493063 -0.24859801 -0.3261924 0.25512165
000290 78 8a a9 3e b7 d3 a2 be 49 72 b6 3e ff f8 bb 3e
       0.33113456 -0.3180215 0.35634068 0.36713406
0002a0 61 87 a7 3e 9d 05 8f 3e 83 24 a7 be 4f 3f 83 be
       0.32720473 0.2793397 -0.32645044 -0.25634238
0002b0 6f 90 82 be 27 6a a5 3e 9d 33 b3 3e 92 f9 a0 3e
       -0.2550082 0.3230755 0.35000315 0.31440407
0002c0 c2 c0 d0 3e 28 87 f1 be c8 a5 d9 3e ff e1 d1 3e
       0.40772063 -0.4717343 0.42509294 0.40992734
0002d0 b8 99 de be 41 9b c3 3e 7f 91 d8 3e c0 79 dd 3e
       -0.43476653 0.38204387 0.42298505 0.4325695
0002e0 03 f3 da 3e cf ff bd be 54 5a e3 be 43 7f e3 3e
       0.42763528 -0.3710923 -0.44404852 0.4443303
0002f0 4a 57 e6 3e 56 f9 c1 3e 4b db cb be 2a c0 d3 be
       0.4498847 0.3788554 -0.39815745 -0.41357547
000300 4f 83 fc 3e 35 1f e1 be b2 08 eb 3e 75 25 00 3f
       0.4931893 -0.43969122 0.45905071 0.50057155
000310 be 34 e7 be 0b 48 00 3f 4c 71 f5 3e 03 bd f4 3e
       -0.45157427 0.5010993 0.47938 0.47800454
000320 9f 95 e3 3e 3d 85 db be 55 09 02 bf cc a6 f4 3e
       0.4445009 -0.4287509 -0.5079549 0.47783506
000330 c5 63 e0 3e 22 de f0 3e ad ac fb be 3a c7 ca be
       0.43826118 0.47044474 -0.4915518 -0.39605123
000340 38 50 b6 3e 72 1a b4 be 2d aa b5 3e fd 6a b5 3e
       0.35608077 -0.35176426 0.35481396 0.35433188
000350 18 d5 bd be b0 03 bc 3e 6e 7a b0 3e 2e b9 b4 3e
       -0.3707664 0.36721563 0.34468406 0.3529753
000360 17 a6 b9 3e 5a 04 ab be 81 71 bc be 97 24 b8 3e
       0.3625953 -0.33401757 -0.36805347 0.35965416
000370 fa d6 b8 3e 6d 99 a7 3e 2d 62 aa be e1 a7 b0 be
       0.36101514 0.32734242 -0.33278027 -0.3450308
000380 f6 54 e3 3e e3 28 ea be bc 0e e6 3e ec 4e d6 3e
       0.44400758 -0.4573432 0.44933116 0.41857088
000390 c9 71 d5 be 3a c1 e0 3e 4e c7 e0 3e 4e 39 cd 3e
       -0.41688374 0.4389742 0.43902057 0.40082783
0003a0 4d aa d4 3e 36 01 cf be 8f b5 d0 be 9c 12 e3 3e
       0.4153618 -0.4043061 -0.40763518 0.44350135
0003b0 a0 aa e0 3e 7a 4b de 3e 3f 69 f8 be b6 0d df be
       0.43880177 0.4341696 -0.48517796 -0.43565148
0003c0 d7 ef be 3e ca 9e 00 bf cc 0b b2 3e 7b 84 f5 3e
       0.37292358 -0.5024229 0.34774625 0.47952637
0003d0 fe 3a ce be d4 b8 15 3f 44 cc 08 3f 6f f4 f2 3e
       -0.40279382 0.5848515 0.53436685 0.47452113
0003e0 a3 b0 04 3f eb 46 0b bf 87 90 11 bf ac 55 13 3f
       0.51832026 -0.5440509 -0.56861156 0.575526
0003f0 ab 18 15 3f e7 51 af 3e bd db 00 bf 20 41 df be
       0.58240765 0.34242174 -0.50335294 -0.43604374

weight f4 [1076, 1]
000000 25 a9 0f 3f 04 52 8f bf e7 c9 9c 3e 6b c0 1b 3f
       0.5611747 -1.1196904 0.3062279 0.6084048
000010 f2 79 03 be 75 1d 19 3f 24 73 9a be bd 6e 15 3f
       -0.12839487 0.5981057 -0.3016597 0.583721
000020 15 77 b2 3f 2e 54 49 3e cf 14 5c 3f 13 7b b0 3d
       1.3942591 0.19661018 0.8596925 0.086172245
000030 51 dc b2 bf b1 4c a3 3f c9 be 31 be 77 81 d3 bf
       -1.3973485 1.2757779 -0.17357935 -1.6523885
000040 56 f4 9e bf 30 43 98 3e 44 71 be 3f 37 3e 9c 3e
       -1.2418315 0.2973876 1.4878316 0.30516216
000050 00 4f c8 bd d0 e4 01 3e c8 2b f0 bf a9 83 6c 3f
       -0.09780693 0.12684941 -1.8763361 0.923884
000060 e2 16 f0 3e 24 41 79 3f c2 83 76 3f da fb 02 3f
       0.46892458 0.9736502 0.96294796 0.51165545
000070 4f 7d 0f 3f 40 91 a5 3d 5d 44 35 3f 3e 03 47 3e
       0.5605058 0.08084345 0.7080744 0.1943483
000080 2f 4d 8f 3f 10 31 67 3f 23 8c f4 3d 46 f2 68 3f
       1.119543 0.9030924 0.119407915 0.9099468
000090 77 89 06 3f 79 9f 92 3f 33 cc a9 bf 04 9f f4 bc
       0.52553505 1.1454917 -1.3265442 -0.02986098
0000a0 35 de 44 3f 78 4d 03 bc 59 f2 30 be 15 2c 37 bf
       0.7690156 -0.008014075 -0.17279948 -0.7155164
0000b0 fd 61 9c 3e 62 5a 00 40 0e 61 9a 3f e5 63 81 3e
       0.3054351 2.0055165 1.2060869 0.25271526
0000c0 c0 3a af be 7e b5 d6 3e 08 da 07 bf 15 d4 89 3f
       -0.3422451 0.41935343 -0.53067064 1.0767847
0000d0 36 5f 04 bf c1 b2 e4 bd 01 f3 1a 3f 63 0d 86 3f
       -0.5170778 -0.11166907 0.60527045 1.0472835
0000e0 12 49 2e 40 94 3d 0b 3f 33 67 1a 40 8b b8 1e 3f
       2.7232099 0.54390836 2.4125488 0.6200034
0000f0 15 d6 96 3f af f3 d6 3e 78 bb 55 3f dd 33 79 3e
       1.1784083 0.4198279 0.8348918 0.2433619
000100 98 27 8f 3e a5 4c cc 3f 97 ca 52 be 6b 9e 7c 3e
       0.27959895 1.596089 -0.20585094 0.24669807
000110 01 81 c1 be 31 c1 56 3e 67 f5 65 3f 95 d9 aa 3f
       -0.37793735 0.20972134 0.8982758 1.3347651
000120 22 21 eb 3e 05 07 08 3f 6c 52 1b be 30 fa 9c 3f
       0.45923716 0.5313571 -0.1516816 1.2263851
000130 9a fe 83 3f 8f 10 e1 be 77 2e 52 3f fc 99 5d 3f
       1.0312073 -0.43957946 0.8210215 0.86563087
000140 33 83 44 bf 1d 83 92 be 90 b3 0d 3f e1 8c b9 be
       -0.76762694 -0.28615656 0.55352116 -0.36240295
000150 d1 13 8b bf 7a 14 93 be 46 56 67 be ce 1f 9b be
       -1.0865422 -0.2872656 -0.22591504 -0.30297703
000160 fb f4 29 3c 26 eb 92 3f a1 13 62 3f bf 67 7b 3f
       0.010373349 1.1478012 0.883112 0.9820518
000170 91 d4 74 3f 0e 29 e4 3f 5d 2a ae bf 0f f7 48 3f
       0.9563685 1.7825029 -1.3606678 0.7850198
000180 08 c2 c4 3f cb 1b 19 40 6e ad 24 bf f8 3d d5 3c
       1.5371714 2.3923213 -0.6432713 0.026030526
000190 e2 97 92 be 2a 18 24 bf 35 bc 67 bf 79 e1 d1 be
       -0.28631502 -0.6409937 -0.90521556 -0.40992334
0001a0 eb 1a b6 bf 63 86 e5 3e e1 f1 13 3f 2b 03 dd be
       -1.4226965 0.4482909 0.5779095 -0.4316648
0001b0 ed 69 28 bc 9e 5a 40 3f f5 ce b1 3f 24 90 32 3e
       -0.010279161 0.7513827 1.3891283 0.17437798
0001c0 4e 1b 0b c0 c7 89 a6 3e fb ff bb bf 6a a8 a8 3f
       -2.1735415 0.3252699 -1.4687494 1.3176396
0001d0 d2 17 8e 3f 78 11 0f 3f c8 34 39 3f 26 81 af 3f
       1.1101019 0.5588603 0.7234616 1.3711288
0001e0 be 5a 1a 3f 0e a6 ce be 1c 87 b4 bf 7f 4e 9c 3f
       0.6029471 -0.40361065 -1.4103732 1.2211455
0001f0 ef 18 30 3f 4a 85 a0 be 91 0f 5e bf 23 83 5d bf
       0.68788046 -0.3135169 -0.867425 -0.86528224
000200 90 94 3f bf a4 0a e3 3e 9d 79 8b bf 44 2d 7e 3f
       -0.74836063 0.44344056 -1.0896488 0.9928782
000210 95 6c d7 3d 72 87 00 3e 4c 40 a8 3e af 8d f4 3d
       0.10518757 0.12551668 0.32861555 0.119410865
000220 20 f7 d5 be 77 a1 86 bf 30 46 13 3e 44 d6 8c 3e
       -0.41790104 -1.0518025 0.14382243 0.27507222
000230 ac 36 95 3f 18 09 97 3e dc 3c 1e 3e 34 17 03 bf
       1.165731 0.29499125 0.15452904 -0.5120728
000240 a9 45 01 3f 81 dd 69 3f 93 c9 7a 3e e4 92 d1 3e
       0.5049692 0.91353613 0.24490957 0.4093238
000250 1c 04 21 3f e6 4b 63 bf 4a ea a9 bf d3 e3 e8 3d
       0.62896895 -0.88787687 -1.3274624 0.11371579
000260 45 d7 b1 3d cc 7a c8 3e 2c 24 03 3f 25 98 71 3d
       0.086836375 0.39156187 0.5122707 0.058982987
000270 3f 78 66 3f 85 90 80 bd a0 f9 43 3d 5a ce b8 3f
       0.9002723 -0.06277565 0.047845483 1.4437973
000280 76 6c dd 3e 94 a0 d7 3e 31 f3 8f 3f eb d0 6e 3f
       0.43246812 0.421147 1.1246091 0.93287534
000290 b2 b2 86 bc b4 b9 8c 3f f8 a2 8c 3c e9 64 ad 3e
       -0.01644263 1.0994172 0.017167553 0.3386605
0002a0 64 a5 9e be 39 c5 c7 be 24 e1 8c 3f b1 1c 22 bf
       -0.30985558 -0.39017656 1.1006207 -0.6332503
0002b0 a9 b5 15 3f 87 22 05 bc b3 2a 6c 3f e4 29 90 3f
       0.58480316 -0.008125908 0.92252654 1.1262784
0002c0 46 7d 2d be 60 3a 5d 3f 18 0c 95 bf 6c 11 b0 3f
       -0.1694232 0.864172 -1.1644316 1.3755317
0002d0 dd 39 86 bf 43 65 6b bf 82 a4 fd be ca 13 f6 bd
       -1.0486408 -0.9195139 -0.49539572 -0.12015493
0002e0 f4 5a fd bd 71 88 8f 3e a3 72 6a 3e e0 51 7f bf
       -0.123708636 0.28033784 0.22895293 -0.99734306
0002f0 9f 39 a7 be d8 27 46 3f 7c 9b 03 3e 57 1f 88 bf
       -0.3266115 0.77404547 0.12852281 -1.0634564
000300 a2 55 fa 3e 48 27 72 be 5a fa b6 bf 3c 0e 71 3f
       0.48893458 -0.23647797 -1.4295151 0.94162345
000310 ed 5f f5 be fa 94 3b bf 3b 9a 3a 3f 43 8a 8a 3e
       -0.47924748 -0.73274195 0.72891587 0.2705861
000320 e7 fb a0 3f 75 1b ec 3f da e2 2c 3f 9c b1 96 3e
       1.2576874 1.8445879 0.6753365 0.2943238
000330 50 c6 dc 3f 7c 38 67 be 3e b8 c4 be 87 15 38 bd
       1.724802 -0.22580141 -0.38421816 -0.044942405
000340 0c 9c 87 bf 48 7e 49 3d d8 61 18 3e 96 22 e2 bf
       -1.0594497 0.049192697 0.14881074 -1.7666805
000350 7b f8 00 3f af 13 62 3f c8 7e af 3f 09 46 ed 3f
       0.5037915 0.88311285 1.3710566 1.8536998
000360 27 c8 96 3e de f0 b9 be ff b6 e6 bd 9f a0 98 3f
       0.2944958 -0.3631658 -0.112653725 1.1924018
000370 a0 03 8f 3f 37 7f 6f 3d b0 48 0f bf 0b 2d ae 3d
       1.1172981 0.05847093 -0.5597029 0.08504685
000380 fe 92 12 3f a2 b8 6d be 5b f1 77 bf c2 14 0c 40
       0.5725554 -0.23214963 -0.96852654 2.188767
000390 ce ed f6 3f c0 1c db 3f 6b 7c 90 bd 3f c5 87 3e
       1.9291322 1.7118149 -0.07054981 0.26517674
0003a0 83 e3 56 3e 8e 08 01 bf 84 d6 16 3f d2 24 1d be
       0.20985226 -0.5040368 0.58921075 -0.15346077
0003b0 d9 74 1e 40 f7 5b a5 bf c4 a0 9e bf 72 c5 00 40
       2.4758818 -1.291869 -1.2392812 2.012051
0003c0 32 c0 a8 3f 74 e2 d1 3f ce 26 0c bd d7 da 86 3e
       1.3183653 1.6397233 -0.034216695 0.26338837
0003d0 50 91 a6 bf c5 89 92 3f c5 b3 9e 3f 2d 20 71 bf
       -1.3013096 1.1448294 1.2398611 -0.9418972
0003e0 75 d0 08 bf 3c 2d 12 40 99 2e 0b 3f 2e 70 a2 3f
       -0.5344308 2.284011 0.5436798 1.2690485
0003f0 e1 56 91 3f 31 f2 84 3e 28 be 0d 40 f0 6c 42 bf
       1.1354638 0.25966027 2.2147312 -0.75947475
