DeepCGSR_triet/chkpt/deepcgsr.pt (torch, 94299 bytes, 2 tensors)

weight f4 [1076, 20]
0	0xbe939f46	-0.28832453
1	0x3ea55026	0.3228771
2	0x3e929511	0.28629354
3	0xbea0ebae	-0.3142981
4	0xbebf5d3e	-0.37375826
5	0x3ea0697e	0.31330484
6	0x3ea41e1c	0.32054222
7	0xbe8c9677	-0.27458546
8	0x3e940295	0.2890822
9	0xbeb87a6a	-0.36030895
10	0x3ea09a7e	0.31367868
11	0xbeb9c451	-0.3628259
12	0xbec04d8e	-0.3755917
13	0xbea2bf85	-0.31786743
14	0xbe9f670a	-0.311333
15	0x3eb179ba	0.34663182
16	0xbea0877a	-0.3135336
17	0xbecc512b	-0.39905676
18	0xbe9f4c66	-0.31112975
19	0x3ec9b763	0.39397725
20	0xbea2f18d	-0.31824914
21	0x3e7be329	0.24598373
22	0x3eb766e3	0.35820684
23	0xbe9f5677	-0.31120655
24	0xbe9640cb	-0.29346308
25	0x3e985bd3	0.29757556
26	0x3ea15e74	0.31517375
27	0xbea96a62	-0.33088976
28	0x3e7aea7a	0.24503508
29	0xbe96f36e	-0.29482597
30	0x3ea69131	0.32532647
31	0xbe71c82e	-0.23611519
32	0xbe94fe41	-0.2910023
33	0xbea73770	-0.32659483
34	0xbe98e6cf	-0.29863593
35	0x3e893e48	0.2680533
36	0xbea4bc08	-0.32174706
37	0xbe8c97ba	-0.27459508
38	0xbe987d4f	-0.29783103
39	0x3e9b5b30	0.30343008
40	0x3ef48967	0.4776108
41	0xbedcb42c	-0.4310621
42	0xbec15fc1	-0.37768367
43	0x3eab83f1	0.334991
44	0xbecb7e0b	-0.397446
45	0x3ee7bba5	0.4526035
46	0x3ec0217a	0.3752554
47	0x3ee968f9	0.455879
48	0x3e8cdacb	0.27510676
49	0x3f037e43	0.51364535
50	0x3ed9aed8	0.42516208
51	0x3ede6db8	0.43443084
52	0x3ebcb837	0.36859295
53	0xbeeb3ff4	-0.4594723
54	0x3ed66be7	0.41879198
55	0x3ee699fe	0.45039362
56	0xbeeca3e4	-0.4621879
57	0x3ee688f3	0.4502636
58	0xbee74c3d	-0.45175353
59	0x3ec51587	0.38492987
60	0xbeb84a99	-0.35994413
61	0x3ec479ab	0.38374075
62	0x3ec3a2fe	0.3821029
63	0xbec43afd	-0.38326254
64	0xbeb2e5b4	-0.34940875
65	0x3eab491e	0.3345422
66	0x3eac2c3a	0.33627492
67	0xbeb3a6a8	-0.35088086
68	0x3eb3d938	0.35126662
69	0xbec29c3b	-0.3800982
70	0x3eb408ec	0.35163057
71	0xbebd7e12	-0.37010247
72	0xbea69ba3	-0.32540616
73	0xbeafea67	-0.34358522
74	0xbeb0c901	-0.34528354
75	0x3eb72eea	0.3577798
76	0xbed14de7	-0.40879747
77	0xbec3ad10	-0.38217974
78	0xbec08325	-0.37600055
79	0x3ed535f9	0.4164274
80	0xbeb60080	-0.35547256
81	0x3e983562	0.29728228
82	0x3eb5ab42	0.35482222
83	0xbea2cf4a	-0.31798774
84	0xbebec807	-0.37261984
85	0x3e986053	0.2976099
86	0x3e9bb14c	0.30408704
87	0xbeb02da7	-0.3440983
88	0x3eaf5f7d	0.3425254
89	0xbe9c65f1	-0.30546525
90	0x3ea2dd31	0.3180938
91	0xbeabc544	-0.3354894
92	0xbebbce4a	-0.36680824
93	0xbea76d5e	-0.32700628
94	0xbe9f3484	-0.31094754
95	0x3e8b0c97	0.27158043
96	0xbeb23ef7	-0.34813663
97	0xbe98bc98	-0.29831386
98	0xbea6ccf5	-0.32578245
99	0x3eb1c5f7	0.34721348
100	0xbe59b5a4	-0.21260697
101	0x3eeb3a2d	0.45942822
102	0x3e7eaee9	0.2487141
103	0xbeedd8eb	-0.46454558
104	0xbeeb94fa	-0.46012098
105	0x3eb06572	0.34452397
106	0x3ed544f8	0.4165418
107	0xbe7d3459	-0.24727
108	0x3eb05ffc	0.3444823
109	0xbea747c7	-0.3267195
110	0x3eba826a	0.36427623
111	0xbecf845e	-0.40530676
112	0xbeef9536	-0.46793526
113	0xbe8fd880	-0.28094864
114	0xbe87aadc	-0.26497543
115	0x3e6e05b9	0.2324437
116	0xbed62b3f	-0.4182987
117	0xbe97d211	-0.29652455
118	0xbeb5162e	-0.35368484
119	0x3ebb3841	0.36566356
120	0xbec10417	-0.37698433
121	0x3ea15771	0.31512025
122	0x3ecd8b2c	0.40145242
123	0xbebebbd1	-0.37252668
124	0xbeacae04	-0.33726513
125	0x3e9a2c47	0.30111906
126	0x3e7fc565	0.24977644
127	0xbea580df	-0.32324883
128	0x3ea83bb6	0.32858056
129	0xbebd8d1e	-0.37021726
130	0x3eabdc9a	0.33566743
131	0xbeae442c	-0.34036386
132	0xbecad35b	-0.39614376
133	0xbea0914d	-0.31360856
134	0xbea4970a	-0.32146484
135	0x3eb587c7	0.35455152
136	0xbeb1183e	-0.34588808
137	0xbead3922	-0.3383265
138	0xbecb5fc1	-0.39721492
139	0x3ed2cba3	0.41170987
140	0xbeba242f	-0.3635573
141	0x3e9a62d0	0.30153513
142	0x3ed71439	0.42007616
143	0xbe978d6c	-0.29600084
144	0xbe9ec98f	-0.31013152
145	0x3ebf86ee	0.3740763
146	0x3ea31140	0.31849098
147	0xbebb62e0	-0.36598873
148	0x3ebb2bf2	0.36556965
149	0xbea5d087	-0.32385656
150	0x3e87987b	0.2648352
151	0xbead8034	-0.33886874
152	0xbe5272b0	-0.20551562
153	0xbeab273f	-0.3342838
154	0xbec3959b	-0.38200077
155	0x3e8c4191	0.27393773
156	0xbec45332	-0.38344723
157	0xbea23332	-0.31679684
158	0xbecc40da	-0.39893228
159	0x3eb605f6	0.35551423
160	0xbebf32fe	-0.3734359
161	0x3eb66ce4	0.35629952
162	0x3ebec097	0.3725631
163	0xbeae982c	-0.34100473
164	0xbea155c7	-0.31510755
165	0x3ea55be0	0.32296658
166	0x3eaacf57	0.33361313
167	0xbebcf38f	-0.3690457
168	0x3eaf2f5e	0.34215826
169	0xbeb63d99	-0.3559387
170	0x3e98603d	0.29760924
171	0xbeb1e5f1	-0.34745744
172	0xbe886bd4	-0.26644766
173	0xbea2143e	-0.3165607
174	0xbea3ae0b	-0.31968722
175	0x3ea5afed	0.32360783
176	0xbecc2ba8	-0.39877057
177	0xbeade3e3	-0.33962926
178	0xbeaf68b8	-0.34259582
179	0x3eb871f3	0.36024436
180	0x3ed3fd63	0.41404256
181	0xbee2dfcb	-0.44311365
182	0xbee43e50	-0.4457879
183	0xbec43f85	-0.38329712
184	0xbef9bb22	-0.48775584
185	0xbef33594	-0.47501814
186	0x3ed16baa	0.40902454
187	0xbecf2c0b	-0.4046329
188	0x3ee8f1db	0.4549702
189	0xbeed907c	-0.46399295
190	0x3ee481b8	0.44630218
191	0xbcb81414	-0.022470511
192	0x3edd9af9	0.43282297
193	0x3ee1583a	0.44012624
194	0xbf03713e	-0.5134467
195	0xbef9654e	-0.48710102
196	0x3e8759d9	0.26435736
197	0xbee1c8e7	-0.4409859
198	0x3efc6f9b	0.49303898
199	0x3ee009bc	0.43757427
200	0x3eb762dc	0.3581761
201	0xbed4c76e	-0.41558403
202	0xbeb59e01	-0.3547211
203	0x3ec960af	0.39331576
204	0xbec14a6b	-0.3775209
205	0x3ef0fb2f	0.47066638
206	0xbebea31f	-0.37233827
207	0x3edb8d10	0.4288106
208	0x3ec6e7dd	0.38848773
209	0x3edf1e8d	0.43577996
210	0x3ee2cf97	0.44299003
211	0x3eaea6f8	0.34111762
212	0x3ec51776	0.38494462
213	0x3e1c9ef5	0.15295012
214	0x3ec5d578	0.38639426
215	0x3ec0c859	0.37652853
216	0xbec4336c	-0.38320482
217	0x3ed7ffe0	0.42187405
218	0xbeea6ad5	-0.4578463
219	0x3ec98e9d	0.39366618
220	0xbec97786	-0.39349002
221	0x3ec8e3fe	0.39236444
222	0x3ecaea05	0.39631668
223	0xbec19b05	-0.37813583
224	0xbea42818	-0.3206184
225	0x3ed35b7b	0.41280732
226	0x3eb1bcff	0.34714505
227	0xbede0aad	-0.4336752
228	0x3eaf9905	0.34296432
229	0xbed9fc3e	-0.42575258
230	0x3ed5ee06	0.4178316
231	0xbece4df7	-0.40293857
232	0xbed1655c	-0.40897644
233	0xbeacb5fa	-0.33732587
234	0xbeb900d4	-0.36133444
235	0x3ea8f620	0.33000278
236	0xbe916894	-0.284001
237	0xbe9929c2	-0.2991467
238	0xbecb193a	-0.39667684
239	0x3ea78830	0.3272109
240	0xbec54699	-0.38530424
241	0x3ee285d6	0.44242734
242	0x3eb7bf62	0.358882
243	0xbeebbba0	-0.46041584
244	0xbeb7a4a3	-0.35867795
245	0x3eccac3f	0.39975163
246	0x3eba9b1b	0.3644646
247	0xbec691f9	-0.38783243
248	0x3eb20591	0.34769872
249	0xbeccfe7b	-0.40037903
250	0x3eba3972	0.36371952
251	0xbeb76b24	-0.3582393
252	0xbec4d71b	-0.38445362
253	0xbebb89e7	-0.3662865
254	0xbec96264	-0.3933288
255	0x3ec1a027	0.378175

weight f4 [1076, 1]
0	0xbcce2f58	-0.02516906
1	0x3ffa9022	1.9575236
2	0x3f1240c4	0.57130075
3	0x3e801ff1	0.2502437
4	0xbe90870e	-0.2822804
5	0x3f2f3c54	0.6845143
6	0x3f1ac821	0.6046162
7	0x3ecf3472	0.404697
8	0xbecc08ac	-0.39850366
9	0x3e7892a4	0.24274689
10	0xbf3e88de	-0.7442759
11	0x3e54f7dc	0.20797676
12	0xbf27a279	-0.6548229
13	0x3eaa6c68	0.33285832
14	0x3f743164	0.95387864
15	0xbda22d18	-0.07918757
16	0x3e3ad9ea	0.1824719
17	0x3f9dc7e8	1.2326632
18	0x3ea216fe	0.31658167
19	0xbfc2971d	-1.5202366
20	0xbee630a1	-0.44958976
21	0x3ed9b523	0.4252101
22	0x3eb4a026	0.35278434
23	0xbdbaee1e	-0.091274485
24	0xbe8e9fd3	-0.2785631
25	0xbef903fe	-0.48635858
26	0xbeb54fb7	-0.3541238
27	0x3f6a8c25	0.91620094
28	0x3e071512	0.13191631
29	0xbe5ae5a8	-0.2137667
30	0x3e66750b	0.22505586
31	0x3e807f04	0.25096905
32	0x402b8cbf	2.6804655
33	0xbea02b73	-0.3128315
34	0x3d69ca4a	0.057077684
35	0xbeb5dd53	-0.3552042
36	0x4008dbab	2.1384075
37	0xbf7a9c5e	-0.9789485
38	0x4011fdbd	2.281112
39	0x3efb86e0	0.4912634
40	0x3fae15f0	1.3600445
41	0x3f70d2ab	0.94071454
42	0x3c15a59c	0.009133723
43	0x3edae602	0.42753607
44	0xbf7ae48c	-0.98004985
45	0xbd9f8137	-0.07788318
46	0x3f23921b	0.63894814
47	0x3db7e39f	0.08978962
48	0x3f04d282	0.5188371
49	0x3f266ffe	0.65014637
50	0x3f35d9d4	0.71035504
51	0x3d9d5d7c	0.07683846
52	0x3dd058d5	0.10173193
53	0x3f7ca117	0.98683304
54	0x3f749741	0.95543295
55	0x3f2c3194	0.6726315
56	0xbb77761c	-0.0037759608
57	0x3f890cd8	1.0707045
58	0xbf6d79a8	-0.9276376
59	0x402a6327	2.6623018
60	0x3f367dfb	0.7128598
61	0x401aaa7b	2.4166553
62	0xbf4dcfe5	-0.80395347
63	0x3d83f2e8	0.06442815
64	0x3ed6dbcf	0.41964576
65	0xbefed2db	-0.49770245
66	0x3f84b93e	1.0369031
67	0x3bba0447	0.0056767794
68	0xbec17f1f	-0.37792298
69	0xbe095a9b	-0.1341347
70	0x3f855cd1	1.041895
71	0x3f6c5e9c	0.9233186
72	0xbf34f24c	-0.70682216
73	0x3fa67674	1.3004899
74	0x3ed9f444	0.42569172
75	0x3da95f80	0.08270168
76	0x3ef7674f	0.48321006
77	0x3e7ab4b5	0.24482997
78	0x3f084871	0.53235537
79	0x3fb6aec4	1.4272084
80	0x3ea0f9d3	0.314406
81	0x3fb10bab	1.3831686
82	0x3f7cc656	0.98740137
83	0xbeac3ba9	-0.33639267
84	0x3ed54163	0.4165145
85	0xbeb8f364	-0.36123192
86	0xbfa4c66e	-1.2873056
87	0x3f4d9af7	0.8031458
88	0x3f15001c	0.5820329
89	0x3f83fd3e	1.0311658
90	0x3e660833	0.22464065
91	0x3eccefa6	0.40026587
92	0xbf4bafb4	-0.79564977
93	0xbf861455	-1.0474955
94	0xbd02aed4	-0.03190501
95	0x3ffaa7b5	1.958243
96	0x3e076ad7	0.1322435
97	0x3fab0260	1.33601
98	0xbe94dea7	-0.2907612
99	0x3f65175b	0.8948876
100	0x3faf37c3	1.3688892
101	0xbe6f52b4	-0.23371392
102	0x3fa17a03	1.261536
103	0xc00607ab	-2.094218
104	0xbe804805	-0.25054947
105	0x3f426ba3	0.7594549
106	0x3e45bd03	0.19310383
107	0x3de63d25	0.11242131
108	0xbcc6bbbb	-0.024259439
109	0xbd832f47	-0.06405502
110	0xbf459631	-0.771823
111	0xbde3f57f	-0.11130809
112	0xbf6b0012	-0.9179698
113	0xbf9ac932	-1.209265
114	0x3ff2286e	1.8918588
115	0xbf1431d6	-0.57888544
116	0xbd550b25	-0.05201258
117	0xbecfd2ae	-0.40590423
118	0x3ec5e42f	0.38650653
119	0x3e739de3	0.23790698
120	0x3fa94e43	1.3227009
121	0xbf4c761c	-0.7986772
122	0x3f88fc5f	1.0702018
123	0x401b77a5	2.4291775
124	0xbf302cd6	-0.68818414
125	0xbf4ae77d	-0.79259473
126	0xbed15e04	-0.4089204
127	0xbfcd5cad	-1.6043907
128	0x3f371aeb	0.7152545
129	0x3e543f05	0.20727165
130	0x3e3d2bce	0.18473741
131	0xbfaff82a	-1.3747609
132	0x40001c3e	2.0017238
133	0x3e24bdfa	0.16088095
134	0x3fb90507	1.4454659
135	0x3efc70d3	0.49304828
136	0x3f4910e5	0.78541404
137	0xbf91a898	-1.1379576
138	0xbe0798a8	-0.13241827
139	0xbfd956de	-1.6979635
140	0x3e69103e	0.22760102
141	0x3f306c43	0.68915194
142	0xbfb2dfa4	-1.39745
143	0x3dedc5ac	0.116099685
144	0xbf43ff13	-0.7656109
145	0x3e3a0477	0.18165766
146	0x3fb482a9	1.4102374
147	0x3fcd5657	1.6041974
148	0x3ef1ef6f	0.47252986
149	0x3f67c7e6	0.90539396
150	0x3eb06908	0.34455132
151	0x3fbc8c60	1.4730339
152	0x3fe777f0	1.8083477
153	0x3f8c52d7	1.0962781
154	0xbdbb6018	-0.09149188
155	0x3fe992bf	1.8247908
156	0xbfd8175a	-1.6882126
157	0xbf5b6de0	-0.8571453
158	0x3e9672a3	0.29384336
159	0xbf808557	-1.0040692
160	0xbf5cbe36	-0.8622774
161	0x3f0f3805	0.55944854
162	0x3e09ceda	0.13457814
163	0x3fa9d8cb	1.3269285
164	0xbf9bec00	-1.2181396
165	0xbeb40e7f	-0.3516731
166	0x3f98b08f	1.1928881
167	0x3f84ac67	1.0365113
168	0x3fab6856	1.3391216
169	0x3ea89cb7	0.32932064
170	0xbf8d6b54	-1.1048379
171	0xbf0ca6a6	-0.54941785
172	0x3e977ac9	0.29585865
173	0xbfcdcb12	-1.6077597
174	0x3fbb1554	1.4615884
175	0x3faf851f	1.37125
176	0xbfbe94ef	-1.4889201
177	0xbf62ddfc	-0.8861997
178	0xbfde26aa	-1.7355549
179	0x3f7ccf7b	0.9875409
180	0xbf3e9021	-0.74438673
181	0xbe9af326	-0.30263633
182	0x3f3f5b15	0.74748355
183	0xbf8c975e	-1.0983694
184	0x3f75fb99	0.9608703
185	0xbf23e15c	-0.64015746
186	0xbf808c1e	-1.004276
187	0x3f0765d4	0.5288975
188	0x3fa633a5	1.2984511
189	0x3d841566	0.06449394
190	0xbe97b3ac	-0.29629266
191	0x3f3d8575	0.74031764
192	0x3f8baad0	1.0911503
193	0xbf338590	-0.70125675
194	0x3f96e33d	1.1788098
195	0xbf4cbd31	-0.79976183
196	0x3f40ac7f	0.7526321
197	0x3f1efe55	0.6210683
198	0xbefe6157	-0.4968364
199	0x3c23283b	0.009958322
200	0xbf7dd0c1	-0.9914666
201	0x3e3df0ca	0.18548885
202	0x3eb99d95	0.36253038
203	0x3e8ffece	0.28124088
204	0xbf99fb89	-1.2029887
205	0x3f4baaea	0.7955767
206	0xbd1bfcf4	-0.03808303
207	0x3ee69cc2	0.45041472
208	0x3fe828a4	1.8137403
209	0xbf063661	-0.52426726
210	0xbe3b3bbf	-0.1828451
211	0xbf0fe922	-0.5621511
212	0x3f2ca5e9	0.6744066
213	0x3fef3c35	1.8690249
214	0x3f3a2f98	0.7272887
215	0xbf117fe7	-0.5683579
216	0x3f8265d8	1.018733
217	0x3f5ab140	0.8542671
218	0xbea92896	-0.33038777
219	0x3e36be61	0.17846061
220	0x3f44211c	0.7661302
221	0xbf235223	-0.63797206
222	0x3fe9eaae	1.8274744
223	0x3f183b95	0.59465915
224	0xbf0d0348	-0.5508313
225	0xbfe78d78	-1.8090048
226	0xbf4cef10	-0.8005228
227	0x3f3a12c4	0.72684884
228	0x3f486777	0.78282875
229	0x3e78fb07	0.2431451
230	0x3f8bf400	1.0933838
231	0xbffb01f7	-1.9609975
232	0x3b86f209	0.0041182083
233	0x3faf5f02	1.3700869
234	0x3fd64317	1.6739224
235	0xbf194721	-0.5987416
236	0xbf56fa2e	-0.83975494
237	0x3e863971	0.262157
238	0xbe0eab15	-0.1393245
239	0xbee0c4b5	-0.43900076
240	0x3e5e5f1e	0.21715972
241	0x3ccb8a8f	0.024846343
242	0x3f39560c	0.7239692
243	0x3f46d73f	0.7767219
244	0x3ee2e393	0.4431425
245	0xbd5ea77f	-0.054358955
246	0xbf8302ff	-1.0235289
247	0xbf20e7f7	-0.6285395
248	0x3f36bb83	0.7137987
249	0xbf9965a1	-1.198414
250	0xbfb0456a	-1.3771183
251	0x3f2e1008	0.6799321
252	0xbe566305	-0.2093621
253	0xbfe6af33	-1.8022217
254	0x3f6f48cf	0.9347047
255	0x3f01e3c0	0.50738144
