DeepCGSR_triet/chkpt/deepcgsr.pt (torch, 683355 bytes, 2 tensors)

weight f4 [9992, 16]
00000000: fa3e 843f 0f92 51bf b333 2cbf c589 4c3f
00000010: d1df 75be 0ee2 53be 1c60 60bf 2648 10bf
00000020: a6d8 043f c183 17bf 809d 883d 6f59 fc3c
00000030: 564e 52be e408 113f a2d6 713e a32c ab3f
00000040: bdf9 6e3d c5a8 cabc b055 3fbf 82d4 dc3d
00000050: aa26 2cbd c8ba 1cbf 7a58 92be af10 0dbf
00000060: 0b96 68be 12e4 b2be ceae 433e 7bca 1fbe
00000070: 7575 b3bc 56a6 7fbe 489a e1be 3d87 463d
00000080: 8289 a33e fcf9 5dbe 5f17 09be 931e 6dbe
00000090: 959d 003e 43d8 933d c079 eabe 00cf 6ebf
000000a0: 6120 153a 0b9a 09bf 2bae bb3e b6bc b1bd
000000b0: 80db 073e 85ff 83bd e307 aabe b3c8 5e3f
000000c0: fae7 1fbd 0a73 8bbe 05c0 03bf 23fe 19bf
000000d0: 4fbf e83c 36e1 71be d1b6 043d 221a f53d
000000e0: 992d 8fbb 1b2a d03d d2d1 f2bd 2cc6 453e
000000f0: b2e5 61be 8680 07be acd3 ca3d 0ea0 6e3e
00000100: 4546 16bf fcdb 28bf 0e16 253f 5560 b03e
00000110: 1756 003e a9af a6be 583d 053f 5641 cf3c
00000120: 19df e33e d0c2 1f3f 66a1 613f 9f66 c2be
00000130: 3209 a2be 8d69 08be dbc6 f43d fe8c 14bf
00000140: 4112 d73e 3fda 393e 1287 ebbd c3fe 013e
00000150: ec6b 8abe ef2f 9fbd 5eec 11bf c3a5 b43c
00000160: bf69 283f 6ba0 d7be 7866 00bf bf81 e1bd
00000170: feff ecbe 13e6 cc3e c8a8 e23d 34db 183f
00000180: 41ad 1b3f 6a89 a03e cc70 ac3d 5518 633e
00000190: 9dd9 d4bd dcc3 f7bd 2006 46be 5709 3fbe
000001a0: dcb8 943e 52f8 acbe 82f5 983e 1212 313e
000001b0: e24b 0b3d 4d8a 6b3e e537 61be a5bb a83e
000001c0: 1b1d bd3d 9119 82bc 7603 163f b37f 263f
000001d0: 2881 973b 051f a33d 6435 ed3e 7c25 6a3d
000001e0: a874 983c ef5c 783d b60d f83e 668f 8eba
000001f0: de44 773d d3d5 c1be f904 92be 4fa2 413f
00000200: 541b c4be 3585 c8bd 27a4 97bd e989 fdbd
00000210: d044 5abe eb31 f6be bf90 4abe 89b3 e73d
00000220: 23eb 9fbe 482d 593e 2959 53bd 19c2 18bf
00000230: b0cf af3e ddc6 9b3e e1a6 28be ec3e 173f
00000240: b573 833e e138 9ebe f857 37bf daa8 8cbf
00000250: 6947 b0be 030c 3e3d 07dc 95be 2651 85bf
00000260: f0d9 8d3e b527 573c 2e79 293e f935 bb3e
00000270: fd38 5b3f b65a 0cbe fec2 04be 243b 7dbd
00000280: 5c96 1ebe 4e2d 403c b389 0c3d 3975 04bf
00000290: b3c0 04be 34b6 9c3d 5f59 0c3f d7d5 b03d
000002a0: 546b cc3d 1984 983e 9564 2ebe 5d98 b6be
000002b0: 8b8c 13bf f963 f0be 82f4 05be ac3d 953d
000002c0: 808e d03d 69b4 923d 6a13 b1be ccba bf3e
000002d0: a19c acbd 74d3 8ebb 675e ffbe b4c0 4f3d
000002e0: 979c af3d 54a9 bfbe f387 6fbe bd9b a4be
000002f0: c01d 24be d19f 3cbd 731d 0e3f fc64 ad3e
00000300: 03af 15bf ebe7 acbd 78f9 c0be 9b9f 01bf
00000310: 4804 903e e63d f6be 4795 cf3c c4d6 01bf
00000320: 6b4e 293f a1c6 20bf 9bd4 733e 8f98 07bf
00000330: 71e6 ddbc 7937 30bf 42f6 a83e 9425 9c3e
00000340: 168c 61bc 676c 27be 8f55 49be 8dce e1be
00000350: 4eb2 58be e6d3 43be 74de ca3e ce3c 083e
00000360: 8c2b df3d 5d47 1abe 4d38 303e b51e e5be
00000370: 0f51 a7be 0525 5f3e 18f4 ca3d 12b5 293d
00000380: 7a62 be3e e878 c03d 28d2 aa3e c864 f6bd
00000390: 2c9d 0abf 8f53 bfbe 350a 10be e001 10bf
000003a0: a190 8c3e 360f 8ebd fb4d 49bd 556b 96be
000003b0: c45c aabe e1ce 143e 8026 3bbf b39e 703e
000003c0: dc25 2bbe c06c 423e 82cb afbe 585d e63d
000003d0: 16ca b7be 8bcd 65bf 5258 d73d 2dac a1bd
000003e0: 3df3 403f bf73 01be 5c0f 1e3e 9453 44be
000003f0: 2e13 9fbd c845 1b3e a76b 433d 6799 143f
1.0331719 -0.8186349 -0.67266387 0.7989772 -0.2401116 -0.20691702 -0.8764665 -0.5636009
0.5189308 -0.59185416 0.06670666 0.030804364 -0.20537695 0.5665419 0.23617032 1.3372997
0.058343638 -0.024738679 -0.74740124 0.1078272 -0.04202906 -0.61222506 -0.28583127 -0.5510358
-0.22713487 -0.3493963 0.19109651 -0.15604584 -0.021906594 -0.24965796 -0.4406302 0.048468817
0.31940848 -0.21677393 -0.13387822 -0.23156194 0.12560113 0.07218983 -0.45796013 -0.93284607
0.0005688724 -0.53750676 0.36656317 -0.08678572 0.13267326 -0.06445221 -0.33209142 0.8702499
-0.03903959 -0.27236205 -0.51464874 -0.60153407 0.028411536 -0.23621067 0.03240091 0.11967875
-0.0043694493 0.10164281 -0.11856426 0.19313878 -0.22060278 -0.13232622 0.099036545 0.23303244
-0.5870097 -0.6596067 0.6448678 0.34448496 0.1253284 -0.32555893 0.5204673 0.02529971
0.44506148 0.62406635 0.881369 -0.3796892 -0.3164764 -0.13321514 0.11951991 -0.58027637
0.42006114 0.1814966 -0.11500372 0.1269484 -0.27035463 -0.077728145 -0.5700129 0.022051698
0.65786356 -0.42114577 -0.50156355 -0.11011075 -0.46289057 0.40019283 0.11067349 0.5970948
0.6081124 0.3135484 0.08419952 0.2217725 -0.10393069 -0.12097904 -0.19338274 -0.18655907
0.29047287 -0.33783203 0.29874808 0.1729205 0.034007914 0.23001976 -0.21993978 0.3295566
0.09234067 -0.015881332 0.5859903 0.65038604 0.004623551 0.07964901 0.46329796 0.057164654
0.018610314 0.060635503 0.4844796 -0.0010876476 0.06036841 -0.37858447 -0.2851942 0.7563829
-0.383021 -0.09791032 -0.074043564 -0.1237982 -0.21315312 -0.4808496 -0.19781779 0.113135405
-0.31234083 0.2120868 -0.0515987 -0.5967117 0.3433814 0.30425158 -0.16469909 0.59080386
0.25674215 -0.3090277 -0.71618605 -1.098903 -0.34429482 0.046398174 -0.2926943 -1.041539
0.27705336 0.0131320255 0.16550133 0.36564615 0.8563383 -0.13706478 -0.12965009 -0.06182398
-0.15487045 0.0117295515 0.034311008 -0.5174137 -0.12964134 0.0765194 0.5482387 0.08634537
0.09981409 0.29788283 -0.17030556 -0.3566312 -0.57636327 -0.46951273 -0.13081554 0.072871536
0.1018343 0.07163317 -0.34585124 0.37447202 -0.08428312 -0.0043587033 -0.4987671 0.050720885
0.08574789 -0.37433875 -0.23391704 -0.3215007 -0.16026974 -0.04605085 0.55513686 0.33866107
-0.5847017 -0.08442672 -0.3769033 -0.50634164 0.28128266 -0.480941 0.025339736 -0.5071833
0.6613528 -0.62803084 0.23811571 -0.5296716 -0.027087422 -0.68834645 0.3300038 0.3049742
-0.013766309 -0.16349946 -0.19661544 -0.44102898 -0.21161768 -0.19123802 0.39622843 0.13304445
0.10896978 -0.15066285 0.17208977 -0.4474999 -0.3267903 0.21791466 0.099098384 0.041432448
0.37184507 0.09398061 0.33363461 -0.12030941 -0.54146075 -0.37368438 -0.14066394 -0.5625286
0.27454093 -0.06936495 -0.049146634 -0.29378763 -0.332739 0.14532043 -0.7310562 0.23498039
-0.16713661 0.18986797 -0.34334952 0.11248273 -0.35896367 -0.8976676 0.10514893 -0.07894168
0.7537115 -0.1264181 0.15435547 -0.19172508 -0.0776733 0.15163338 0.047710087 0.58046573

weight f4 [9992, 1]
00000000: 7a0c 48bf 4acd 52be 2b44 233e 761c 713e
00000010: fa2f 78bf d9c9 0a3e a027 103f b560 e2be
00000020: 2995 c53d 0f37 023f 8293 c8bd a525 9dbd
00000030: 5610 81bf 5a87 6e3d b341 bbbd f490 7d3c
00000040: 1636 3d3f 82c5 873d aa24 5abe 8e36 d8bd
00000050: 4e41 12bf f55f 1dbf 4ea8 44bf 7591 fc3e
00000060: b5d0 403e 4da4 bdbe 8ce9 923e 2d18 82be
00000070: 234e a0bc 44b4 d9be dd54 1cbf 7e2c 86be
00000080: 627b d1be 1e2d 3c3f b5f5 b9be 470c 9f3f
00000090: f23c c53e 800f 20be 9087 843e b794 073f
000000a0: d609 cb3d 3106 ff3e f86b 693f b3a2 4a3e
000000b0: e4b8 95bf b1c5 623f 2d08 183e 0192 86bf
000000c0: 7cb2 803d 490d 20bf f653 ed3e 8ca1 1bbf
000000d0: 84a6 cb3f 4b03 e3be 447e 903e 8d84 483e
000000e0: 795b f2bd 0550 fe3e a38f 2abf dac7 d6be
000000f0: 5a32 10bf dbcb bbbe 0d57 25bf c44e 643f
00000100: 4500 593f 0aad c9be ffa2 0d3f 6900 883e
00000110: fe21 403f eed6 753e b7a0 0e3f f940 c83b
00000120: d9f9 28bd 0325 56bd 56f2 e33f c7dd 0b3f
00000130: ed72 23bf 5bf0 6c3e 6772 82bc 2f97 e43e
00000140: 2037 51bd 4831 0b3f cdd2 053e de77 713d
00000150: 2fda 8abf 1df8 7c3f 343b 37bf ad1f 64be
00000160: 3bbf b63e 485d f0bd e01a 753f 9ffd 4abf
00000170: e6e5 6fbe 02dd 213f 6251 ba3d 85b5 7fbf
00000180: 47db 833f 1f2d 52be 95b6 12bf a561 8abf
00000190: 96a4 b33f 250f 29bf d8df 553f a464 e93d
000001a0: debf 043f cca3 4a3e dc08 12bf e5c1 72be
000001b0: 0629 3d3e 5ea9 34bf 9657 fe3c 3af2 983e
000001c0: 8e42 c83e 314c 3d3f 5c8d eb3e 54d2 a33e
000001d0: 9924 c9be 4451 bc3e 2161 0fbe c27b 8fbf
000001e0: acb4 953f f02e 00bf bda3 39bf 9dbd 3f3f
000001f0: 4c78 2e3f 0ecc 153f 5965 063e cfd7 243f
00000200: 2b55 c93e d5db 893f aea7 8dbe f7ca a93e
00000210: 6d17 4d3f 9a64 523d 0f08 d13e 4d34 f4be
00000220: 8b08 bebd 5db5 963f f841 403e 9667 73be
00000230: 4568 70be 7ac5 82be 4a1d 7abf b0d4 e93d
00000240: 4ea2 59bf a54d 8c3e ad36 cf3c 9f61 043e
00000250: 5893 2f3f cd61 2b3f a7bb bf3d 0b9a bb3e
00000260: 9c2d 3a3f 387a 34bf 9692 9ebe 321a 833f
00000270: 7695 0dbc 962d 373f 5a2d 3f3e 3381 db3e
00000280: 8f67 843f 5f4d ad3f ca5e cdbf 1717 653f
00000290: e090 113f 3e57 053d 3775 2fbf 403b f93e
000002a0: 67b6 e0be 5e73 09be a73c 703e daa9 05be
000002b0: 2271 4f3c 7861 a13e 2918 723e 34c3 8bbe
000002c0: 71d5 003e f794 9e3c 4ff5 54bf 6fc2 08bd
000002d0: 23aa c7bd 51e4 033e 94cd 073f 7e8f 393c
000002e0: 3446 ce3e 03e5 983f 2915 d93f e18f 9abe
000002f0: 3753 fd3e a026 7bbe 6887 12bf c333 d3be
00000300: 8f05 82be fcc6 853f 5262 853f 033a c6be
00000310: 429c 2c3f b25d 573e 5105 92be 6337 a03e
00000320: 5c3a 603f b140 bebe fc24 84bf 2acf cd3d
00000330: a9e2 c93e 8984 5fbf ad71 ce3e 2973 0bbf
00000340: 777e bdbe 7cfa 533f b2b3 9c3e 4ae4 2a3f
00000350: e509 513f 51cd 59be fa63 ab3f c9ad c4be
00000360: 0155 d7be 02d5 adbe 80da 41bf 5a67 f53e
00000370: 88c4 afbe 6e3c 283f 7816 eabd 02af 40bf
00000380: 20d8 20bf 0203 0bbe ec0c 85be 7358 753f
00000390: ed75 313e 0f1a 493f 865f 933f 1b3f 4bbe
000003a0: 2260 583f 2acf 533f 0123 753e 02cf b53e
000003b0: 00b3 fbbe 554f a1be 7f1b c33e 13af e3be
000003c0: ca1f 0cbd d5da 6dbf 3ac5 ea3d 5d44 a53e
000003d0: 57d3 b2bf eaa6 ff3e 396b 4dbe ca78 f03e
000003e0: 367f 883d c0ee b03e b938 623e a043 7c3f
000003f0: 49c0 3b3f 919c 633f 66b6 d33f 1eca f4bd
-0.7814404 -0.20586124 0.15943973 0.23546013 -0.96948206 0.13553561 0.5631046 -0.44214407
0.09647591 0.5086526 -0.0979376 -0.07673196 -1.008311 0.05823455 -0.091433905 0.015476454
0.73910654 0.066294685 -0.21303049 -0.105572805 -0.571309 -0.61474544 -0.7681931 0.49329725
0.18829615 -0.37039414 0.28693807 -0.2540907 -0.019568508 -0.42520344 -0.6106699 -0.2620582
-0.40914446 0.73506343 -0.36320272 1.2425622 0.3852306 -0.15630913 0.25884676 0.52961296
0.099139854 0.4980941 0.9118037 0.19788627 -1.1697049 0.88582903 0.14846869 -1.0513307
0.06284043 -0.6252027 0.4635312 -0.60793376 1.5910192 -0.4433845 0.28221333 0.19581814
-0.11833853 0.49670425 -0.6662542 -0.4194935 -0.5632683 -0.36678967 -0.64585954 0.89182687
0.84766036 -0.3938983 0.5532684 0.26562813 0.7505187 0.2400777 0.5571398 0.006111261
-0.0412539 -0.05228139 1.780833 0.5463528 -0.6384724 0.23138563 -0.015923692 0.44646594
-0.051077962 0.5437207 0.13068695 0.058952205 -1.0847834 0.9881609 -0.7157471 -0.22277708
0.35692772 -0.11736542 0.95744133 -0.79293245 -0.23427543 0.63227856 0.09097554 -0.9988635
1.0301293 -0.20525025 -0.5730985 -1.0811049 1.4034603 -0.66038734 0.83544683 0.11396149
0.51855266 0.19789046 -0.5704477 -0.23706777 0.1847268 -0.70570934 0.031047624 0.29872304
0.39113277 0.73944384 0.46006286 0.31996405 -0.39285734 0.3678075 -0.14001895 -1.1209643
1.1695762 -0.5007162 -0.7251547 0.748987 0.6815231 0.5851449 0.13124599 0.643918
0.3932279 1.0770212 -0.27666992 0.33162662 0.8011387 0.051365472 0.4082646 -0.47696152
-0.09278973 1.1774098 0.18775165 -0.23769984 -0.23477276 -0.25541288 -0.9770094 0.1141752
-0.8501328 0.27402988 0.025294626 0.12927864 0.68584204 0.6694611 0.09361964 0.36640963
0.72725844 -0.7049899 -0.3097121 1.0242369 -0.008641591 0.71553934 0.18669644 0.4287201
1.0344104 1.3539237 -1.6044552 0.8948836 0.56861687 0.032553904 -0.6853823 0.48678017
-0.43889162 -0.13422915 0.23460637 -0.13053074 0.01266125 0.31519675 0.23642029 -0.27297366
0.12581421 0.019358141 -0.8318681 -0.03338855 -0.09749248 0.12880065 0.5304806 0.011325715
0.40287936 1.1944889 1.6959583 -0.30187896 0.4947755 -0.24526453 -0.57237864 -0.4125043
-0.25394866 1.045135 1.042063 -0.38716134 0.6742593 0.21031836 -0.2851968 0.31292257
0.8758905 -0.3715873 -1.0323787 0.10049279 0.3943074 -0.8731161 0.40321103 -0.54472595
-0.37010548 0.82804084 0.30605847 0.6675459 0.8165572 -0.21269728 1.3389885 -0.38413838
-0.4205704 -0.33951575 -0.7572403 0.47930413 -0.3432963 0.6571721 -0.11430067 -0.7526704
-0.6282978 -0.13575366 -0.2598642 0.9583809 0.17330141 0.7855539 1.1513526 -0.19848292
0.8452169 0.8273798 0.23939134 0.35509497 -0.49160004 -0.31505838 0.38106915 -0.4446951
-0.034210004 -0.92912036 0.11463399 0.3227872 -1.3970746 0.49932033 -0.20060433 0.46967155
0.066648886 0.34557152 0.2209195 0.9854069 0.7334028 0.88910776 1.6540039 -0.11952613
