DeepCGSR_triet/chkpt/deepcgsr.pt (torch, 683355 bytes, 2 tensors)

weight f4 [9992, 16]
0	0xbf60b9e5	-0.8778365
1	0x3ea9b0a8	0.3314259
2	0xbf0d76f8	-0.55259657
3	0xbe1315a0	-0.14363718
4	0x3f1475bd	0.57992154
5	0x3efdf165	0.49598232
6	0xbf56d498	-0.8391814
7	0x3e2674b4	0.16255456
8	0x3d2210fd	0.039566983
9	0xbec824ce	-0.3909058
10	0xbec816ab	-0.39079794
11	0xbeb18c69	-0.34677437
12	0x3f7721af	0.9653577
13	0x3ebd32d1	0.36952832
14	0xbc70e8df	-0.014703958
15	0x3e9dc137	0.30811474
16	0xbea35250	-0.31898737
17	0x3f355750	0.70836353
18	0xbe1b2641	-0.15151311
19	0xbee7ebc6	-0.45297068
20	0xbee44f09	-0.4459155
21	0xbf7bb586	-0.9832386
22	0x3e8f08de	0.27936453
23	0x3e5bea18	0.21476018
24	0xbfa5d363	-1.2955135
25	0x3e897f96	0.26855153
26	0xbeaf0ef0	-0.34191084
27	0x3ec8f366	0.39248198
28	0x3c7617bc	0.015020307
29	0xbefcd353	-0.49379978
30	0x3d6ba14d	0.057526875
31	0x3eb436a5	0.3519794
32	0x3e808c8c	0.2510723
33	0xbd066178	-0.032807797
34	0x3ee38bfa	0.4444273
35	0x3effebd1	0.499846
36	0x3f31b903	0.6942293
37	0x3f0951b1	0.53640276
38	0xbf6f23f7	-0.93414253
39	0x3ec437b0	0.38323736
40	0xbe27e8a6	-0.16397342
41	0xbe56ac24	-0.20964104
42	0xbed4842d	-0.41507092
43	0x3ed71812	0.42010552
44	0x3e787217	0.24262272
45	0x3e454a28	0.1926657
46	0xbf193ed6	-0.59861505
47	0xbebf6753	-0.37383518
48	0x3dd92851	0.10603393
49	0x3eac55ec	0.33659303
50	0x3f018faf	0.5060987
51	0xbb631c45	-0.00346543
52	0x3e9a2d01	0.3011246
53	0xbf3c5193	-0.7356197
54	0xbf21e081	-0.6323319
55	0xbf613e91	-0.87986094
56	0x3f213fad	0.62987787
57	0x3e24a1d4	0.16077358
58	0x3eb200ba	0.3476618
59	0xbebc46e9	-0.3677285
60	0xbe0de13b	-0.1385545
61	0x3c996992	0.018727098
62	0xbed5261e	-0.41630644
63	0x3ea5202d	0.3225111
64	0x3f89fe37	1.0780705
65	0x3e8e4ecc	0.27794492
66	0x3e65ccdf	0.22441433
67	0x3ee28349	0.44240788
68	0x3f854d96	1.0414302
69	0x3e4544fe	0.192646
70	0x3eb60bed	0.35555974
71	0xbdf0cea2	-0.11758162
72	0x3e973e2b	0.29539618
73	0xbe69feb8	-0.22851074
74	0x3f53b2f7	0.82694954
75	0xbec504bb	-0.38480172
76	0xbfa61e96	-1.2978084
77	0x3e57ca79	0.21073331
78	0x3ca745c4	0.020419009
79	0x3d28cfad	0.04121368
80	0xbe6a808f	-0.22900604
81	0x3f773f34	0.96580815
82	0xbd3cd958	-0.046105713
83	0x3f20d0d1	0.6281863
84	0xbefb20e3	-0.49048528
85	0xbe46d3e9	-0.19416775
86	0x3ef823ce	0.48464817
87	0x3ecf0823	0.40435895
88	0x3f02c195	0.5107663
89	0xbf7a6eb7	-0.9782519
90	0x3e5467a0	0.20742655
91	0x3c964b43	0.018346434
92	0x3f0a40bf	0.54005045
93	0x3f3f428f	0.74710935
94	0xbd8e2596	-0.06940763
95	0xbf58df27	-0.84715503
96	0x3f04ec6e	0.51923263
97	0x3dcceee9	0.10006506
98	0x3e37b375	0.17939551
99	0x3eeef7f2	0.46673542
100	0xbe5fada8	-0.21843588
101	0x3dfe2f9c	0.124114245
102	0xbf54fb9b	-0.8319642
103	0xbd4897a0	-0.048972726
104	0xbe191def	-0.14952825
105	0xbf1227f1	-0.57092196
106	0x3e6cf0cc	0.23138732
107	0xbe84c778	-0.25933433
108	0x3f2351a1	0.6379643
109	0x3f27d5cd	0.6556061
110	0x3c1e5bc9	0.009665438
111	0xbe356a22	-0.17716268
112	0x3f00563c	0.50131583
113	0x3f3496d6	0.7054266
114	0x3eb7c966	0.35895842
115	0x3e276cb3	0.16350059
116	0x3f2d6fbe	0.6774863
117	0x3f5f7034	0.87280583
118	0xbd3002b2	-0.04297132
119	0xbf25e2a9	-0.6479898
120	0xbe08af38	-0.1334809
121	0x3ec39d32	0.38205868
122	0x3ea43386	0.3207056
123	0xbe603ec1	-0.21898939
124	0xbdd2758f	-0.10276329
125	0xbf3e8d71	-0.7443457
126	0xbef587c8	-0.47955155
127	0xbf4b160f	-0.79330534
128	0xbf74cf9a	-0.95629275
129	0xbec06082	-0.3757363
130	0x3f599788	0.84996843
131	0xbe75357a	-0.23946181
132	0x3fa3087a	1.2736962
133	0x3f68f12c	0.90993
134	0x3e8794c3	0.26480684
135	0xbf430bdd	-0.76189977
136	0xbf64f59c	-0.8943727
137	0xbf062cb6	-0.52411973
138	0x3ec218f3	0.3790966
139	0xbe9c4d30	-0.3052764
140	0xbf0df1b9	-0.55446965
141	0xbf1c3e8e	-0.6103295
142	0xbf1f5548	-0.62239504
143	0x3f15cda7	0.58516926
144	0xbf1f3957	-0.6219687
145	0x3efb7d61	0.49119094
146	0x3e56126c	0.20905465
147	0xbec4fb66	-0.38473052
148	0xbf1643fc	-0.58697486
149	0x3da71759	0.0815875
150	0x3e841f12	0.25804955
151	0x3f85ab60	1.0442924
152	0x3f5d87b9	0.8653522
153	0xbe20f0d2	-0.15716866
154	0xbec592d7	-0.38588592
155	0x3f0cd26a	0.55008566
156	0x3e31b48a	0.17354026
157	0x3f225c07	0.6342167
158	0x3e297973	0.16550235
159	0xbcecc118	-0.028900668
160	0x3f11c280	0.5693741
161	0x3e38d5f2	0.18050364
162	0x3d806367	0.062689595
163	0x3f473937	0.7782168
164	0xbd71cdd8	-0.0590342
165	0xbeeec47a	-0.46634275
166	0x3e5b7a13	0.21433286
167	0xbf661146	-0.8987011
168	0xbf8c513d	-1.0962292
169	0x3f2db50b	0.67854375
170	0xbde92667	-0.11384278
171	0xbcf1e738	-0.029529199
172	0xbf02c0ae	-0.51075256
173	0x3e2f8b47	0.17142974
174	0x3e3824da	0.17982808
175	0xbf2638a4	-0.64930177
176	0x3e6992da	0.22809926
177	0xbc0897a4	-0.008336935
178	0xbe645fdd	-0.22302194
179	0xbded3809	-0.115829535
180	0x3efe6020	0.49682713
181	0x3ede5fa6	0.4343235
182	0x3e9d2924	0.3069545
183	0xbe8946ea	-0.26811916
184	0x3d5d82df	0.054079887
185	0xbd04ae42	-0.032392748
186	0x3e0baa21	0.13639118
187	0xbe278e5c	-0.163629
188	0x3eb335ea	0.3500207
189	0xbef420dd	-0.47681323
190	0xbead82b5	-0.33888784
191	0x3f1ac397	0.60454696
192	0xbf1d51b3	-0.6145279
193	0xbf493ead	-0.7861126
194	0xbf13413a	-0.575214
195	0xbf8d2dcf	-1.1029605
196	0x3e78ea29	0.24308075
197	0xbefe1c97	-0.49631187
198	0x3e82cd0e	0.2554707
199	0xbeac5134	-0.33655703
200	0xbf5c0ae3	-0.8595411
201	0xbf23a339	-0.63920933
202	0x3ed37242	0.4129811
203	0xbeb9f67f	-0.36320874
204	0x3d3c48c5	0.045967836
205	0xbf398e6b	-0.7248294
206	0xbe987874	-0.29779398
207	0xbe5a3a36	-0.21311268
208	0x3e65b25e	0.22431323
209	0xbdf8c051	-0.121460564
210	0xbed44fb1	-0.4146705
211	0xbf1e81a8	-0.6191659
212	0x3ebb363b	0.36564812
213	0xbe74ccc0	-0.23906231
214	0xbf038484	-0.5137408
215	0xbf00f68c	-0.503762
216	0xbf1336da	-0.5750557
217	0x3ce72e6b	0.028220376
218	0x3eb395f4	0.35075343
219	0xbe2c2721	-0.16811801
220	0x3ca7f2ac	0.020501457
221	0xbdcf19fc	-0.10112378
222	0xbef77e6a	-0.48338634
223	0x3e37b728	0.17940962
224	0xbc8fd3c5	-0.017557034
225	0xbd90b717	-0.070661716
226	0xbe4e7ec0	-0.20165539
227	0x3ea10c9b	0.3145493
228	0xbe445687	-0.19173633
229	0xbe1c08b0	-0.15237689
230	0x3ebcf077	0.3690221
231	0x3ea5ebe8	0.32406545
232	0xbe10c39e	-0.14137122
233	0xbed2e5dc	-0.41190994
234	0xbe359ddb	-0.17735998
235	0x3f362d13	0.7116253
236	0x3f6c0ec7	0.9221005
237	0xbd1ed61d	-0.038778413
238	0xbe45dbb1	-0.19322087
239	0xbe6b5b0f	-0.22983955
240	0xbea99f88	-0.33129525
241	0x3f250190	0.6445551
242	0x3df9feac	0.12206778
243	0xbe83f11a	-0.25769883
244	0xbf1f600a	-0.6225592
245	0x3ca0ff75	0.019653061
246	0x3f1f11c3	0.6213648
247	0x3e957985	0.29194275
248	0x3e89d536	0.2692048
249	0xbf052efc	-0.5202482
250	0x3d6b803f	0.057495352
251	0xbe7065cd	-0.23476334
252	0x3f06bda5	0.52633125
253	0x3debaad7	0.115071945
254	0xbf3945d4	-0.72372174
255	0x3eac74fb	0.33683

weight f4 [9992, 1]
0	0x3e3c7700	0.1840477
1	0x3d6325fe	0.055456154
2	0x3f37fe25	0.7187217
3	0x3f2def65	0.6794341
4	0xbf52ad93	-0.82296103
5	0x3da94d7c	0.08266732
6	0x3eca6608	0.3953097
7	0x3df6da62	0.12053372
8	0x3d9ae30e	0.075628385
9	0x3f418b11	0.75602823
10	0xbe2143f4	-0.15748578
11	0xbbc1c0fa	-0.005912897
12	0xbf9c28a7	-1.2199906
13	0xbe39cf12	-0.18145397
14	0xbeea00d5	-0.4570376
15	0x3f3dc771	0.7413245
16	0x3f87d49b	1.0611757
17	0x3ea97905	0.33100143
18	0xbd61a704	-0.05509092
19	0x3f259742	0.64683926
20	0xbf45ff09	-0.7734228
21	0xbec39335	-0.38198248
22	0xbf807a1b	-1.0037264
23	0x3f6b7827	0.9198021
24	0x3decfb89	0.11571414
25	0xbf9b3587	-1.212571
26	0xbf0d039c	-0.5508363
27	0xbda52d40	-0.080652714
28	0xbf11fdb6	-0.5702776
29	0xbee6b278	-0.45058036
30	0xbe5eb3bc	-0.2174825
31	0x3e2e7ae9	0.17039074
32	0xbf23a805	-0.6392825
33	0x3f26faa4	0.652262
34	0xbed7f3f0	-0.42178297
35	0x3fd2fad7	1.64828
36	0xbd756ec2	-0.05992008
37	0x3e63b386	0.22236452
38	0x3d93a39c	0.072089404
39	0xbe8da96c	-0.2766832
40	0x3e6b40dd	0.22973962
41	0x3d923733	0.07139435
42	0x3f8a2f55	1.0795695
43	0x3dd603e9	0.104499646
44	0xbf8a9fe3	-1.0830044
45	0x3f09b351	0.5378924
46	0xbe8e3922	-0.27777964
47	0xbfc182d1	-1.5118047
48	0x3e1ff994	0.1562255
49	0xbf315a5b	-0.69278497
50	0xbe3d5571	-0.18489625
51	0x3ec50ffd	0.3848876
52	0x3fecc718	1.8498259
53	0x3f0928ee	0.5357808
54	0x3e0475e0	0.1293559
55	0x3f19fbdc	0.6014993
56	0xbe5d4a1e	-0.21610305
57	0x3f376815	0.7164319
58	0xbfcc6eb8	-1.5971289
59	0xbe805e67	-0.25072023
60	0xbf52845f	-0.8223323
61	0xbee9c136	-0.4565522
62	0x3e4c4334	0.19947511
63	0x3fbb731b	1.4644502
64	0x3fd43d38	1.6581182
65	0x3d3e4dca	0.046460904
66	0x3f6da615	0.92831546
67	0x3edf748d	0.4364361
68	0x3f27d71c	0.65562606
69	0x3ee367a8	0.4441502
70	0xbd83aa39	-0.06428952
71	0xbd7c9234	-0.061662868
72	0xbe021586	-0.12703523
73	0xbeb87481	-0.36026385
74	0x3f8b1d67	1.0868348
75	0x3f91bf78	1.1386557
76	0xbf569b32	-0.8383056
77	0x3ea3a1fc	0.31959522
78	0x3eb72435	0.3576981
79	0x3f3b3351	0.7312518
80	0x3efb11e5	0.4903709
81	0x3f49ef8c	0.78881145
82	0x3d0603f1	0.032718603
83	0x3ea2a0af	0.31763217
84	0xbf4ccc7e	-0.7999953
85	0x3f80b3a7	1.0054826
86	0xbf3628d8	-0.7115607
87	0x3eb58d5f	0.3545942
88	0xbb184d77	-0.0023239532
89	0xbefd0522	-0.4941798
90	0x3fad0d81	1.3519746
91	0xbfa4dd93	-1.2880119
92	0xbecd7f98	-0.4013641
93	0x3ee4770a	0.4462207
94	0xbef985cc	-0.4873489
95	0xbf80ade2	-1.0053065
96	0x3f88e6d6	1.0695446
97	0xbe46fa10	-0.19431329
98	0xbec35db9	-0.38157442
99	0xbf94d676	-1.1627948
100	0x3fba2477	1.4542378
101	0xbf203aba	-0.6258961
102	0x3f587f06	0.8456882
103	0x3e5066e4	0.2035175
104	0x3f2c223e	0.6723975
105	0xbdeb290c	-0.114824384
106	0xbed342ca	-0.41261894
107	0x3d8a1c51	0.06743682
108	0x3fd9a6ab	1.7003988
109	0xbf11a9b0	-0.5689955
110	0xbd609c01	-0.054836277
111	0xbefe8e4b	-0.49717936
112	0xbe9fcb8e	-0.31209987
113	0xbebe1cba	-0.37131292
114	0x3e8b1ca9	0.27170303
115	0x3f1554ec	0.58332705
116	0xbf08337c	-0.5320356
117	0xbeee43de	-0.46536154
118	0x3d13492c	0.035958454
119	0xbf51170b	-0.81675786
120	0x3fdef7f3	1.7419418
121	0xbf37599f	-0.71621126
122	0xbea2cb46	-0.3179571
123	0x3f9f8416	1.2462184
124	0x3f104a92	0.56363785
125	0x3f36f900	0.71473694
126	0xbd5b1dca	-0.053495206
127	0x3f3504b8	0.70710325
128	0x3f7c1b2d	0.98478967
129	0x3f544154	0.8291218
130	0xbf42eb94	-0.76140714
131	0x3f3e54f7	0.74348396
132	0x3f01cb40	0.5070076
133	0xbe969731	-0.29412225
134	0x3e61e42e	0.220597
135	0xbe9c14b6	-0.3048455
136	0x3f0fc827	0.56164783
137	0x3f4de629	0.8042932
138	0x3ee9f513	0.4569479
139	0x3ed3255d	0.41239443
140	0x3f4b12fc	0.7932584
141	0xbee41fee	-0.4455561
142	0xbee82220	-0.45338535
143	0xbed02e92	-0.4066053
144	0xbf25487e	-0.6456374
145	0x3e119aa4	0.14219147
146	0xbe9abf5a	-0.30224115
147	0x3ee4e7ce	0.44708103
148	0x3f1f1429	0.62140137
149	0x3f4ba9c2	0.79555905
150	0x3eca8e74	0.39561808
151	0x3f1cd6c9	0.61265236
152	0x3f8f2dfa	1.1185906
153	0xbfa218d6	-1.2663829
154	0xbe654aaa	-0.22391763
155	0x3fdf5a08	1.744935
156	0x3db8682e	0.09004246
157	0x3f2aac6a	0.66669333
158	0x3f128fe0	0.57250786
159	0xbf6520b7	-0.89503044
160	0x3fd45a02	1.6589968
161	0x3f662f44	0.8991587
162	0xc0025ab2	-2.0367856
163	0x3f9a5101	1.205597
164	0x3f5cd0fe	0.86256397
165	0xbdc2ecb5	-0.095178045
166	0xbf8616b7	-1.0475682
167	0x3ee04e98	0.43809962
168	0x3e9bea72	0.30452305
169	0x3e884c8a	0.26620895
170	0x3eed04f5	0.46292844
171	0xbf4617f2	-0.7738029
172	0xbd4bef58	-0.049788803
173	0xbdfcaf1b	-0.12338086
174	0x3f05a04d	0.52197725
175	0xbe917761	-0.2841139
176	0x3ea0c5a6	0.31400794
177	0x3e951c21	0.29123023
178	0xbfa21643	-1.2663044
179	0xbf6b7de5	-0.91988975
180	0x3f109d5a	0.564901
181	0x3df28a6b	0.118428074
182	0x3f188c64	0.5958922
183	0xbd9990d5	-0.07498328
184	0xbd6f345f	-0.058399554
185	0x3ffb3add	1.9627339
186	0x3fc73829	1.5564014
187	0xbed9004f	-0.42383048
188	0x3e442c75	0.19157584
189	0xbee3825f	-0.44435403
190	0x3d16626f	0.036714967
191	0xbf1b1965	-0.60585624
192	0xbc9d78d5	-0.019222656
193	0x3f4222c0	0.75834274
194	0x3f85db9c	1.0457644
195	0x3ec61466	0.38687438
196	0xbe96ff9b	-0.29491886
197	0x3ee3c351	0.44484952
198	0xbf00f93a	-0.5038029
199	0xbe083d47	-0.13304625
200	0x3ece52de	0.40297598
201	0xbf0162b0	-0.5054121
202	0xbfb5fb98	-1.4217405
203	0xbefd62cf	-0.49489447
204	0xbef49836	-0.47772378
205	0xbef061ca	-0.46949607
206	0x3f295d2c	0.66157794
207	0xbe4f08f2	-0.20218256
208	0xbe0c5a57	-0.13706337
209	0x3f7ae8ce	0.9801148
210	0x3f1a9f17	0.60399
211	0x3f428057	0.7597708
212	0x3f939f75	1.1533037
213	0xbedf5b8b	-0.4362453
214	0x3fdab1de	1.7085531
215	0xbe3cdfb7	-0.18444715
216	0xbe3c373c	-0.18380445
217	0xbd87fc86	-0.06639962
218	0xbebc8377	-0.3681905
219	0x3ed3c1b8	0.41358733
220	0xbf0236e7	-0.50865024
221	0x3f614b21	0.8800526
222	0xbe9bb98a	-0.30414993
223	0xbf4a6dc4	-0.7907374
224	0xbec8f758	-0.39251208
225	0xbe8c9f15	-0.2746512
226	0xbeaf97b9	-0.34295443
227	0x3fa17de6	1.2616546
228	0xbeb7b2f4	-0.35878718
229	0x3f77e312	0.96830857
230	0x3f2a74b2	0.6658431
231	0xbe4dae4e	-0.20086023
232	0x3fa64e1a	1.2992585
233	0x3f909457	1.129527
234	0x3f2e82c5	0.6816829
235	0xbf31eeb3	-0.6950485
236	0xbe9b280c	-0.3030399
237	0xbf0f9b12	-0.56095994
238	0x3e702dc8	0.23454964
239	0xbf89681d	-1.0734898
240	0xbded3e64	-0.11584166
241	0xbf99906a	-1.1997197
242	0xbf15a9cc	-0.58462214
243	0x3f7f2e4d	0.99680024
244	0xbfe743b4	-1.8067536
245	0x3e90781f	0.28216645
246	0xbf4dc199	-0.8037353
247	0xbe35070a	-0.17678466
248	0x3cc3578e	0.02384546
249	0x3e92b2b3	0.28651962
250	0x3df1eff5	0.11813346
251	0x3fe037f2	1.7517073
252	0x3f46dd6a	0.776816
253	0x3d8f4e32	0.069973364
254	0x3fc333bb	1.5250162
255	0x3d374706	0.044745468
