DeepCGSR_triet/chkpt/deepcgsr.pt (torch, 94299 bytes, 2 tensors)

weight f4 [1076, 20]
0	0x3de0e3aa	0.109809235
1	0x3e2594ca	0.1617004
2	0x3e0f2317	0.1397823
3	0xbe25bb91	-0.16184832
4	0x3dec2b23	0.11531665
5	0x3e272f46	0.16326627
6	0x3d60a1e1	0.05484188
7	0xbe2b9238	-0.16754997
8	0x3e12cb40	0.14335346
9	0x3e23b7ea	0.15988126
10	0xbd732b03	-0.05936719
11	0xbd5b196c	-0.05349104
12	0x3e2f5c80	0.1712513
13	0xbdf7d31e	-0.12100814
14	0xbe0d6adb	-0.13810293
15	0xbdfd5f7a	-0.12371726
16	0xbdc62cb6	-0.09676497
17	0xbe17326e	-0.14765331
18	0xbe315b0a	-0.17319885
19	0x3e33cf1b	0.17559473
20	0x3df433ed	0.119239666
21	0x3dfc090b	0.12306412
22	0x3e03ce27	0.1287161
23	0xbe029627	-0.12752591
24	0x3dfd6161	0.12372089
25	0x3e087d89	0.13329138
26	0x3de906da	0.1137826
27	0xbe021758	-0.12704217
28	0x3e029108	0.12750638
29	0x3dfbd0c3	0.122956775
30	0xbe009f75	-0.12560828
31	0xbe0473b1	-0.12934758
32	0x3e00f8b3	0.12594871
33	0xbdf314d1	-0.11869205
34	0xbe03e074	-0.12878591
35	0xbe064665	-0.13112791
36	0xbe06f296	-0.13178477
37	0xbe01f356	-0.12690482
38	0xbe11f0c1	-0.14251997
39	0x3e0013e1	0.12507583
40	0xbdfc2aed	-0.12312875
41	0x3c8bd089	0.01706721
42	0x3ca4ca48	0.020115986
43	0x3e206771	0.1566446
44	0xbddc253f	-0.10749292
45	0xbe160d03	-0.14653401
46	0x3d8d094a	0.068865374
47	0x3d5fa2e7	0.054598715
48	0x3c62f7bf	0.013853013
49	0x3c5f10bd	0.013614831
50	0xbd1a9790	-0.037742198
51	0x3d058b71	0.032603685
52	0x3d680b07	0.05665114
53	0x3cf96c03	0.030447012
54	0xbdaedabb	-0.08537813
55	0xb94c07b3	-0.00019457824
56	0x3df52b8e	0.11971198
57	0x3dbed4ab	0.09317907
58	0x3c0ff5d3	0.008786636
59	0x3d7a3b2d	0.06109159
60	0x3e1f3532	0.15547636
61	0x3e455ecd	0.19274445
62	0x3e364b58	0.17802179
63	0xbe360b90	-0.17777848
64	0x3e21e5b1	0.15810277
65	0x3e40f7aa	0.18844476
66	0x3d28f51a	0.041249372
67	0xbe2541a6	-0.16138324
68	0x3e290c92	0.16508701
69	0x3e155af6	0.1458548
70	0xbdcfae85	-0.10140709
71	0xbe111487	-0.14167987
72	0x3e6e5dda	0.23277989
73	0xbe1fc4fd	-0.15602489
74	0xbe70beed	-0.23510332
75	0xbe510d49	-0.20415224
76	0xbde60201	-0.11230851
77	0xbe59503e	-0.21222016
78	0xbe5f27b4	-0.2179249
79	0x3e23b4cf	0.15986942
80	0x3d97e8c4	0.074174434
81	0x3d66b02c	0.056320354
82	0x3e05f2de	0.13080928
83	0xbe24b3bc	-0.16084188
84	0x3e002124	0.12512642
85	0xbd868bed	-0.065696575
86	0x3db4892e	0.088152274
87	0xbe0ad8cc	-0.13559264
88	0x3e0d43a1	0.1379533
89	0x3e2a6674	0.16640645
90	0xbda8dcad	-0.082452156
91	0xbdcb7e34	-0.09936181
92	0x3e19fdcd	0.15038224
93	0xbe01eb5a	-0.12687436
94	0xbe07e0e1	-0.13269378
95	0xbcd6db48	-0.026227608
96	0xbbe8313e	-0.0070859483
97	0xbe02bf18	-0.12768209
98	0xbc0ddaff	-0.00865817
99	0x3e0a8dc5	0.13530643
100	0x3e1078a9	0.14108528
101	0x3e27ddc0	0.16393185
102	0x3e2fe5c3	0.17177491
103	0xbe3c13c8	-0.18366921
104	0x3e243344	0.16035181
105	0x3d270800	0.040779114
106	0x3dae3fea	0.085082844
107	0xbe49d8cf	-0.19711612
108	0x3e34d4ed	0.1765935
109	0x3e569b58	0.20957696
110	0xbe40b67e	-0.18819615
111	0xbda095bc	-0.078410596
112	0x3ddc94ba	0.10770555
113	0xbe2a9808	-0.16659558
114	0xbe44b70e	-0.19210455
115	0xbe1b2239	-0.15149774
116	0xbe4e3350	-0.20136762
117	0xbe356e52	-0.17717865
118	0xbd2af736	-0.041739665
119	0x3e1fc5a5	0.15602739
120	0x3de226ea	0.110425785
121	0x3e4b5dfd	0.19860072
122	0x3e400fe3	0.1875606
123	0xbe1db8fb	-0.15402596
124	0x3dc3ac32	0.09554328
125	0x3e5dc4bf	0.21657084
126	0x3da14d26	0.07876043
127	0xbe15ab58	-0.14616144
128	0x3e1090e7	0.14117776
129	0x3e087cf2	0.13328913
130	0xbe23c8b7	-0.15994535
131	0xbe249895	-0.1607383
132	0x3e4eb103	0.20184712
133	0xbe062952	-0.131017
134	0xbe3be413	-0.18348722
135	0xbe3372bd	-0.17524238
136	0xbe161d56	-0.14659628
137	0xbe4572f8	-0.19282138
138	0xbe443400	-0.19160461
139	0x3e0834bf	0.13301371
140	0x3e1414c0	0.1446104
141	0x3e6bc752	0.23025253
142	0x3e1b41de	0.15161845
143	0xbe75df78	-0.24011028
144	0x3e7bfe9f	0.24608849
145	0x3e574069	0.21020664
146	0x3e3c8532	0.18410185
147	0xbe78787d	-0.24264713
148	0x3e70c02f	0.23510812
149	0x3e743944	0.2384997
150	0xbe7e51a5	-0.24835832
151	0xbe6f0f48	-0.23345673
152	0x3e6d2389	0.23158087
153	0xbe6d957b	-0.23201554
154	0xbe0c75b1	-0.1371677
155	0xbe12e204	-0.1434403
156	0xbe8bca01	-0.27302554
157	0xbe6eaf8e	-0.23309156
158	0xbe5d1d1f	-0.2159314
159	0x3e68340d	0.22676106
160	0x3e5e085b	0.21682875
161	0x3e464d3e	0.19365403
162	0x3e4a0ec1	0.1973219
163	0xbe51da85	-0.20493515
164	0x3e4b35cb	0.19844739
165	0x3e25caf3	0.161907
166	0x3e1123b3	0.14173774
167	0xbe52d370	-0.2058847
168	0x3e51798e	0.20456526
169	0x3e521017	0.2051395
170	0xbe57f9a9	-0.21091332
171	0xbe332b92	-0.1749709
172	0x3e4f2cdf	0.2023196
173	0xbe4f298d	-0.20230694
174	0xbe4a4000	-0.19750977
175	0xbe407616	-0.18795046
176	0xbe5dd4d4	-0.21663219
177	0xbe40b92f	-0.18820642
178	0xbe3559de	-0.17710063
179	0x3e4c72be	0.19965646
180	0x3e5f3378	0.21796978
181	0x3e6e0a91	0.23246218
182	0xbeb6077d	-0.35552588
183	0xbe708d2b	-0.23491351
184	0x3eabb444	0.3353597
185	0xbe9d8e9e	-0.3077287
186	0xbea9ca1c	-0.3316201
187	0xbea189d2	-0.3155046
188	0xbe5c15b8	-0.2149266
189	0x3ea42f6e	0.32067436
190	0xbe5f1b63	-0.21787791
191	0x3ea291d8	0.31751895
192	0x3e5c69f6	0.21524796
193	0x3ea1049e	0.31448835
194	0x3e9e4f55	0.309199
195	0xbe320e8a	-0.17388359
196	0x3e5f9e25	0.21837671
197	0x3e9ecde4	0.31016457
198	0x3ea87061	0.32898238
199	0x3ea3e0a8	0.32007337
200	0xbe64b268	-0.22333682
201	0x3e47d28f	0.19513915
202	0x3e76e31e	0.24110076
203	0x3e7749ab	0.24149196
204	0x3e27bdd8	0.16381013
205	0xbe6cca78	-0.2312411
206	0x3e7eeb86	0.24894533
207	0x3e736cb9	0.23771943
208	0x3e6e1f50	0.23254132
209	0x3e745ff1	0.23864724
210	0x3e881940	0.26581764
211	0x3e62c61d	0.22145887
212	0x3e6fdcde	0.23424098
213	0x3e5d549d	0.21614309
214	0xbe6b6afd	-0.22990032
215	0x3e4283c9	0.18995585
216	0xbdf66b65	-0.12032203
217	0x3e703532	0.23457792
218	0xbe3793d1	-0.17927481
219	0x3e6dbc37	0.2321633
220	0x3c52b28b	0.012859951
221	0x3e2258eb	0.15854232
222	0x3cbd95b1	0.023142667
223	0xbcb295a5	-0.021799872
224	0x3c8e51a9	0.017372923
225	0x3e18d431	0.14924695
226	0x3cc2daae	0.023785915
227	0xbcfa9c2b	-0.030592045
228	0x3cc35daf	0.023848383
229	0x3e24e7be	0.16104028
230	0xbe1ec6fd	-0.15505596
231	0xbc90cefd	-0.017676825
232	0x3e257525	0.16157968
233	0xbe24d501	-0.1609688
234	0xbcaa94dc	-0.020822935
235	0xbc6ffb0d	-0.0146472575
236	0xbe195053	-0.14972048
237	0xbcabdcf2	-0.020979378
238	0xbdc8f510	-0.09812367
239	0x3e27e467	0.16395722
240	0x3d12dab5	0.035853107
241	0x3e30c0c0	0.17261028
242	0x3e26fea2	0.16308072
243	0xbe28a0d8	-0.16467607
244	0x3e28a2fa	0.1646842
245	0x3cf3021c	0.029664092
246	0xbd86bc2b	-0.06578859
247	0xbda6f149	-0.0815149
248	0x3d6af075	0.057358224
249	0x3e455365	0.19270094
250	0xbe2f43f2	-0.17115763
251	0xbe4e8469	-0.20167698
252	0x3e2d74af	0.16939043
253	0xbd81d7bb	-0.063399754
254	0xbdda51ce	-0.10660134
255	0xbe1daf80	-0.15398979

weight f4 [1076, 1]
0	0x3f071ef6	0.5278162
1	0xbe1e3bdd	-0.15452524
2	0xbfd960b5	-1.6982638
3	0xbfc39933	-1.5281128
4	0x3ebd6a3f	0.36995122
5	0xbd0d38e3	-0.03447808
6	0x3e452d47	0.19255553
7	0x3fd195e3	1.6373867
8	0xc01f71b6	-2.4913154
9	0x3fd6891b	1.6760591
10	0xbf350e88	-0.707253
11	0x3f6e53e3	0.9309675
12	0x3fad2200	1.3526001
13	0xbf995f41	-1.1982194
14	0xbf762333	-0.9614746
15	0xbf137ec9	-0.57615334
16	0x3e9d3e49	0.30711582
17	0x3f5ec675	0.8702157
18	0x3f8762bf	1.057701
19	0x3e8bdb66	0.27315825
20	0xbf74e493	-0.95661277
21	0xc01944dd	-2.394828
22	0xbf483ef1	-0.7822104
23	0x3e7c2f5b	0.2462744
24	0xbd8c7f9a	-0.068602756
25	0xbf380f52	-0.71898377
26	0x3f825187	1.018113
27	0x3f39554b	0.7239577
28	0x4007b45a	2.1203828
29	0xbe8f87af	-0.28033206
30	0xbbf72f13	-0.0075434535
31	0x3e10a410	0.14125085
32	0x3ded768a	0.11594875
33	0xbf7c8eb9	-0.9865528
34	0x3e0fe24d	0.1405117
35	0xbcad8eb0	-0.021186203
36	0x3de71ec1	0.11285163
37	0x3e6bb2c8	0.23017418
38	0xbdefdfdf	-0.11712622
39	0xbdc7fd31	-0.09765089
40	0xbf0a6996	-0.5406736
41	0x3fce5aca	1.6121457
42	0x3dbdbd45	0.09264616
43	0xbfd3ece4	-1.6556668
44	0x3f9e0f6f	1.234846
45	0x3f371bf5	0.71527034
46	0x3f7bd23c	0.9836767
47	0x3dcb834e	0.09937154
48	0x3f809ffe	1.0048826
49	0x3e0e3792	0.13888386
50	0x3de1e54d	0.11030064
51	0xbebf4caa	-0.37363178
52	0xbf1d9878	-0.61560774
53	0xbf81db17	-1.0144986
54	0xbe58524f	-0.21125148
55	0x3f2da4c3	0.6782953
56	0x3f7d2cf4	0.9889672
57	0xbd53ddf9	-0.05172536
58	0xbfacb796	-1.3493526
59	0xbf035160	-0.51296043
60	0x3e3e7911	0.1860087
61	0x3da3bf4c	0.07995471
62	0x3e39ce3b	0.18145077
63	0x3d9f6b50	0.0778414
64	0x3e1ef5cd	0.15523453
65	0xbf8d8f7e	-1.1059415
66	0xbe1b0d66	-0.1514183
67	0x3f92c248	1.146554
68	0x3e8e1555	0.2775065
69	0xbdfc9ff1	-0.12335194
70	0x3e26a45a	0.16273633
71	0x3f5d14c9	0.8635984
72	0xbf692213	-0.9106762
73	0x3dde63e0	0.108588934
74	0xbeac54cb	-0.33658442
75	0xbe35def4	-0.17760831
76	0xbe39ed6a	-0.18156973
77	0xbdf4f107	-0.11960035
78	0x3dbeafa1	0.09310842
79	0x3f9e77e5	1.2380339
80	0xbe1300f7	-0.14355837
81	0xbee14aa3	-0.44002256
82	0x3ebb7786	0.36614627
83	0xbee60b53	-0.44930515
84	0x3f5a45da	0.85262835
85	0x3fae501e	1.36182
86	0x3f2721a1	0.6528569
87	0x3fc1b6ad	1.5133873
88	0x3fd54dae	1.6664331
89	0x3f381936	0.7191347
90	0x3e1958c4	0.14975268
91	0x3e4332d8	0.19062364
92	0xbeddbba0	-0.4330721
93	0x3fcfb7bc	1.6227946
94	0xbe176aa1	-0.1478677
95	0x3fa88f2d	1.3168694
96	0xbf11d18b	-0.5696036
97	0x3fe38c30	1.7777157
98	0xbe810bef	-0.25204417
99	0xc000da4c	-2.0133238
100	0x3efa2218	0.48854136
101	0xbf44b9ac	-0.7684581
102	0xbe847027	-0.25866815
103	0xbf728c5b	-0.94745415
104	0xbe6b20f9	-0.22961797
105	0xbef337ff	-0.4750366
106	0xbfeeee64	-1.8666501
107	0x3e31fbe2	0.17381242
108	0x3ec6fa2b	0.38862738
109	0x3e60ce1d	0.21953626
110	0x3dc86d6a	0.09786494
111	0x3f437c47	0.7636151
112	0xc0075992	-2.114842
113	0xbceb3b29	-0.028714733
114	0x3f432b90	0.76238346
115	0x3da29389	0.07938296
116	0x3fd5aa3c	1.6692576
117	0x3bcfa2c0	0.00633654
118	0x3f9a28ed	1.204374
119	0xbe8e2a54	-0.2776667
120	0x3f2820b4	0.656749
121	0x3e259485	0.16169937
122	0x3e243633	0.160363
123	0xc02263a8	-2.5373325
124	0x3fbe7a07	1.488099
125	0x3ded63c6	0.11591296
126	0x3f0749f1	0.528472
127	0xbf399658	-0.7249503
128	0x3fa4b7c1	1.2868577
129	0x3fd3734c	1.6519561
130	0x3fb308b2	1.3987029
131	0xbf9bed5b	-1.218181
132	0xbfb55f8a	-1.4169781
133	0xbf5000a5	-0.81250983
134	0x3f8c1fe3	1.0947231
135	0xbf985178	-1.1899862
136	0xbf48d25a	-0.7844597
137	0x3ef4c9c1	0.47810176
138	0x4004f200	2.0772705
139	0xbffdcca4	-1.9828076
140	0x3fc64640	1.5490189
141	0x3eb2e884	0.3494302
142	0xbe75a3fb	-0.23988335
143	0x3f9474ef	1.1598185
144	0xbf5bebba	-0.85906565
145	0x3e614620	0.21999407
146	0xbfd2f20a	-1.6480114
147	0x3ee22fc0	0.44177055
148	0xbffd2a4a	-1.9778531
149	0x3e7f4283	0.24927716
150	0xbd879761	-0.0662067
151	0x3de30574	0.110850245
152	0xbe125551	-0.14290358
153	0x3db6197a	0.08891578
154	0xbf12db20	-0.5736561
155	0xbf22f30c	-0.6365211
156	0x3fc59942	1.5437396
157	0xbf15e64d	-0.58554536
158	0x3dcf5975	0.101244844
159	0x3e818a6d	0.25300923
160	0x3f4f300f	0.80932707
161	0x3dd18b26	0.102316186
162	0xbf3f0e04	-0.7463076
163	0x3f7b31d1	0.9812289
164	0xbf04cf8c	-0.5187919
165	0xbf014c8c	-0.50507426
166	0xbf43f95a	-0.76552355
167	0x3d90bee7	0.07067662
168	0x3da1f186	0.07907395
169	0xbf78b28f	-0.9714746
170	0x3e6a0ab0	0.2285564
171	0xbe9fe40a	-0.31228667
172	0x3edaa631	0.4270492
173	0x3dfadbee	0.122489795
174	0x3f672b54	0.9030049
175	0xbef62962	-0.48078448
176	0x3fa74f5b	1.3071092
177	0x3f166db8	0.5876117
178	0x3fbc48e3	1.4709743
179	0x3ecb9c66	0.3976776
180	0xbbb0617e	-0.0053827157
181	0xbf558c70	-0.83417416
182	0x3f93396f	1.1501902
183	0x3f92cb25	1.1468245
184	0x40181d39	2.3767836
185	0x3dd27f19	0.10278148
186	0x3f582860	0.8443661
187	0x40025807	2.0366228
188	0xbf0baad9	-0.5455757
189	0x3f70e604	0.94100976
190	0x3e0ca0c7	0.13733207
191	0x3e36bb6d	0.17844935
192	0x3e10a88d	0.14126797
193	0x3f33489f	0.70032686
194	0x3fdd5bb1	1.7293607
195	0xbf0dcb9b	-0.553888
196	0x3f5a4d46	0.8527416
197	0xbf78c858	-0.971807
198	0x3f32161c	0.69564986
199	0x3d91167f	0.07084369
200	0x3e6daf82	0.23211482
201	0xbeecfa69	-0.46284798
202	0x3f529ddc	0.82272124
203	0xbf770eb4	-0.9650681
204	0xbe1847b3	-0.14871101
205	0xbff0a6c2	-1.880089
206	0x3ecb37a7	0.39690897
207	0xbfc0d4b9	-1.5064918
208	0x3da95914	0.082689434
209	0xbdb5b4f1	-0.088724025
210	0x3e04cb13	0.12968092
211	0xbfacf281	-1.3511506
212	0x3e5d1fa7	0.21594106
213	0xbf6ef6b0	-0.93345165
214	0x3ef930e8	0.48670125
215	0x3fbf0228	1.4922533
216	0x3e7a867d	0.24465366
217	0xbfdc7fb1	-1.7226468
218	0x3fae2a39	1.3606635
219	0xbf7ca20a	-0.9868475
220	0x3ded0fb4	0.11575261
221	0x3f562960	0.83656883
222	0x3e0402ff	0.12891768
223	0x3ec5115f	0.38489816
224	0x3fe46691	1.7843801
225	0xbe7a7cfa	-0.24461737
226	0x3fc51704	1.5397649
227	0xbf739ab3	-0.9515793
228	0x3e53ce2a	0.20684114
229	0x3e3b0bbb	0.18266194
230	0x3fb91a03	1.4461063
231	0x3f169b4f	0.5883073
232	0xc00034cf	-2.0032232
233	0xbfabe5e7	-1.3429536
234	0x3ec79a58	0.38984942
235	0x3edf741a	0.43643266
236	0x3e4d2f45	0.20037563
237	0x3fbf4288	1.4942179
238	0xbfa29b43	-1.2703632
239	0x3eb2ab11	0.34896138
240	0xbe2ec62a	-0.17067781
241	0x3f6687c3	0.90050906
242	0xbf1c9e71	-0.6117926
243	0x3e31e3c0	0.17372036
244	0x3e9f5ceb	0.31125578
245	0x3d933184	0.07187179
246	0xbf369467	-0.71320194
247	0x3f857925	1.0427595
248	0x3e670251	0.22559477
249	0x3ea750ae	0.3267874
250	0x3e2b8963	0.16751628
251	0xbe324d78	-0.17412364
252	0x4006c9db	2.1060703
253	0x3f164dfc	0.58712745
254	0x3e19b92a	0.1501204
255	0xbf0f31f2	-0.55935585
