DeepCGSR_triet/chkpt/deepcgsr.pt (torch, 683355 bytes, 2 tensors)

weight f4 [9992, 16]
00000000: 8c0f dfbe 96ec d8be 3755 febe c7a0 0a3e
00000010: 0784 87bf 165c 753e 0c57 d2be 9bc6 05bf
00000020: f882 d7be 9893 e7be fd77 1b3f 6aab 9c3e
00000030: 559e 043e 9d22 423d 86c1 e2be 03d0 9a3d
00000040: 1f3d 5fbf 842f 9f3e e1c2 9abe 597a 1a3f
00000050: d912 9fbe 8f35 943e ac63 43bf 7a18 9bbc
00000060: 609e 9bbe 2d0b 923e 1fbc 3d3f fe4f c53e
00000070: 7d9f 463d d52c 5cbe 43e8 5e3c 8c8d 473e
00000080: 88a8 b23e e31b afbe ad48 013f 7b91 d93d
00000090: e24b 2bbf 656a bebe 3a27 dfbe 23bd e6be
000000a0: 2746 d6be 8fa5 633f 9a8c 93bd f910 93bf
000000b0: f22f 86bd f713 0e3f 674a 8abf 1140 3a3e
000000c0: f000 e9bd 75d8 60be 1050 09be 6c2f d9be
000000d0: b8d7 93be d548 7f3d 62cb c1bc ecb0 17bf
000000e0: 7821 2e3f 210a b9be 2c5c bb3e f21e 56bc
000000f0: 2a15 b8bd e02d 863e 2f21 ff3d d393 a83e
00000100: cdb0 cf3e 86fb 0c3f b25e 7c3f 3677 e33e
00000110: cace bd3f 0a69 87bd 5b50 b5be 5a46 463f
00000120: f4c2 8f3f 1c6d 28bf 820b ae3d 3e26 343f
00000130: 301b d6be f7f0 1b3e b728 693f c459 38bd
00000140: 3141 26bf 53b0 52be 11b0 52bf d32c 20bf
00000150: 437a 03bf ff03 a93e 8b07 273f 76c9 8abf
00000160: 67f2 74bf 29b8 eb3e c440 273e 6436 e5be
00000170: b399 61bf 274d c73e 3e92 83bd 78fb b2be
00000180: ac0d 843d df51 94be b78f 493e 2533 febe
00000190: 4ba8 25bd 3f6d be3e 26fb e13e 4225 fbbd
000001a0: 47b1 07be bd7b 0fbf 8bd0 7b3e 8759 a2bd
000001b0: 8909 253f 9f17 d4be 4a5c 1e3e a5f9 863f
000001c0: d32a 5fbf 2ba8 623e 0ee2 f0bc 012b 50be
000001d0: fcc8 8bbe 21a5 0b3f c31a 18bf 28fc ee3e
000001e0: b3a1 b6be 694d 253f 7251 243f 1f6a 863e
000001f0: c951 ab3f 4a5c 54bf eea2 103e 7c3a ff3e
00000200: c385 83be 6c08 10be e26e b23f fbbc 403e
00000210: eb54 ecbe 683d 51be 24a0 1cbe 7346 1e3f
00000220: 4ed8 5c3e 2f6e 85bd ac95 07bd 36a8 4f3f
00000230: 611f 353f a68f 3cbf 615b cf3e 4d13 d4bd
00000240: 180d fdbe 59ab 0abf 144e 25bf 64a6 2b3e
00000250: aff6 5e3e 6214 033f b3d3 22bd bd71 9dbd
00000260: 55ef 14bf 6407 173e 2743 fd3e 60cf 05bf
00000270: de28 9f3e 6a70 adbd 40cb 81be 07f8 a3bf
00000280: ece8 88bd cb46 52bd b25f 853f 93a1 1dbf
00000290: 8c9b 2a3e 43ca 3abe f051 753e 02f3 063c
000002a0: e655 013f c866 3a3f 82a1 6cbf 1679 303e
000002b0: 84f4 90be 44e6 fcbe 6f12 6a3f 4ffc 31bd
000002c0: 732d 163f 4fd8 eb3e 65e7 aa3e ac96 5c3e
000002d0: a544 b03e a8eb 9d3d 708e 373b bc9c 433f
000002e0: 48d4 003e 80be a8be cda7 e2be 8105 94bd
000002f0: ddd0 703f e83e 21bf 8a17 253e e204 85bf
00000300: b9bb 833f bf0b 373f dc74 83be 6097 a33e
00000310: d1e1 0b3f 3ead f9be 1779 72be a257 afbe
00000320: 8c9f afbd ef4f fdbd c78e e33e be32 223e
00000330: f96d 703f 2420 75be 3603 bfbd 44b4 11be
00000340: c35e c93e 4122 b5bd d914 ee3d 7f68 89be
00000350: 9d99 83be eed0 aa3e 6d1b 053f cba1 26be
00000360: e3e4 9bbf 32e8 2f3e e10c a0be c2f8 f13e
00000370: f25c edbe fa11 b03d f669 093f 639c c53d
00000380: b4a5 88bc 5530 873e 17c2 fb3e dceb 95be
00000390: aba0 edbe 102e 583f b9a1 0d3e 9cbe 8fbe
000003a0: d37a 8dbf a520 723d b130 bc3e cbee 0bbe
000003b0: df2e fdbd ccce 023c 9fdc 52bf 0728 0e3e
000003c0: dfd5 193e 3f60 7f3d 3442 303f 9081 363f
000003d0: 3859 ef3c e123 173f fa4f 973e 741e 09bf
000003e0: 54a6 79bd 175a d23d 4174 01bc c7c1 253f
000003f0: c33c 453f afba da3e 6695 40be 199d 37be
-0.4356655 -0.42368 -0.4967439 0.13537894 -1.0587167 0.23960909 -0.41082036 -0.5225617
-0.4209211 -0.45229793 0.6072996 0.3059953 0.12951024 0.04739629 -0.44288272 0.07559206
-0.8720264 0.3109094 -0.30226806 0.6034294 -0.31069067 0.28947112 -0.7632396 -0.01893257
-0.30394268 0.2852415 0.74115175 0.38537592 0.048491944 -0.21501477 0.01360518 0.1948759
0.34894204 -0.34200963 0.5050152 0.10623451 -0.66912663 -0.37190548 -0.43584615 -0.45066175
-0.41850397 0.889245 -0.07204552 -1.1489555 -0.065521136 0.55499214 -1.0803956 0.18188502
-0.11377132 -0.21957572 -0.13409448 -0.42418993 -0.28875518 0.062325317 -0.02365655 -0.59254336
0.6801982 -0.3614054 0.3659376 -0.013068901 -0.08988412 0.26206875 0.12457501 0.3292528
0.40564576 0.55071294 0.98581994 0.44426888 1.4828732 -0.066118315 -0.3541287 0.774511
1.123137 -0.6579149 0.08498289 0.7037085 -0.41817617 0.1522864 0.9107775 -0.045007482
-0.64943224 -0.20575075 -0.82299906 -0.62568396 -0.5135843 0.3301086 0.65245885 -1.0842731
-0.95682377 0.4603894 0.163333 -0.4476806 -0.8812515 0.3892605 -0.06424378 -0.3495748
0.0644792 -0.28968713 0.19683729 -0.49648395 -0.0404437 0.37192723 0.44136924 -0.12262966
-0.1325122 -0.56048185 0.24591272 -0.07927232 0.64467674 -0.4142427 0.15464893 1.0544935
-0.8717472 0.22134463 -0.029404666 -0.20328905 -0.27301776 0.5454884 -0.59415835 0.46676755
-0.35670242 0.64571244 0.64186776 0.2625284 1.3384334 -0.8295332 0.14124653 0.49849308
-0.2568799 -0.14065713 1.3940089 0.1882209 -0.46158537 -0.20433581 -0.15295464 0.61826247
0.21566889 -0.065151565 -0.033101723 0.81116045 0.70751005 -0.7365669 0.40499404 -0.10355244
-0.49424052 -0.54167706 -0.6457226 0.16762692 0.2177379 0.51202977 -0.039752673 -0.076877095
-0.5817769 0.14748913 0.49465296 -0.52269554 0.31085867 -0.08468707 -0.2535038 -1.2810067
-0.06685051 -0.051337045 1.0419829 -0.6157467 0.16660899 -0.18241219 0.23957038 0.0082366485
0.50521696 0.7281308 -0.9243394 0.1723369 -0.2831155 -0.4939443 0.9143438 -0.04345351
0.586631 0.46063468 0.33379665 0.21541852 0.34427372 0.077109635 0.0028008483 0.7641103
0.12580979 -0.3295784 -0.44268647 -0.07227612 0.940687 -0.6298661 0.1612226 -1.0392115
1.0291663 0.715023 -0.25675094 0.31951427 0.54641443 -0.48764986 -0.23679005 -0.34246546
-0.08575353 -0.12368762 0.44444868 0.15839669 0.93917805 -0.23938042 -0.09326784 -0.14228922
0.3933011 -0.08844424 0.1162507 -0.26837537 -0.25703135 0.33362526 0.51994973 -0.16272657
-1.2179226 0.17178419 -0.31259826 0.472601 -0.46359974 0.08597179 0.5367731 0.09648969
-0.016680576 0.26404062 0.49171516 -0.2928151 -0.46411642 0.84445286 0.13831224 -0.2807511
-1.1053108 0.059113164 0.367559 -0.13665311 -0.123624556 0.0079838745 -0.8236789 0.13882457
0.15022992 0.062347647 0.6885102 0.71291447 0.029217348 0.5903912 0.29553205 -0.5356209
-0.06094964 0.102710895 -0.007901252 0.64748806 0.7704584 0.42720553 -0.18806991 -0.17931022

weight f4 [9992, 1]
00000000: b011 ba3e b368 0dbf db60 9e3e 6fcb 803e
00000010: 89ab 70bf 0aca ab3e 1e04 1c3f 9792 e73e
00000020: 59ae 133d c51e 8a3f c815 5d3c bfde 3fbf
00000030: 4ceb 08bf bf1f c3be 9932 07bf 2e70 c23d
00000040: 3aa7 513f 01df 463f c032 a23e 14d6 c03e
00000050: 72d2 14bf 7e7d 2ebe 621a 80bf 8251 1e3f
00000060: 1f16 debc 2bf4 a5bf 00e5 bbbe 4e8c b83e
00000070: aa33 51bf 9d75 84ba 1131 ebbe 0a85 8d3e
00000080: 6c2b e8be a50b 243f 8092 90be a80b c73f
00000090: 3d33 33bd 865f 9bbd 66f0 12bc b6fc c5be
000000a0: 9292 703e a070 50bc 5692 9e3f b477 b5bd
000000b0: d484 49bf 1a8c ad3e 62db 19be 5876 e9bf
000000c0: 4c0e 9d3e a44f 55bf 8fee ca3d a858 2dbc
000000d0: 436e f03f ce60 1e3f 8fe4 04be d348 2ebe
000000e0: 5d9e 5ebe 8ca2 ab3f dabe 3cbf ebd8 843c
000000f0: 3c13 93be a065 81bd 0f5e 983d cf4b a23f
00000100: ca7f 673f e835 ae3e a097 153e 4a7a 013f
00000110: c9c5 133f 3dd6 f63d 6954 e03e 19e7 f03d
00000120: 0b32 e1be 48ee d63e f800 c13f 6c23 a13f
00000130: 0cf1 47bf a543 043e 8af4 1fbe e8af 063f
00000140: 8e45 df3d e7df 5b3f a2d3 0b3f cf10 50be
00000150: a170 3ebf 110f 923f 0898 79bf 6401 c33d
00000160: dda0 ec3e 6617 9cbd 1eac cf3f dced 5cbf
00000170: 9559 08bf 8ae1 b53e 8e51 42bf 4de0 45bf
00000180: d13f ac3f eae4 6a3d e1fc 31bf 4745 edbf
00000190: 9a5f 0940 d4eb 97bf cf2d 4f3f 4511 b1bd
000001a0: 8149 363f b729 dc3e 0238 c9be 293d 2abe
000001b0: 0f4c b23f 0f72 edbd 61e1 debe 9fad f83e
000001c0: 9908 6bbd e170 203f 1d03 f83e 7179 2f3f
000001d0: a230 dcbe 4759 98bd ed37 e2bd d49a f7be
000001e0: 06d2 ae3f cdea 7abe 3c1c 02bf 8002 713f
000001f0: c325 253f 302e 603f 96c6 8cbe f558 f13e
00000200: 3b06 5d3f b6bd 303f 54d4 4bbf 2523 e63e
00000210: b28d f63e 422e 43bf 69c7 1d3e 7238 8fbe
00000220: c479 1b3e 682a c13f f17f 7c3e d940 a2be
00000230: dffd cfbe cd94 f8be e94c bbbd 0233 f2be
00000240: b546 81bf 353b 713e 4468 03bf 2feb e23e
00000250: 3914 6d3f f00c 5f3f 5c20 013f 7abc 733f
00000260: 2247 313f f042 4ebf bf19 6bbe 64c6 c33f
00000270: 67b9 25be 0679 9e3f fc0d ef3e 2465 10bf
00000280: 5af6 ae3f c12a 2c3f e749 09c0 ef42 753f
00000290: 045f b63e b554 8a3e 90ef b3be d83e dc3d
000002a0: a1fc 27bd 55e2 133f 2c90 813e 375f e43d
000002b0: a593 a0be 5745 683d 56d2 413f 2717 b83e
000002c0: 5758 dd3e 048b 263e 111a b9bf 7483 efbe
000002d0: 0bb4 653f 15d5 223e a03e f03e 8348 973e
000002e0: 9da2 05be cf15 f73f 3063 e13f eb6f 28bf
000002f0: 9b06 e63d 7dd9 12bf a5c0 42be bb3f 6fbf
00000300: 7f42 f23d 8212 933f 330e 953f 93bd 13bd
00000310: 903a 863d 3457 e13e 2734 c9be 8126 823d
00000320: f711 fd3e 3dd8 03bf 80da dfbf 21d9 dc3d
00000330: 0f4f f73c 93f4 76be 72b0 543f 09ee 3ebe
00000340: 3f90 b3be 7b99 753f 6f85 173f 1d04 fe3d
00000350: 5c26 843f 55cb e9be bbf2 a03f e9d0 6cbe
00000360: 73cb 82bd 8108 6cbe da81 b9be 45d6 823f
00000370: d06d 0abe 22ca 593f 1ae0 cdbd 3cf2 83bf
00000380: 28e0 debe 2f7f edbe 0068 e6bd 8b1b 8a3f
00000390: d516 c2be 329c 5e3f c817 943f 690b 5abf
000003a0: ef4e d43f d577 913f c9f9 2c3f 3b39 3cbe
000003b0: 639c cfbe 285a 5cbe d46f 023e a196 83bf
000003c0: 6378 a33e a38c 6cbf cf8c b8be df7f 023f
000003d0: bf10 05c0 fe7f cb3e dcd8 c3be 70c2 dd3e
000003e0: 5c0d 8f3e a48d cfbd 955f 86bd 93cd 9c3f
000003f0: acf8 d53e 5043 f3bc 0132 b63f 0194 8a3e
0.3634162 -0.55237883 0.3093327 0.25155208 -0.9401174 0.3355258 0.6094378 0.45229027
0.036054943 1.079064 0.013493963 -0.7494926 -0.53484035 -0.38110158 -0.5281158 0.09494053
0.8189579 0.77684027 0.31679344 0.3766333 -0.58133614 -0.17040059 -1.0008051 0.6184312
-0.027110158 -1.2965139 -0.3669815 0.36044544 -0.8171946 -0.0010105852 -0.45935872 0.27640563
-0.45345628 0.6408027 -0.2823677 1.5550432 -0.043750037 -0.07586579 -0.008968448 -0.38669366
0.23493412 -0.012722164 1.2388408 -0.08860722 -0.78718305 0.33895952 -0.15025094 -1.8239241
0.3067497 -0.83324647 0.09908783 -0.010580219 1.8783649 0.6186646 -0.12977813 -0.17019968
-0.21740098 1.340898 -0.73728716 0.016216716 -0.28725612 -0.063182116 0.07439815 1.2679385
0.90429366 0.34025502 0.14608622 0.50577223 0.5772367 0.120525815 0.438144 0.117628284
-0.43983492 0.4197867 1.5078421 1.2588935 -0.78102183 0.1291643 -0.15620628 0.5261216
0.109019384 0.8588852 0.546198 -0.20318912 -0.7439061 1.1410848 -0.97497606 0.095217496
0.4621648 -0.076216504 1.6224401 -0.86300445 -0.5326169 0.35523635 -0.7590569 -0.7729538
1.3456975 0.057347216 -0.6952649 -1.8536767 2.14646 -1.1868844 0.80929273 -0.08645872
0.7120591 0.43000576 -0.39300543 -0.16624893 1.3929461 -0.115940206 -0.43531325 0.48569962
-0.057381246 0.6267224 0.48439875 0.6854468 -0.43005854 -0.07438903 -0.11045823 -0.48360312
1.3657844 -0.24503632 -0.5082433 0.9414444 0.64510745 0.87570477 -0.2749526 0.4713818
0.8633763 0.69039476 -0.7962086 0.44948688 0.4815498 -0.7624246 0.154081 -0.27972752
0.15183169 1.5091066 0.24658181 -0.316901 -0.40623376 -0.48551026 -0.09145529 -0.4730454
-1.0099703 0.23557742 -0.5133097 0.44320056 0.9260898 0.87129116 0.5044 0.9520947
0.69249165 -0.8057089 -0.2295904 1.5294919 -0.16184007 1.2380683 0.46690357 -0.5640433
1.366893 0.6725274 -2.1451356 0.9580526 0.35619366 0.2701775 -0.3514371 0.10754174
-0.04101241 0.5776723 0.25305307 0.11150973 -0.31362644 0.056706753 0.7571157 0.35955164
0.4323146 0.16263968 -1.446108 -0.46779978 0.8972785 0.15901597 0.4692278 0.2954751
-0.13050313 1.930353 1.7608395 -0.65795773 0.11231729 -0.5736311 -0.190188 -0.9345662
0.118290894 1.1490023 1.1644958 -0.036069464 0.06554139 0.44011843 -0.39297602 0.06355
0.4942777 -0.5150183 -1.7488556 0.107836016 0.030189065 -0.24116735 0.83081734 -0.1864549
-0.3507099 0.9593732 0.5918798 0.12403128 1.0324206 -0.45662943 1.2574075 -0.23126568
-0.06386461 -0.23050119 -0.3623188 1.022164 -0.13518453 0.85074055 -0.100525096 -1.0308299
-0.43530393 -0.46386096 -0.11250305 1.0789655 -0.37908044 0.86957085 1.1569757 -0.8517366
1.6586589 1.1364695 0.6756864 -0.18381207 -0.40549 -0.21518767 0.12737972 -1.0280343
0.31927785 -0.92402095 -0.36044928 0.50976366 -2.079147 0.39746088 -0.38251388 0.43312407
0.2793988 -0.10134438 -0.065611996 1.2250236 0.41791284 -0.029695183 1.423401 0.27066043
