DeepCGSR_triet/chkpt/triet_deepcgsr.pt (torch, 7947 bytes, 4 tensors)

user_bias f4 [991]
000000 99 68 ec 3e 9e 15 ec 3e cc 27 56 3f 6c 02 e3 3e
       0.46173552 0.46110243 0.83654475 0.44337785
000010 a9 15 ec 3e 9b 2e 23 3f 22 87 fe 3e b8 67 f7 3e
       0.46110275 0.6374299 0.49712473 0.4832132
000020 92 2b 02 3f 12 37 80 3f fa 43 fd 3e f3 21 1b 3f
       0.50847733 1.0016806 0.49465925 0.6059868
000030 24 ce b7 3e 73 6d e4 3e da b5 ed 3e 6c d2 03 3f
       0.3589946 0.44614753 0.46427804 0.51492953
000040 db ee ef 3e 2c f1 ee 3e 46 62 e2 3e 60 78 1f 3f
       0.4686192 0.46668375 0.44215602 0.6229305
000050 e0 dc db 3e ea 70 a1 be c1 8a df 3e 62 3b 01 3f
       0.42941952 -0.3153146 0.43660548 0.50481236
000060 af dc da 3e 4b ca d3 3e a3 fc de 3e 28 9e fa 3e
       0.42746493 0.41365275 0.43552122 0.4894879
000070 f2 68 e5 3e cc 58 97 3e d4 91 c3 3e 40 89 ab 3e
       0.4480663 0.29559934 0.38197196 0.3350315
000080 f8 32 f8 3e da 98 f5 3e 4e b4 1d 3f 5a 77 df 3e
       0.48476386 0.4796818 0.6160325 0.43645746
000090 bc fb 2f 3f 9c 13 d1 3e bf 43 e5 3e 4b aa fa 3e
       0.6874349 0.40835273 0.4477825 0.48958048
0000a0 c9 1f 8a 3d e4 78 d0 3e e1 01 04 3f bf 73 ed 3e
       0.06744344 0.40717232 0.51565367 0.4637737
0000b0 aa 35 3d 3f 6e 95 f9 3e 56 c8 e7 3e 34 f6 dd 3e
       0.7391001 0.48746818 0.45270032 0.433519
0000c0 ba a8 fe 3e ed b8 e1 3e 51 0d e8 3e 5b 69 01 3f
       0.49738103 0.440864 0.4532266 0.50551385
0000d0 50 ff 12 c0 5c 2e f2 3e f8 51 fd 3e b8 d4 e8 3e
       -2.296833 0.47300994 0.494766 0.45474792
0000e0 f9 29 1d 3f 2d af 27 3f be 1f 02 3f 07 4f f8 3e
       0.6139217 0.6550167 0.50829685 0.48497793
0000f0 e4 41 fa 3e 3c a3 ef 3e d7 4e d7 3e 6f cc 2f 3e
       0.48878396 0.46804225 0.42052338 0.17167829
000100 36 88 f7 3e 57 f3 bf 3e 43 55 c1 3e 5e d7 e4 3e
       0.48346108 0.3749034 0.37760362 0.44695562
000110 e3 16 dc 3e fc 1c e7 3e c6 f7 da 3e 27 d3 24 3f
       0.4298621 0.451393 0.4276716 0.6438469
000120 05 49 89 bf 85 14 fd 3e 5d ef ec 3e 43 52 e1 3e
       -1.0725409 0.49429718 0.4627637 0.44008073
000130 ca 88 f5 3e 6a 57 dc bf 19 44 28 3f 6d 7a ed 3e
       0.47955924 -1.7214177 0.6572891 0.46382466
000140 a5 95 ff 3e 1c 39 13 3f 06 59 01 3f 98 cf e4 3e
       0.49918857 0.57509017 0.50526464 0.4468963
000150 16 4a 9c be 3a 56 f4 3e 40 e3 74 bf 64 39 c1 3e
       -0.30525273 0.47722036 -0.95659256 0.37739098
000160 68 7b 02 3f 51 09 04 3f 85 71 ef 3e 1a 96 d4 3e
       0.50969553 0.51576716 0.46766296 0.41520768
000170 0b c5 df 3e ca 45 01 3f 4d 79 fd 3e e0 65 fe 3e
       0.4370502 0.50497115 0.49506608 0.496871
000180 d3 e2 db bf 80 42 e8 3e f1 95 96 be 9a c7 1e 3f
       -1.7178596 0.45363235 -0.2941127 0.6202332
000190 4d 4d c5 3e b5 78 02 3f 23 31 ca 3e 92 62 e0 3e
       0.38535538 0.50965434 0.39490613 0.43825203
0001a0 24 04 ea bd ec 65 35 3f b4 24 e3 3e db 6a ed 3e
       -0.11426571 0.70858645 0.4436394 0.46370587
0001b0 cb f3 f6 3e 7d 1b bd 3e d8 e9 cc 3e 19 f0 8f 3f
       0.48232874 0.36935034 0.4002216 1.1245147
0001c0 b5 ec e8 3e 87 4f fc 3e 0f 9d e1 3e 5a 04 1e 3f
       0.45493093 0.49279425 0.4406514 0.6172539
0001d0 17 48 22 3f 97 73 dc 3e b1 2b ef 3e 1b cb e5 3e
       0.6339125 0.43056938 0.4671302 0.4488152
0001e0 65 c1 fb 3e 1f be f6 3e 01 5a ea 3e ac 99 04 3f
       0.49170986 0.48191926 0.45771793 0.51796985
0001f0 1e d4 f5 3e 5f f3 f2 3e 07 54 d8 bf 0d eb f3 3e
       0.48013395 0.47451302 -1.6900643 0.47640267
000200 71 b3 f0 3e 99 3d e1 3e bc 48 dd 3e c6 ec e9 3e
       0.47011903 0.43992308 0.43219554 0.45688456
000210 e1 7b e4 3e 5b 5c de 3e 14 18 1c 3f 10 6c ac 3e
       0.44625762 0.43429837 0.6097424 0.33676195
000220 cc 10 0a 3f 44 19 f2 3e f9 99 fa 3e f4 84 ed 3e
       0.5393188 0.472849 0.48945597 0.46390498
000230 c2 88 e4 3e 8a 8a fa 3e 6e af ff 3e b1 17 03 3f
       0.44635588 0.48933822 0.4993853 0.51208025
000240 31 ef f2 3e 90 30 1b 3f 03 f8 e7 3e 7b e5 c3 3e
       0.47448114 0.60620975 0.45306405 0.38261017
000250 51 5a 72 be ac b6 cc 3e 4d fe 27 3e 9f 37 ea 3e
       -0.23667265 0.39983118 0.16405602 0.4574556
000260 0a 4f de 3e 7a 00 e8 3e 42 5e 26 3f e5 38 c7 3e
       0.43419677 0.45312864 0.64987576 0.38910595
000270 a9 6e 2e 3f c0 39 f3 3e a9 66 e2 3e 16 20 e2 3e
       0.68137604 0.47504997 0.44218948 0.44165105
000280 e6 23 d7 3e f2 ad eb 3e 7c ff ed 3e 4d 7d c8 3e
       0.42019576 0.46031147 0.46483982 0.39158097
000290 37 ac e8 3e 31 58 ec 3e 1c bb d6 3e d1 aa ce 3e
       0.4544389 0.46161035 0.41939628 0.40364698
0002a0 1b a7 de 3e 44 d4 d6 3e 92 29 de 3e 1d e7 de 3e
       0.43486866 0.4195882 0.4339109 0.435357
0002b0 9e 7a df 3e 2d 0d 16 3f c8 0d bd 3e 15 24 dc 3e
       0.43648237 0.58613855 0.36924577 0.42996278
0002c0 fe 51 96 3f 90 f0 f1 3e 10 d5 f9 3e d1 a2 e6 3e
       1.1743772 0.47253847 0.48795366 0.45046094
0002d0 d8 0c dc 3e 2b 8e 03 bf 39 db e7 3e 2e 67 c9 3e
       0.4297855 -0.51388806 0.4528444 0.39336532
0002e0 d0 ca 18 3f 50 46 e8 3e 2c aa da 3e 75 ba f2 3e
       0.5968447 0.45366144 0.42707956 0.4740788
0002f0 e4 69 55 3f 26 37 1f 3f fa e1 b1 3e 31 ef fb 3e
       0.833647 0.62193525 0.3474272 0.49205926
000300 8c e1 1b 3f 21 85 dc 3e 60 5a ec 3e 5e 2a 1e 3f
       0.6089103 0.4307032 0.461627 0.617834
000310 9a 5b c6 3e b7 1a f2 3e 7b 0b 00 3f 2e 1f da 3e
       0.3874176 0.47286007 0.5001752 0.42601913
000320 24 8b 23 3f b7 b4 df 3e e7 de d7 3e 81 11 15 3f
       0.63884187 0.43692562 0.42162248 0.58229834
000330 82 91 f5 3e b9 89 e4 3e 25 43 fa 3e e5 2a 01 3f
       0.47962576 0.44636324 0.48879352 0.50456077
000340 4f ea eb 3e 59 8f e8 3e 3f 92 fb 3e 8d 20 f4 3e
       0.460772 0.45421866 0.49135014 0.47681084
000350 da 3b 42 3f 74 bc d5 3e dc 76 3a be c1 1f 2f 3f
       0.75872576 0.4174534 -0.18209404 0.6840783
000360 66 a7 f2 3e 6e c0 ed 3e 04 7b ff 3e d0 08 cb 3e
       0.4739334 0.46435875 0.4989854 0.3965516
000370 3c bb ec 3e ca f8 1a 3f 97 87 12 3f 8c af eb bf
       0.46236598 0.6053587 0.57238144 -1.8412948
000380 21 96 ec 3e 0b a3 f8 3e 22 01 ed 3e c0 a0 d8 3e
       0.4620829 0.48561892 0.46289927 0.42310143
000390 8a 59 d8 3e 20 0c d2 3e d7 01 c3 bf aa ca ee 3e
       0.42255813 0.41024876 -1.5234936 0.46638995
0003a0 31 4c b8 3e d3 b5 d5 3e ba 7c f6 3e 56 38 1e bf
       0.3599563 0.41740283 0.48142034 -0.6180471
0003b0 6f 87 3d 3f 1f d4 fb 3e 44 be ec 3e 58 2c 01 3f
       0.7403478 0.49185273 0.4623891 0.5045829
0003c0 02 97 d6 3e 4c 37 da 3e 84 2c 9d be 4c 35 20 3f
       0.41912085 0.42620313 -0.30698025 0.62581325
0003d0 1b 1d d5 3e b2 ea e6 3e 30 ee dd 3e 47 4a d7 3e
       0.41623768 0.45100933 0.43345785 0.42048857
0003e0 a8 8a e1 bf fd 05 f2 3e c6 2a e9 3e 47 87 34 3f
       -1.762044 0.47270194 0.45540446 0.70518917
0003f0 4c c2 f7 3e 00 67 cd 3e 83 81 e5 3e 5f d5 e9 3e
       0.48390424 0.40117645 0.44825372 0.45670602

item_bias f4 [85]
000000 33 8b 5e 3f 45 a2 f8 3f 51 53 77 3f fd b9 27 3f
       0.8693115 1.9424521 0.96611506 0.6551817
000010 73 32 5d 3f 8b 69 01 40 2e 35 02 40 ab 2c af 3f
       0.86405104 2.0220668 2.0344958 1.3685507
000020 c8 dc 3c 3f cd 99 9c 3f 01 9c fb 3d 49 26 09 3f
       0.73774385 1.2234436 0.12285615 0.53574044
000030 ee 22 9a 3e 8e 1b fd 3f 81 22 0c 3f ab 27 4f 3f
       0.30104774 1.9774034 0.5474015 0.80919904
000040 3c 29 85 3f 74 9f bc bf e1 4c 70 3f 78 cd 2f 3f
       1.0403209 -1.4736161 0.9386731 0.68672895
000050 a8 16 12 3f 0b a5 24 3f 89 b3 a7 bd ac db 89 3f
       0.5706582 0.64314336 -0.081885405 1.0770164
000060 d5 ce 2d 3e 00 00 00 00 8d 62 17 3f 00 00 00 00
       0.16973431 0.0 0.5913475 0.0
000070 28 5c 06 3e e3 ab fc 3f 7a 5d bd 3f f4 9d 67 3f
       0.13121092 1.9739956 1.4794152 0.9047539
000080 11 dd 5f 3f b5 60 79 3f 61 dd a4 3e e7 2d 00 3f
       0.87446696 0.9741319 0.3220015 0.5007004
000090 ab 87 60 3f ca 23 b4 3f d7 63 89 3f e7 fc 8f 3f
       0.8770701 1.4073422 1.0733594 1.1249055
0000a0 57 7d f8 3f 5c 78 6c 3f 70 0c 27 3f f5 4d 50 3f
       1.9413251 0.92371154 0.65253353 0.81368953
0000b0 8a b7 95 3f 62 b7 96 3f 4e ac 9a 3f e8 4a 6c 3f
       1.1696637 1.1774714 1.2083833 0.923018
0000c0 3e 1b 86 3f 8e 07 8b be d8 c3 ff 3e 00 00 00 00
       1.0477064 -0.271542 0.49954104 0.0
0000d0 42 fa a7 3f 00 00 00 00 3d 7e 8f 3f 80 61 7c 3f
       1.3123248 0.0 1.12104 0.98586273
0000e0 d6 3b a8 3f 98 81 7e 3f 4d 37 95 3e e2 ad e5 3e
       1.314326 0.99416494 0.29143754 0.44859225
0000f0 f1 f5 8e 3f 5e 3a d3 bd 2e c1 a3 3f 3c a7 bf 3f
       1.1168805 -0.10313867 1.2793329 1.4972911
000100 10 b7 9c 3f e1 10 82 3f f2 37 1b 3f b0 3d ad 3f
       1.2243366 1.0161401 0.6063224 1.353445
000110 f6 e8 84 3f 92 43 25 3f 28 e5 c1 3f 25 bf ce 3f
       1.0383594 0.6455623 1.5148058 1.6152083
000120 69 0b 22 3f 6d f6 a1 3f 3a 26 a3 3f d9 07 db 3f
       0.6329866 1.2653328 1.2746041 1.711177
000130 5a 9c 92 3f 01 67 9b 3f 06 2c 91 3f cd 7b 8e 3f
       1.1453965 1.2140809 1.134156 1.1131531
000140 8e 8e 96 3f 7c 5f a6 3f 04 67 67 3f af 3e b3 3f
       1.1762254 1.299789 0.90391564 1.4003505
000150 d8 4c bc 3f
       1.4710951

weight f4 [11, 11]
000000 8c 85 92 be cb 11 28 be fc 45 d0 3d 40 0a 8c 3e
       -0.28617513 -0.16413037 0.101695985 0.2735157
000010 16 87 5b 3e 54 4e 90 be e3 6b 01 be ea 73 49 be
       0.2143825 -0.2818476 -0.12638812 -0.19673124
000020 0a a1 cf 3d 7c bb b5 bd be 42 8d bc d9 6e 7e 3e
       0.10138138 -0.088736504 -0.01724374 0.24846973
000030 06 61 96 3d 69 4d 8d be 4e e6 de 3d a1 2b 24 be
       0.073427245 -0.27598122 0.10883771 -0.16032268
000040 5c ae 90 3e 73 22 44 be 38 13 5e be 12 b5 5d 3e
       0.28258026 -0.19153766 -0.21687019 0.21651104
000050 7f c4 fa bd 13 11 89 be 69 48 0b be 14 c4 8b be
       -0.1224451 -0.2677084 -0.13601841 -0.27298033
000060 4a 1c 1b bd 12 28 95 be b3 f6 63 be 51 05 e6 3c
       -0.037868775 -0.29132134 -0.22262077 0.028078707
000070 49 2c 78 be b4 66 5b 3e 7d 76 96 be 77 7d 50 3d
       -0.24235643 0.21425897 -0.29387274 0.050900903
000080 b2 c7 99 3e 5d 98 72 be ed b6 36 3d 3c a7 82 be
       0.30035168 -0.23690934 0.044608045 -0.25518215
000090 50 bb 96 3e 80 8d d9 bd 09 77 96 3e dc 9d 8d 3e
       0.29439783 -0.10622692 0.29387692 0.276595
0000a0 63 53 65 3d cb 04 af bd d0 88 95 3e a1 6b 91 3e
       0.055987727 -0.08545836 0.29205942 0.28402427
0000b0 6f 6a 18 bd 20 02 86 be dc 51 05 3e 24 3b 64 be
       -0.037210878 -0.26173496 0.13019508 -0.22288185
0000c0 41 d6 19 be d2 36 d2 3d 68 f1 4d bd 27 1b ab bd
       -0.15023138 0.102643624 -0.05027905 -0.08354788
0000d0 86 1f 89 3e 32 e0 45 3e e4 99 c1 bd 63 02 44 be
       0.26781863 0.19323805 -0.094531804 -0.19141535
0000e0 c2 61 89 be 20 b3 30 3e 26 7a 04 bc fe 6b 67 be
       -0.26832396 0.17255831 -0.008085763 -0.2259979
0000f0 65 6d 91 3d dd ad b7 3d c2 3a 5b be bb 02 47 3e
       0.071009435 0.08968709 -0.21409133 0.19434635
000100 58 9f 70 be 86 5d 2f 3e 81 3f e3 bd 27 e4 e6 bd
       -0.23498285 0.1712552 -0.11096097 -0.11273985
000110 59 99 8b 3e be 78 72 3e 3b 56 a1 3b 36 db 7a be
       0.27265432 0.23678872 0.0049236096 -0.24497685
000120 55 4f c7 bd 35 65 e2 bd ce 11 92 be c1 e8 1b be
       -0.09731928 -0.1105446 -0.2852921 -0.15225507
000130 be 61 8c 3a c2 49 27 be f6 f2 8a 3e bc 20 6e bd
       0.0010710282 -0.1633673 0.2713849 -0.058136687
000140 df bb 31 3d ce 04 85 bd 6f d5 94 be 20 19 1f 3e
       0.04339206 -0.06495057 -0.29069087 0.15536928
000150 f6 cb 87 3e 66 ad a8 bd 0b eb 32 bc 0d b2 48 be
       0.26522797 -0.08236198 -0.010920296 -0.19599171
000160 79 2d 99 3e 71 23 54 be 29 34 9a be b5 39 37 be
       0.29917505 -0.20716645 -0.3011792 -0.17893107
000170 36 32 31 be 3c 5c 87 be f7 f8 40 be 15 cb 76 3e
       -0.1730431 -0.26437557 -0.18844973 0.24100907
000180 33 97 3f 3e 7d 31 15 3e 8f 93 08 3d f3 f7 3b 3e
       0.18710022 0.1456966 0.033343848 0.18356304
000190 48 89 51 be c1 45 97 3e fd ff 88 3d ac 4f 1c be
       -0.20462525 0.29545406 0.06689451 -0.15264767
0001a0 62 d3 b8 bd a0 03 fc bd 41 e8 03 be 69 30 82 3e
       -0.09024693 -0.12305379 -0.12881567 0.2542756
0001b0 b2 4e 49 3e f1 b6 6d bd 9e 2a 80 3c cf 15 12 bc
       0.19658926 -0.058035795 0.015645321 -0.008916332
0001c0 f5 38 13 3e 6f b9 ca bd da b8 20 3e 58 72 50 bd
       0.14377196 -0.0989865 0.15695515 -0.050890297
0001d0 d4 f0 67 be 6d dd e6 bc ec 8f 77 be b0 f9 76 3e
       -0.22650462 -0.028181756 -0.24175996 0.24118686
0001e0 2d 87 93 3e
       0.28814068

bias f4 [11]
000000 c5 f0 a8 bd 83 59 98 3d ef 19 90 bd cd 78 05 be
       -0.08249048 0.07438948 -0.070361964 -0.13034363
000010 5e f1 86 3e de 2b be 3d 4a 0b dc bd 4f f4 83 be
       0.26356024 0.09285711 -0.10744341 -0.2577233
000020 38 fa 2c bc 4d 97 f7 3d a6 bb 62 be
       -0.010557704 0.12089405 -0.22141895
