DeepCGSR_triet/chkpt/triet_deepcgsr.pt (torch, 8267 bytes, 4 tensors)

user_bias f4 [991]
000000 34 8e ad 3e b5 ef ec 3e f1 86 e5 3e 3a 91 be 3e
       0.33897555 0.46276632 0.44829515 0.37220174
000010 4b 45 eb 3e b2 6b 13 3f b6 98 e6 3e d0 79 03 3f
       0.45951304 0.57586205 0.45038384 0.51357746
000020 cb 6d d1 3e 0d b9 85 3f 9d 38 1e 3f c9 80 10 3f
       0.40904078 1.0447098 0.61805135 0.5644651
000030 9c ab f6 3e 28 d5 f3 3e b6 a5 e7 3e c3 0c bf 3e
       0.48177803 0.47623563 0.45243615 0.37314424
000040 75 ab ea 3e 0e 91 d7 3e 11 d0 fc 3e d1 0e 1d 3f
       0.45833936 0.42102855 0.49377492 0.61350733
000050 39 a1 ef 3e 11 6e 3e be df be c6 3e 4f 7c ea 3e
       0.4680269 -0.18596675 0.38817498 0.45797965
000060 19 22 d7 3e 2b 2d fc 3e 3f 14 ef 3e f3 56 dd 3e
       0.42018202 0.4925321 0.46695134 0.432304
000070 5e 79 c0 3e 9a 72 d7 3e cf 99 d2 3e 27 9c e3 3e
       0.37592596 0.42079622 0.41132972 0.44455072
000080 93 1b df 3e ba 4d c8 3e 4d e9 19 3f 9b 09 e7 3e
       0.43575725 0.391218 0.60121614 0.45124516
000090 b4 1f 3a 3f 20 b1 de 3e c5 4b e7 3e 6c 55 fc 3e
       0.72704625 0.4349451 0.45174995 0.49283922
0000a0 60 d9 14 3e 30 33 fb 3e 52 c7 eb 3e 70 08 19 3f
       0.14536047 0.4906249 0.46050507 0.597785
0000b0 3c 57 74 3f b9 73 f7 3e bb 88 f9 3e 3e 2e c6 3e
       0.9544561 0.48330477 0.4873713 0.38707155
0000c0 2a 77 04 3f 1e e0 d9 3e 22 3b dd 3e 99 29 bc 3e
       0.5174433 0.425538 0.43209177 0.36750486
0000d0 34 78 08 c0 2b ff d4 3e 23 80 f3 3e 39 3f 02 3f
       -2.1323366 0.41600928 0.47558698 0.5087772
0000e0 61 82 e8 3e dc a7 1e 3f 0e 2f 00 3f af 64 fa 3e
       0.4541197 0.61974883 0.500718 0.4890494
0000f0 ef 94 f3 3e 3d 33 a7 3e 39 b1 c8 3e 83 67 97 3e
       0.47574565 0.3265628 0.3919771 0.2957116
000100 3d f2 e8 3e f3 cf ef 3e 2f ca aa 3e 19 74 ea 3e
       0.45497313 0.4683834 0.3335738 0.457917
000110 76 01 00 3f 2e 73 cd 3e 3b 28 e3 3e b7 f5 1d 3f
       0.5000223 0.40126938 0.4436663 0.61703056
000120 af 17 88 bf dd 6f e9 3e 1a f0 19 3f 0f 3f 91 3e
       -1.0632228 0.45593157 0.6013199 0.28368422
000130 6d fc a9 3e 0b 85 d0 bf 7d 8c 72 3f b1 8e d7 3e
       0.33200398 -1.6290601 0.9474562 0.42101052
000140 13 73 eb 3e 33 ba 0f 3f e3 f1 05 3f c6 7b f6 3e
       0.45986232 0.5614349 0.52322215 0.48141307
000150 ff bf 44 be 18 af f0 3e e5 fa 57 bf ed 0e c8 3e
       -0.19213866 0.47008586 -0.8436721 0.39073887
000160 c3 a1 eb 3e a5 b0 fc 3e 4c 46 e6 3e 25 f8 00 3f
       0.46021852 0.4935352 0.44975507 0.5037864
000170 44 5f d7 3e f7 c1 e5 3e 39 2e e8 3e 72 25 ff 3e
       0.4206487 0.44874546 0.45347765 0.49833256
000180 da 10 d7 bf 26 27 f6 3e f6 a5 9c be 06 77 0f 3f
       -1.6802018 0.48076743 -0.30595368 0.5604099
000190 98 03 d4 3e f9 42 01 3f ea fa 68 3e e5 c6 ef 3e
       0.41408992 0.5049282 0.22751966 0.46831432
0001a0 4f b3 79 be 3e 9d 44 3f 66 b4 05 3f a2 65 cf 3e
       -0.24384807 0.7680243 0.5222839 0.40507227
0001b0 24 1f e7 3e 8b 62 d2 3e 41 bb f5 3e a9 59 88 3f
       0.45140946 0.41090807 0.47994426 1.0652362
0001c0 29 8d fc 3e 43 2a 24 3f 9f 22 f5 3e 3f 22 25 3f
       0.49326447 0.64126986 0.47877976 0.6450538
0001d0 48 05 1b 3f f6 72 bb 3e 53 08 f3 3e d3 c6 fb 3e
       0.60554934 0.36611146 0.47467288 0.49175128
0001e0 f6 e4 c3 3e 08 6e f7 3e d4 17 cb 3e ab 6a d8 3e
       0.3826062 0.48326135 0.39666617 0.4226888
0001f0 e4 6e d9 3e 26 e0 02 3f 57 0d 08 c0 77 29 1d 3f
       0.42467415 0.51123273 -2.1258142 0.61391395
000200 6c 50 e4 3e 73 3c df 3e 6e dc dc 3e 1c c1 01 3f
       0.44592607 0.43600807 0.43136925 0.50685287
000210 84 97 ce 3e 02 22 f6 3e dd 97 f4 3e f3 e7 03 3f
       0.40349972 0.4807282 0.47772112 0.515258
000220 c1 f9 ec 3e 0e a7 f3 3e 92 08 f0 3e 96 be f5 3e
       0.46284297 0.4758839 0.4688154 0.47996968
000230 af f5 ed 3e a8 fc fd 3e 8e 85 1f 3f 36 17 00 3f
       0.46476504 0.49606824 0.62313163 0.5003542
000240 62 e6 e8 3e 68 5b 1d 3f f6 d9 df 3e ba 85 e6 3e
       0.45488268 0.614676 0.43720978 0.450239
000250 eb 1d 00 be 35 90 ef 3e 3a 2b 9a 3d 77 46 1e 3f
       -0.12511413 0.4678971 0.07527776 0.6182627
000260 8f 69 fe 3e 63 e8 fb 3e b1 da 28 3f 6c 15 d0 3e
       0.4968991 0.49200734 0.65958697 0.40641344
000270 c4 72 18 3f 39 86 da 3e e9 b6 4e 3e 2e 4c f0 3e
       0.5955012 0.4268053 0.20186962 0.4693312
000280 7d d3 ea 3e 1d 94 f7 3e 8c 2c d1 3e 90 2f e4 3e
       0.45864478 0.4835519 0.408543 0.44567537
000290 5a 2a cd 3e 6d 80 d9 3e 55 2c c9 3e c9 09 1b 3f
       0.40071374 0.42480794 0.39291635 0.60561806
0002a0 a2 9c ce 3e 55 64 f1 3e 24 ca e7 3e d0 59 ee 3e
       0.40353876 0.4714686 0.4527141 0.46552896
0002b0 81 2e f7 3e 1f 13 13 3f 0d 9a de 3e 50 b4 dc 3e
       0.48277667 0.5745105 0.43476906 0.43106318
0002c0 b4 f4 98 3f fe 5a d8 3e 21 13 e8 3e d3 7c db 3e
       1.1949677 0.42256922 0.45327094 0.4286867
0002d0 65 39 dd 3e ca 16 4e be c1 13 b5 3e ab 14 b6 3e
       0.4320785 -0.20125881 0.35366634 0.35562643
0002e0 d6 4a c8 3e 35 7a e7 3e 00 00 00 00 c7 c8 f5 3e
       0.39119595 0.45210424 0.0 0.48004743
0002f0 4b d1 35 3f a4 19 1f 3f ef 8a fb 3e 89 97 b7 3e
       0.7102248 0.621485 0.49129435 0.358578
000300 63 23 12 3f 70 63 fb 3e 8a 5c e8 3e 39 a9 be 3e
       0.57085246 0.49099302 0.45383102 0.37238482
000310 85 0e d3 3e 08 2c e5 3e 1c 8e ef 3e 4f 69 e5 3e
       0.41222015 0.44760156 0.46788108 0.44806907
000320 17 fa 27 3f 13 45 00 3f a3 e0 dd 3e f1 89 0e 3f
       0.6561598 0.501054 0.43335447 0.5567923
000330 d9 68 f9 3e 99 6d f4 3e e3 7f d0 3e 4d a6 f1 3e
       0.48712805 0.47739866 0.4072257 0.4719719
000340 64 b7 ef 3e 86 b3 ce 3e a1 52 e4 3e d7 a3 fa 3e
       0.46819603 0.4037134 0.4459429 0.48953125
000350 dd d2 0a 3f cf f9 f4 3e 59 5b 4b be 6a 54 28 3f
       0.54228 0.4784684 -0.19859065 0.65753806
000360 c1 d6 df 3e 3c cc d0 3e 09 d0 ed 3e db d5 d8 3e
       0.43718532 0.40780818 0.4644778 0.4235066
000370 19 b6 dd 3e bd 72 fe 3e d7 55 20 3f 83 43 ec bf
       0.43302992 0.49696913 0.6263098 -1.8458103
000380 87 92 f9 3e 1f b7 b3 3e 83 4b e1 3e 89 34 da 3e
       0.48744604 0.35100648 0.44002923 0.42618206
000390 98 56 e1 3e 72 ca e9 3e 75 1b da bf 37 e2 d8 3e
       0.44011378 0.45662266 -1.7039629 0.42360088
0003a0 9f 84 b8 3e 17 86 a3 3e 02 d4 fd 3e 5f 25 bb be
       0.36038682 0.3193824 0.49575812 -0.3655195
0003b0 d2 2f 66 3f fe e5 d8 3e f2 7f ee 3e ed f0 fb 3e
       0.8991672 0.4236297 0.4658199 0.4920725
0003c0 1a e4 cf 3e 1c b2 d6 3e 1d 0d 9c be 09 c7 25 3f
       0.40603715 0.41932762 -0.30478755 0.6475683
0003d0 9c b1 f5 3e 93 c8 dd 3e c5 db 08 3f f7 24 de 3e
       0.47987068 0.43317088 0.5346034 0.43387577
0003e0 a1 f5 eb bf 06 6c fc 3e 1f db e6 3e b5 5d ed 3e
       -1.8434335 0.49301165 0.4508905 0.46360555
0003f0 67 2c ec 3e 11 bd e2 3e 1d 4f ec 3e 65 5e 05 3f
       0.46127626 0.4428487 0.4615411 0.5209716

item_bias f4 [85]
000000 0e 48 89 3f b8 ff f7 3f e0 c8 79 3f 00 00 00 00
       1.0725114 1.9374914 0.97572136 0.0
000010 0c 79 6d 3f d8 9f 01 40 10 88 00 40 74 f3 c1 3f
       0.9276283 2.025381 2.0083046 1.5152421
000020 f0 e9 61 3f 3a 2b a8 3f a8 20 a5 3e ef 2d 3e 3f
       0.88247585 1.3138192 0.32251477 0.7428884
000030 60 cf d7 3d e4 4f fc 3f b2 15 15 3f a2 7a 4a 3f
       0.105376005 1.9711881 0.5823623 0.7909337
000040 d9 2b a4 3f 61 de 95 bf 3c d3 38 3f 67 ae 2b 3f
       1.2825881 -1.170849 0.7219732 0.6706299
000050 5a 66 0a 3f 85 f0 38 3f 5a be 96 3e 50 45 88 3f
       0.54062426 0.72242004 0.29442102 1.0646152
000060 94 14 4b 3e ac 45 2e 3e 00 00 00 00 a5 39 3a 3f
       0.19832069 0.17018765 0.0 0.7274421
000070 e4 5b be 3e 88 c5 fd 3f 02 09 b5 3f c5 91 69 3f
       0.37179482 1.9825907 1.4143374 0.9123805
000080 00 00 00 00 30 dc 30 3f 75 fe a9 3e 00 00 00 00
       0.0 0.6908598 0.33201948 0.0
000090 b8 12 67 3f ca 31 ad 3f 0b a3 ff 3e 5b 96 94 3f
       0.9026294 1.353082 0.4992908 1.1608385
0000a0 35 4b f7 3f d6 f5 83 3f 7a 53 4f 3f 00 00 00 00
       1.9319826 1.0309398 0.8098675 0.0
0000b0 2e fe b5 3f 20 4a b2 3f 01 72 8b 3f 90 1e 72 3f
       1.4218194 1.3928871 1.0894166 0.94577885
0000c0 ed 8b 99 3f 49 f6 06 be 12 9b 79 3f 00 00 00 00
       1.1995827 -0.13179888 0.97502244 0.0
0000d0 33 25 96 3f 07 45 eb be ff 71 9c 3f c0 3b 87 3f
       1.1730102 -0.459511 1.2222289 1.0565109
0000e0 73 7f b4 3f 03 bd 8d 3f 6b 68 bd 3e 92 ce 93 3e
       1.4101394 1.1073307 0.36993727 0.28868538
0000f0 12 a0 95 3f 84 67 da bc fb f3 b9 3f f6 79 9d 3f
       1.1689475 -0.026660688 1.4527582 1.2302845
000100 81 8e d0 3f e8 87 84 3f b6 b3 2c 3f 44 c8 ab 3f
       1.6293489 1.0353975 0.6746172 1.3420491
000110 10 db 97 3f 6f 1a 25 3f b9 7c bc 3f 87 91 dc 3f
       1.1863728 0.6449346 1.4725562 1.7231911
000120 7c ba a5 3f f7 b3 a8 3f 32 48 a6 3f ef 07 dd 3f
       1.2947536 1.3179921 1.2990782 1.7268046
000130 d3 ce a2 3f 8b 54 a5 3f f8 d4 77 3f 97 a4 91 3f
       1.2719368 1.2916425 0.9680934 1.1378354
000140 2b 45 81 3f a1 2f 9f 3f 21 d1 54 3f 56 d9 b4 3f
       1.0099233 1.243641 0.83131605 1.4128826
000150 7a 51 ae 3f
       1.3618615

weight f4 [14, 14]
000000 54 48 52 bd 4a d6 bf bd 45 68 c3 3d 5a 7c c4 3d
       -0.05133851 -0.09367044 0.09541372 0.09594031
000010 d6 c8 60 3e cd f8 03 be 84 be ad 3d fa 43 6d 3e
       0.21951613 -0.12887879 0.084836036 0.23170462
000020 4f a5 a7 3d d4 4b 30 3e cc 40 33 3e 9c bf d2 3d
       0.08185827 0.17216426 0.17505187 0.10290453
000030 87 b5 86 be 91 95 b6 3d 8c 7c 31 3a 5d 29 6c 3d
       -0.2631037 0.08915246 0.0006770573 0.057656635
000040 bc 6b cb 3d 9e 52 24 3d e4 ed e8 bd e0 22 85 3e
       0.09932658 0.040117852 -0.11373499 0.2600317
000050 61 1d b4 3c a5 7f 1f be eb c7 ac 3d ee ac 3c 3e
       0.021986665 -0.15576036 0.08436569 0.18425342
000060 6f cb 85 be 6f c3 75 3c 90 72 18 be 71 09 57 3e
       -0.2613177 0.015000208 -0.14887452 0.20999695
000070 98 20 b7 3d b2 ec 70 be 9e dc c5 bd 60 1a 29 bd
       0.08941764 -0.23527792 -0.0966122 -0.04128492
000080 7b 1e 66 3e 04 dc e1 bd e4 01 2b 3e 3a fa c2 3d
       0.22472565 -0.11028293 0.1669994 0.09520383
000090 f2 fd 1a be d2 ef 77 3e bb 4b d6 3d 90 a1 42 be
       -0.15135935 0.24212578 0.10463663 -0.19006944
0000a0 5d 37 11 3e 8a 59 06 be 9f a0 5d bc 13 b3 32 3e
       0.14181276 -0.13120094 -0.013527065 0.17451124
0000b0 5c c6 6b 3e 8a 7c a2 3a ee ae 1a bd c4 f5 eb 3d
       0.23024887 0.0012396735 -0.037764482 0.115214854
0000c0 3c 9d 0f be 3d c0 1c bd 84 ac 29 be f9 a2 79 3c
       -0.14024824 -0.03826927 -0.16569716 0.01523661
0000d0 47 6c 68 be df 65 0a 3e b0 f8 3c 3c 99 80 42 be
       -0.22697555 0.13515423 0.011533901 -0.18994369
0000e0 c8 33 9d bd 62 14 19 3c e8 ba ac 3d fb 15 84 3e
       -0.07675892 0.009343239 0.08434087 0.2579802
0000f0 6f 43 6a be 2e b6 78 3c fe ef 56 be b7 06 38 3e
       -0.22877286 0.015180154 -0.20989987 0.17971312
000100 ef ac c0 3d bb 17 33 3c 47 2f 02 3d 6e 12 29 be
       0.094079845 0.010930951 0.03178337 -0.16510937
000110 81 2a 84 bd c3 48 56 3e ab f8 06 bd 29 94 78 be
       -0.064534195 0.20926194 -0.032951992 -0.24275269
000120 76 7c 33 3e ed b4 52 3e 4f a1 73 3e a2 f9 16 3e
       0.17527947 0.2057683 0.23792003 0.14743665
000130 c6 37 de 3d ab 57 0b 3e b5 a7 df 3d 43 5b 4f 3e
       0.10850482 0.13607661 0.109206595 0.20249657
000140 10 73 a0 bd ff 5e 0a 3e 05 80 e5 bd 62 1f 2b 3e
       -0.078344464 0.135128 -0.112060584 0.1671119
000150 86 3d 0b 3e 45 c1 bd bd 77 5b 08 3e d5 77 44 be
       0.13597688 -0.09265379 0.13316141 -0.19186337
000160 0d 28 54 3e 88 40 6b be 66 6c 75 be 87 4b 2d be
       0.20718403 -0.22973835 -0.23967132 -0.16923343
000170 00 66 55 bd 23 96 30 be f1 06 41 3e fc 44 0e be
       -0.052099228 -0.17244773 0.18850304 -0.13893503
000180 9f dc 17 be c0 7c fd bd 6a 61 75 3e 2b 54 af 3d
       -0.14830254 -0.1237731 0.23962942 0.08560976
000190 0f f4 6c be 6e d7 5e be c5 dd be 3d d0 62 8a bd
       -0.23139976 -0.21761867 0.09319643 -0.06757128
0001a0 a4 8c 3c be 9b a7 c0 bd 66 38 1a 3e d7 73 83 be
       -0.18413025 -0.09406968 0.15060577 -0.25674316
0001b0 6f c5 39 bd 17 5f 79 be 88 2b 18 3e 74 72 61 be
       -0.045354303 -0.2435268 0.14860356 -0.22016317
0001c0 85 ab 99 3c fb da 13 be 6c 3a 32 3e 0a 92 03 3e
       0.018758545 -0.14439003 0.17405099 0.12848678
0001d0 54 44 a7 bb 8c 33 e9 bc f2 e3 37 3e 24 2c 27 bd
       -0.005104581 -0.028466962 0.17958048 -0.04081358
0001e0 d1 81 f3 bd 66 8c 08 bd 56 89 51 3c 54 34 2e be
       -0.11889995 -0.03333702 0.012789091 -0.17012149
0001f0 24 40 75 3d 0c bf 4f 3d ab 39 b2 bd e0 ab 2d be
       0.059875622 0.050719306 -0.087024055 -0.16960096
000200 1b 4f 17 bc f7 cd 4c 3e cb 0b 47 3e db a0 b5 3d
       -0.009235169 0.20000444 0.19438092 0.08868571
000210 ff bc 5e 3e 05 80 47 3e 04 61 52 3d d1 6c 2c 3e
       0.21751784 0.1948243 0.051362053 0.16838385
000220 56 18 09 be 5f 8c 88 3e 5b a8 0f be 95 62 65 3e
       -0.1338819 0.26669595 -0.14029066 0.22400887
000230 26 08 80 bd 0c 7c 48 3c e4 71 9f 3d f1 77 52 be
       -0.06251554 0.012236606 0.07785395 -0.20553567
000240 a7 fd 40 3e 9d 27 f8 bd 14 61 5c 3e 4f a6 1a 3d
       0.1884676 -0.12116931 0.21521407 0.03775626
000250 f7 1a 9f 3d 14 e2 58 be f3 e4 95 3d 3b b6 1e be
       0.07768815 -0.21179992 0.07319059 -0.15499203
000260 3f b9 5b 3e b9 7a 4c 3e 3a 8a 2b 3a 41 33 32 3d
       0.21457385 0.1996869 0.00065437297 0.04350591
000270 2d a5 61 bc f9 8b ad 3d 0f ee 6e 3e 15 0c 34 3e
       -0.013772291 0.08473963 0.23333 0.17582734
000280 be 03 01 3d d8 09 4e be 20 31 17 3e f7 85 bb bd
       0.03149771 -0.20120943 0.14764833 -0.09156411
000290 61 fb 71 3e bc 54 34 3e 23 0a 7b be f8 06 05 3e
       0.2363105 0.17610449 -0.24515586 0.1299094
0002a0 b2 37 1a bd 5e 62 40 bc a1 42 c0 3d 6a db 90 3d
       -0.03765077 -0.011742203 0.093877085 0.070731
0002b0 21 60 97 bd d7 8d 24 3e c3 1e 85 3e 82 29 c7 bd
       -0.07391382 0.16069733 0.26000032 -0.09724714
0002c0 bd 82 83 3e 0f 47 bb bd a1 60 58 bd a5 48 80 3e
       0.25685683 -0.09144413 -0.052826528 0.25055423
0002d0 10 76 76 be 34 25 fc bc f4 39 e1 bd f5 2c 12 3e
       -0.24068475 -0.030779459 -0.10997382 0.14274962
0002e0 5d bf d4 3c 20 ef ad bd f2 3a 0b 3e 0c 23 25 3d
       0.025970155 -0.08492875 0.13596705 0.040316626
0002f0 bf aa cc 3d 80 8b 00 be 78 e2 80 bb f5 7e 5e be
       0.09993505 -0.12553215 -0.003933247 -0.21728118
000300 04 c0 43 bc ea 4e 83 3c 25 2d 82 3e 42 a6 a0 3d
       -0.011947636 0.01602884 0.25425068 0.07844211

bias f4 [14]
000000 f9 64 40 be e0 9e 9a bd 2a 12 82 be 9c af 65 3e
       -0.18788518 -0.07549834 -0.25404483 0.22430271
000010 e5 e5 24 3e 37 fb 75 3e d6 49 48 3e bf 27 49 be
       0.16103323 0.24021612 0.19559416 -0.19644068
000020 84 12 ac 3d e2 89 84 bd bb 23 98 bd 4c de 01 be
       0.08401969 -0.064716116 -0.0742869 -0.12682456
000030 cc e4 1f bd 2e cc 30 be
       -0.039036557 -0.17265388
