DeepCGSR_triet/chkpt/triet_deepcgsr.pt (torch, 117899 bytes, 4 tensors)

user_bias f4 [16369]
0	0x3f40a610	0.7525339
1	0x3ef96593	0.48710307
2	0x3eeeae38	0.46617293
3	0x3f01854a	0.5059401
4	0xbf3fdd36	-0.74946916
5	0x3ec5dc11	0.3864446
6	0x3e6d0d7e	0.23149678
7	0x00000000	0.0
8	0x3ed3e1ef	0.4138331
9	0x3f013b8a	0.50481474
10	0xbed128a5	-0.40851322
11	0x3ee58529	0.44828156
12	0x3ef741e2	0.48292452
13	0x3f84ab6e	1.0364816
14	0x3f5ea49f	0.8696994
15	0x3f1e3ac4	0.6180842
16	0x3e5454cb	0.20735471
17	0x3ede817b	0.4345816
18	0x3f3560be	0.7085074
19	0xbeadedc5	-0.33970466
20	0x3f1009a8	0.56264734
21	0x3f01c858	0.50696325
22	0x3f5df4e0	0.86701775
23	0x3efef23d	0.49794188
24	0x3edc745f	0.43057534
25	0x3ef2cd05	0.47422042
26	0xbfd1c1b4	-1.6387239
27	0x3ef26f51	0.47350553
28	0x3f03d1b2	0.51491845
29	0x3f0fe25c	0.5620477
30	0x3e7e9781	0.24862482
31	0xbeb7da39	-0.35908678
32	0x3f384ed6	0.71995294
33	0x3f07fb40	0.5311775
34	0x3cd005e5	0.025393436
35	0x3e99620d	0.2995762
36	0xbb4da4c0	-0.0031378716
37	0x3eb61ced	0.35568944
38	0x3e2374d4	0.15962535
39	0x3f1458ed	0.5794819
40	0xbf260496	-0.6485075
41	0xbeddc3dd	-0.43313494
42	0x3ece9bee	0.4035334
43	0x3f2bd690	0.6712427
44	0x3ecd8b5d	0.40145388
45	0x3e521ea2	0.20519498
46	0x3d1e229e	0.038607232
47	0x3f112c59	0.56708294
48	0x3f0bceed	0.5461262
49	0x3eb97a2a	0.36226016
50	0x3f1f74ff	0.62287897
51	0x3f722e2f	0.9460172
52	0x3f116d29	0.5680719
53	0x3f00eb3b	0.50358933
54	0x3f11484d	0.5675095
55	0x3ea7bc04	0.32760632
56	0x3ebfbdfd	0.37449637
57	0xbf04843d	-0.5176428
58	0x3ef17c54	0.47165167
59	0x3eeee310	0.4665761
60	0x3e34f4a9	0.17671455
61	0x3ea55ab0	0.32295752
62	0x3ec52f40	0.3851261
63	0x3f17e228	0.5932946
64	0x3ef53d1b	0.47898182
65	0x3ef91677	0.48649952
66	0x3f105f22	0.5639516
67	0x3ed21edb	0.41039166
68	0x3e5bf107	0.21478663
69	0x3df07579	0.11741156
70	0x3e8ed5cf	0.27897498
71	0xbe1e8e15	-0.15483887
72	0x3f0fe54e	0.56209266
73	0x3c857ee7	0.016295863
74	0x3f0d2259	0.55130535
75	0x3f3430be	0.70386875
76	0x3f226aa8	0.63443995
77	0x3f269137	0.6506533
78	0x3f19e735	0.6011842
79	0x3e2dd460	0.16975546
80	0x3ed11581	0.4083672
81	0x3efa14da	0.48844033
82	0x3eca335d	0.39492312
83	0x3f28605c	0.6577203
84	0x3ee60584	0.44926083
85	0x3dab63bc	0.08368632
86	0x3f2325ca	0.63729537
87	0x3f752aa5	0.95768195
88	0x3ef4798a	0.47748977
89	0x3f201b33	0.625415
90	0x3f55cf86	0.8351978
91	0x3d9c7b0e	0.07640658
92	0x3f074eee	0.5285481
93	0x3ee17510	0.44034624
94	0x3f1a42c0	0.602581
95	0x3e32ea1c	0.17472118
96	0x3f27b4d7	0.65510315
97	0x3ee5353b	0.44767174
98	0x3f157f5f	0.5839748
99	0x3ebb8a06	0.3662874
100	0x3f11901a	0.56860507
101	0x3f655334	0.8958008
102	0xbe8c43cc	-0.27395475
103	0xbd77bb8b	-0.06048159
104	0x3e6de89f	0.23233269
105	0x3f20c75d	0.62804204
106	0x3f1122f5	0.56693965
107	0x3ee5a535	0.44852605
108	0xbe11cd2e	-0.14238426
109	0x3ec9df16	0.39428014
110	0x3f6208b1	0.8829451
111	0x3edb1931	0.42792657
112	0x3f62e519	0.88630825
113	0x3eee66b9	0.46562746
114	0x3f3626a5	0.71152717
115	0x3f1775a3	0.59163874
116	0x3eeab73a	0.45842916
117	0xbf546845	-0.829716
118	0x3ea9a7e6	0.3313591
119	0x3e2228f7	0.1583594
120	0x3f0ef3d7	0.5584082
121	0x3f18e2b8	0.59720945
122	0x3d75b931	0.059991065
123	0x3e890caf	0.2676749
124	0x3e761caf	0.2403438
125	0x3ec8fa05	0.3925325
126	0xbbeea214	-0.007282505
127	0x3eae0dbd	0.33994856
128	0x3e2dd687	0.16976367
129	0x3f07cedd	0.53050023
130	0x3f134f39	0.5754276
131	0x3c873a87	0.0165074
132	0x3dadf989	0.08494861
133	0xbefc62cb	-0.49294123
134	0x3f2fee24	0.6872275
135	0x3ebc572d	0.3678526
136	0x3ebcd845	0.3688375
137	0x3f5f94e8	0.8733659
138	0x3f008fa5	0.50219184
139	0x3e9ec6ec	0.3101114
140	0x3ed64bdc	0.4185475
141	0x3f1944a7	0.5987038
142	0x3f0068f8	0.5016017
143	0xbe061657	-0.1309446
144	0x3f1136cc	0.5672424
145	0x3f141b0a	0.5785376
146	0x3f366082	0.7124101
147	0x3f261298	0.6487212
148	0x3ea27387	0.31728765
149	0x3ebea253	0.3723322
150	0x3eb5a734	0.35479128
151	0x3f137b3d	0.5760992
152	0x3f2a8102	0.666031
153	0x3f229b6a	0.63518393
154	0x3bed42c2	0.007240624
155	0xbe3195a3	-0.17342238
156	0x3dd56a1d	0.1042063
157	0x3f2472f3	0.642379
158	0x3f1c271e	0.6099719
159	0x3efc7d0a	0.49314147
160	0x3f800e52	1.000437
161	0x3f13546d	0.575507
162	0x3f1eeb2d	0.620776
163	0xbf0b21b0	-0.5434828
164	0x3ec1e9fc	0.37873828
165	0x3f281405	0.6565555
166	0x3ebc8067	0.36816713
167	0x3f16aef4	0.5886071
168	0x3f1cca8a	0.6124655
169	0x3f44ba01	0.7684632
170	0x3e891fd9	0.2678211
171	0x3f0ecc6d	0.5578068
172	0x3ec228fc	0.37921894
173	0xbae79a12	-0.0017669818
174	0x3f6d9f5c	0.9282129
175	0x3e696f31	0.22796322
176	0xbe3768b4	-0.17911035
177	0x3f25dd20	0.64790535
178	0x3eecdca3	0.46262082
179	0x3f5eb6fd	0.8699797
180	0x3f2545ea	0.64559805
181	0x3cb52da6	0.022116493
182	0xbeef8647	-0.46782133
183	0xbf3a7d90	-0.72847843
184	0x3f05c7f0	0.52258205
185	0x3d6b990c	0.057519004
186	0x3f245e06	0.6420597
187	0x3edc7e34	0.43065035
188	0x3f212e48	0.62961245
189	0x3f0eb5e3	0.5574629
190	0x3f75b0c2	0.95972836
191	0x3f1669c3	0.5875513
192	0x3ec76ad2	0.38948685
193	0x3f41dfdd	0.75732213
194	0x3eacbe1b	0.3373879
195	0x3f26f2e4	0.6521437
196	0x3f553db4	0.83297276
197	0x3f431794	0.7620785
198	0x3ea46c79	0.32114008
199	0x3f1a3008	0.6022954
200	0x3f0ba628	0.5455041
201	0x3f50ab87	0.8151173
202	0x3f171935	0.5902284
203	0x3f44eee9	0.7692705
204	0x3ec2ea52	0.38069397
205	0x3f051b9d	0.5199526
206	0x3f5870a2	0.84546864
207	0x3e905ea6	0.2819721
208	0x3e04ddff	0.1297531
209	0x3f392146	0.72316396
210	0x3df313a6	0.11868982
211	0x3ed6a677	0.41923878
212	0x3f019c35	0.5062898
213	0x3f136174	0.57570577
214	0x3f19aef2	0.6003257
215	0x3f12eb51	0.57390314
216	0x3f003220	0.50076485
217	0x3e898744	0.26861012
218	0x3f1b08e2	0.6056043
219	0x3f29ab4d	0.6627701
220	0xbe834b0d	-0.25643197
221	0xbecb7a7f	-0.39741895
222	0x3ecaceb5	0.3961083
223	0x3f51b9ab	0.8192393
224	0x3f205b23	0.62639064
225	0x3e8022ff	0.250267
226	0x3cf72251	0.03016773
227	0xbe24b038	-0.16082847
228	0x3f6225fc	0.8833921
229	0x3f23d9d5	0.6400426
230	0xbd0291e7	-0.031877425
231	0x3efcd702	0.49382788
232	0x3eacf135	0.33777776
233	0x3ee302e8	0.44338155
234	0xbf5eb44e	-0.86993873
235	0x00000000	0.0
236	0xbebc6641	-0.36796764
237	0x3f2c9b06	0.67424047
238	0x3edd1e26	0.43187064
239	0x3f70ab28	0.94011164
240	0x3f1214be	0.570629
241	0x3f0eea00	0.55825806
242	0x3e8ba394	0.27273238
243	0x3f64a9fc	0.89321876
244	0x3f47681b	0.7789323
245	0x3f333abd	0.700115
246	0x3f4465c2	0.7671777
247	0x3f748101	0.95509344
248	0x3e5b3103	0.21405415
249	0x3f03eb94	0.5153134
250	0x3e6ed9ef	0.23325323
251	0x3e3a9851	0.18222167
252	0xbf9d5144	-1.2290425
253	0xbf007844	-0.5018351
254	0x3f1bae64	0.60812974
255	0xbf047cb4	-0.5175278

item_bias f4 [11716]
0	0xbd28d1f4	-0.041215852
1	0x3f001578	0.5003276
2	0x3ef175db	0.4716023
3	0x3f16af28	0.5886102
4	0x3f15db96	0.58538187
5	0x3eb632e2	0.35585696
6	0x3f2b81ee	0.6699513
7	0x3f039f97	0.5141539
8	0x3edf1666	0.43571776
9	0x3ee48ae7	0.44637224
10	0x3f470456	0.7774099
11	0x3ee7a9fa	0.4524687
12	0x3f08bfb7	0.53417534
13	0xbe12b2e6	-0.14326057
14	0x3f2fe4d6	0.6870855
15	0x3e9ae501	0.3025284
16	0x3f5c7944	0.86122537
17	0xbf4aaac6	-0.7916683
18	0x3ee8908d	0.45422783
19	0x3ed9f7d9	0.42571905
20	0xbdae86f3	-0.08521833
21	0x3e9c7c79	0.30563715
22	0x3eaf6303	0.34255227
23	0x3f1ae0fa	0.60499537
24	0x3e94e548	0.29081178
25	0x3e2ab15c	0.1666922
26	0xbe857d88	-0.26072335
27	0x3ed2d4b2	0.411779
28	0xbf65bfbe	-0.897457
29	0x3ef88a67	0.48543093
30	0x3ee093e2	0.43862826
31	0x3e3f1b51	0.18662764
32	0x3f9b0740	1.2111588
33	0x3f037c42	0.5136148
34	0x3f3a5f57	0.7280173
35	0x3e79661f	0.24355362
36	0x3e6e7a4b	0.23288839
37	0x3f60b9cb	0.877835
38	0x3f217455	0.63068134
39	0x3ee8377d	0.45354834
40	0x3eb94ea9	0.36192825
41	0x3f04564e	0.5169419
42	0x3f0c85aa	0.54891455
43	0x3f17789d	0.59168416
44	0x3f0f2561	0.5591641
45	0x3e7fdeca	0.24987331
46	0x3f0b0a83	0.54312915
47	0x3f292df9	0.66085774
48	0x3f2356e5	0.63804466
49	0x3f1cf4f3	0.6131126
50	0x3ed591b2	0.4171272
51	0x3ebd88a2	0.37018305
52	0x3f01253a	0.5044743
53	0x3ed5afb2	0.41735607
54	0x3f0d3141	0.5515328
55	0x3f4924ce	0.78571784
56	0x3e8af86a	0.2714265
57	0x3e9fdcc0	0.31223106
58	0x3ed96607	0.42460653
59	0xbeb2d573	-0.34928474
60	0x3f37819b	0.7168214
61	0x3e8fbb8d	0.28072777
62	0x3ec98d86	0.39365786
63	0x3eaaa771	0.33330873
64	0x3ef20844	0.4727193
65	0x3ecd32a1	0.4007769
66	0x3f64beb2	0.8935348
67	0x3ee760a0	0.45190907
68	0x3e1b43ca	0.15162578
69	0x3f165bf8	0.58734083
70	0x3f3ca2cd	0.73685914
71	0x3ee26d6c	0.44224107
72	0x3ef65019	0.48107985
73	0x3e1004ce	0.14064333
74	0xbe8514a0	-0.25992298
75	0x3eb7f51e	0.35929197
76	0x3eee566f	0.4655032
77	0xbd420f18	-0.047377676
78	0x3ea1898a	0.31550246
79	0x3f109011	0.5646983
80	0x3eb9b32c	0.3626951
81	0x3ea1cccb	0.31601557
82	0x3efafcc9	0.49020985
83	0x3f10f1ab	0.56618756
84	0x3f096209	0.53665215
85	0xbe9ca9cc	-0.30598295
86	0x3e8f2045	0.27954307
87	0xbe6af64d	-0.22945519
88	0xbe3453b8	-0.17610061
89	0x3e838b3c	0.25692165
90	0x3f169c27	0.5883202
91	0x3f04a83e	0.5181922
92	0x3f3758c0	0.71619797
93	0x3e365c23	0.17808585
94	0x3ef2c4af	0.47415683
95	0x3e32c017	0.17456089
96	0x3eb2ba2c	0.34907663
97	0x3f0f60cd	0.5600708
98	0x3f31cf01	0.6945649
99	0x3eb5ed64	0.35532677
100	0xbe988209	-0.2978671
101	0x3eda6d50	0.42661524
102	0x3f056bc3	0.52117556
103	0x3ec1648e	0.3777203
104	0x3d0572ec	0.0325803
105	0x3f1ffe1e	0.6249713
106	0x3f445d73	0.7670509
107	0x3f006e89	0.50168663
108	0x3d974049	0.07385308
109	0x3ef5e119	0.48023298
110	0x3f03239d	0.51226217
111	0x3cf641bb	0.03006064
112	0x3ee99c68	0.4562714
113	0x3eeeafba	0.46618444
114	0x3f1c8a2e	0.61148345
115	0x3e3c9c9f	0.18419121
116	0x3e3935fb	0.18086998
117	0x3f07f2a7	0.53104633
118	0x3ed23e4b	0.4106315
119	0x3ede2df1	0.43394426
120	0x3eb4f33a	0.35341817
121	0x3f09eaa3	0.5387365
122	0x3f2a7359	0.66582257
123	0x3eda81e5	0.42677227
124	0x3f06b155	0.5261434
125	0x3f065055	0.52466327
126	0x3f313e5c	0.6923578
127	0x3ee803ff	0.4531555
128	0x3f1007d2	0.5626193
129	0x3d2e3484	0.04253055
130	0x3f11f615	0.57016116
131	0x3f142569	0.57869583
132	0x3f1e6b12	0.61882126
133	0x3f5fe7fa	0.87463343
134	0x3f25a28a	0.6470114
135	0x3f45a827	0.77209705
136	0x3e7167f3	0.2357481
137	0x3ea0978e	0.31365627
138	0x3e565ee2	0.20934632
139	0x3e496818	0.19668615
140	0x3edd336a	0.43203288
141	0x3f3c0a4d	0.7345322
142	0x3f1939ab	0.5985362
143	0x3f0b4b71	0.5441199
144	0x3ee48963	0.44636068
145	0x3f472a14	0.7779858
146	0x3f51a70c	0.8189552
147	0x3f17d8bb	0.5931508
148	0x3eaa394b	0.33246836
149	0x3ee50d04	0.44736493
150	0x3ecf2909	0.40460995
151	0x3cd77e2d	0.026305282
152	0x3eb23164	0.34803307
153	0x3f5df3b8	0.8670001
154	0x3f415657	0.7552237
155	0x3f093fbb	0.5361287
156	0x3f3b6b8b	0.7321097
157	0x3f43dcbc	0.7650869
158	0x3eaf7427	0.34268305
159	0x3f0165ad	0.5054577
160	0x3ebf0498	0.37308192
161	0x3ed80e01	0.42198184
162	0x3ed736e2	0.4203406
163	0xbeb9cd1c	-0.362893
164	0x3ebe6f4c	0.37194288
165	0x3e809b7a	0.2511862
166	0x3f4912b7	0.7854418
167	0x3f2da5a2	0.6783086
168	0x3eb45e26	0.3522808
169	0x3e9b463a	0.30327016
170	0xbd33be1d	-0.043882478
171	0x3ee94a44	0.45564473
172	0x3eb117dd	0.3458852
173	0x3eeecc3a	0.46640188
174	0x3eebe220	0.46070957
175	0x3eb09bd2	0.3449388
176	0x3f06c5c6	0.5264553
177	0x3ec45742	0.38347822
178	0x3ce80066	0.028320502
179	0x3ee3c5cf	0.44486853
180	0x3e598c80	0.21245003
181	0x3f066b16	0.5250715
182	0x3ed1ae2a	0.4095319
183	0x3edaed76	0.42759293
184	0x3f4c5914	0.7982342
185	0x3e6d132d	0.23151846
186	0x3ee2e1cc	0.44312894
187	0x3f12ea63	0.57388896
188	0x3ed3c332	0.4135986
189	0x3f190422	0.5977193
190	0x3f0815ff	0.53158563
191	0x3f01c5d2	0.50692475
192	0x3e22ed1a	0.1591076
193	0x3f66035d	0.8984888
194	0x3ef38024	0.475587
195	0x3ed6a09c	0.4191941
196	0x3e8191bc	0.253065
197	0x3f0d803d	0.552738
198	0x3ec8f805	0.39251724
199	0x3eedeff1	0.46472123
200	0x3f8c8305	1.0977484
201	0x3df59417	0.119911365
202	0x3ef8d1d9	0.485976
203	0x3e703381	0.23457147
204	0x3eed8919	0.4639366
205	0x3ee6b592	0.45060402
206	0x3f1129a1	0.56704146
207	0x3f2451fc	0.641876
208	0x3e982bd4	0.29720938
209	0x3f371a2e	0.7152432
210	0x3ec528b5	0.3850762
211	0x3db17ea7	0.08666735
212	0x3ed22624	0.41044724
213	0x3ef1b800	0.47210693
214	0x3e93d7e1	0.2887564
215	0x3edd1010	0.43176317
216	0x3f07ac9a	0.52997744
217	0x3f0139b6	0.50478685
218	0x3ecb3968	0.39692235
219	0x3edf9de2	0.43675143
220	0x3f21635e	0.6304225
221	0x3eef201b	0.46704182
222	0x3f063e63	0.52438945
223	0x3dcc5a19	0.09978122
224	0x3ef7fc32	0.48434597
225	0x3ecef4ae	0.4042105
226	0x3f4dd85b	0.8040826
227	0x3f760e26	0.9611534
228	0x3e147eee	0.14501545
229	0x3e68c3ca	0.22730938
230	0x3e83c4b6	0.25736016
231	0x3ee5adda	0.448592
232	0x3ede658a	0.43436843
233	0x3d332695	0.043737967
234	0x3eebcea5	0.46056095
235	0x3de761ef	0.11297976
236	0x3f0e8059	0.55664593
237	0x3e6c72ab	0.23090617
238	0xbe066912	-0.13126019
239	0x3e09a343	0.13441186
240	0x3edb2d41	0.42807963
241	0x3ef5c4d4	0.4800173
242	0x3f1ef883	0.6209795
243	0x3df4fac8	0.11961895
244	0x3ee0b6c8	0.4388945
245	0x3d8b2785	0.06794647
246	0x3b30796a	0.0026927837
247	0x3f0af070	0.5427313
248	0x3e2b0ea8	0.1670481
249	0x3f214994	0.63002896
250	0x3f14c8b9	0.5811878
251	0x3f011d2d	0.50435144
252	0x3ede8857	0.43463394
253	0x3f1551dc	0.5832803
254	0x3e9fd5f3	0.31217918
255	0x3e54101d	0.20709272

weight f4 [24, 24]
0	0x3e08ade6	0.13347587
1	0xbdaf6fc1	-0.08566237
2	0x3e1bad79	0.15202893
3	0xbd920b54	-0.07131067
4	0x3dd1a8d0	0.102372766
5	0x3e20a609	0.15688337
6	0xbda3f8e8	-0.080064595
7	0x3dea1325	0.11429433
8	0xbe34526a	-0.17609563
9	0x3bebf53c	0.007200865
10	0xbd27ec1d	-0.04099666
11	0x3e4c25b9	0.19936265
12	0x3e1ce2f4	0.15320951
13	0x3da6cd27	0.081445985
14	0xbe128854	-0.14309818
15	0x3d2157e2	0.039390452
16	0xb9d6d736	-0.00040977605
17	0xbd9ce7a4	-0.076613694
18	0x3c08100d	0.008304608
19	0xbe3a71ca	-0.1820747
20	0xbd6217c9	-0.055198465
21	0x3e411cb7	0.1885861
22	0x3e1d3ed0	0.15355992
23	0x3e45fc3d	0.19334503
24	0x3e130813	0.14358549
25	0x3d15848b	0.036503356
26	0xbe0f7c8b	-0.14012353
27	0x3dc06337	0.09393924
28	0xbc57598c	-0.013143908
29	0xbc411e42	-0.011786999
30	0xbd18fd26	-0.037350796
31	0xbe208a1d	-0.15677686
32	0x3d41166d	0.047140528
33	0x3dfa6a8b	0.12227353
34	0x3e2f814c	0.17139167
35	0xbdf7b267	-0.120945744
36	0xbba055b1	-0.0048930277
37	0xbe5048cb	-0.20340268
38	0xbda1c50d	-0.078989126
39	0x3e0b5f40	0.13610554
40	0x3c24c8b5	0.010057618
41	0x3e39de42	0.18151191
42	0x3d0868a4	0.033302918
43	0x3e3fa0f1	0.18713738
44	0x3b3ce3c9	0.0028822294
45	0xbd047fd2	-0.03234846
46	0xbdb55e07	-0.08855825
47	0x3da70989	0.081561156
48	0x3dc3ccf2	0.095605746
49	0xbdbfa122	-0.093569055
50	0x3db94b19	0.09047527
51	0xbcd816aa	-0.026377995
52	0x3da7178b	0.08158787
53	0x3cd59845	0.026073584
54	0x3d5e4198	0.054261774
55	0xbca342ba	-0.019929279
56	0xbe1c6389	-0.15272345
57	0x3c176852	0.0092411805
58	0xbdad1d72	-0.08452882
59	0xbe2d4ae0	-0.16923094
60	0x3e0f4a6d	0.13993235
61	0x3dcb2240	0.09918642
62	0x3d9f4e52	0.0777861
63	0x3e4a3be7	0.19749413
64	0x3e468487	0.19386493
65	0xbdaded0e	-0.0849248
66	0x3db49edb	0.08819362
67	0x3dbc9c4b	0.09209498
68	0xbda9b26b	-0.08285984
69	0x3c92a411	0.017900499
70	0x3dfab2c4	0.12241128
71	0x3e10ea33	0.1415184
72	0xbe31bf06	-0.17358026
73	0x3d633e70	0.055479467
74	0x3e234393	0.15943746
75	0x3df6a62f	0.12043416
76	0xbdb93471	-0.090432055
77	0x3dd5dd6d	0.10442624
78	0x3e100771	0.14065339
79	0xbe23c551	-0.15993239
80	0x3e48e9e4	0.19620472
81	0xbe49f865	-0.19723661
82	0xbe3ddf34	-0.18542176
83	0xbdee9793	-0.11650004
84	0x3e24071f	0.16018341
85	0x3da9c454	0.082894
86	0xbcc889d6	-0.024479788
87	0xbe43bdfc	-0.19115442
88	0x3de97ad1	0.114003785
89	0x3d394ace	0.045237355
90	0xbd9fab7e	-0.077963814
91	0xbdf4d016	-0.11953752
92	0xbe38649a	-0.18007126
93	0x3addd5ca	0.0016924676
94	0x3e34df1a	0.17663231
95	0x3ce0610c	0.027390026
96	0xbd7d04e8	-0.061772257
97	0x3e0c7eee	0.13720295
98	0x3bf9fb93	0.007628867
99	0xbd4ace71	-0.049513284
100	0xbda19941	-0.07890559
101	0x3e07fc2a	0.13279787
102	0x3d41dccf	0.04732972
103	0xbdb760eb	-0.089540325
104	0xbe1804d0	-0.14845586
105	0x3dee815d	0.11645768
106	0x3e4c4504	0.19948202
107	0xbdbb2edf	-0.09139799
108	0x3e35d280	0.1775608
109	0xbdcf736d	-0.101294376
110	0x3e157177	0.14594065
111	0x3d984b86	0.0743628
112	0xbdf18f97	-0.11794966
113	0x3e0822bc	0.132945
114	0xbe14d3fa	-0.14533988
115	0xbe151e08	-0.14562237
116	0x3d768e6e	0.060194425
117	0xbbeec944	-0.0072871763
118	0x3d8a9989	0.06767566
119	0x3e4b627c	0.19861788
120	0x3e3e9bf8	0.18614185
121	0xbdac74ee	-0.0842074
122	0xbd9a8e37	-0.075466566
123	0xbe1a80f2	-0.15088251
124	0x3e206bb0	0.1566608
125	0xbe01bbdb	-0.12669317
126	0x3e312fed	0.17303438
127	0xbe452760	-0.19253302
128	0x3e3d20e6	0.18469581
129	0xbceed1bc	-0.029152744
130	0x3d471c1f	0.048610803
131	0xbcee3e69	-0.029082494
132	0x3d63a86e	0.05558055
133	0x3e3bc46e	0.1833665
134	0xbe1a7e2f	-0.15087198
135	0xbdc8760d	-0.097881414
136	0x3d7dcdd1	0.06196386
137	0x3e08051e	0.13283202
138	0x3e28bdf2	0.16478708
139	0x3d8a8cb4	0.06765118
140	0x3d8dd461	0.06925274
141	0xbdc340c3	-0.09533837
142	0xbd3499c3	-0.04409195
143	0x3e09ca13	0.13455991
144	0xbe17becc	-0.14818877
145	0x3e44b65c	0.1921019
146	0xbdf5c3fa	-0.1200027
147	0xbe4689ac	-0.19388455
148	0x3d8a3eb0	0.06750238
149	0x3e2b6310	0.16737008
150	0x3d8b6476	0.06806271
151	0x3d09f6e3	0.033682715
152	0x3e1b9dcf	0.15196918
153	0xbd71688d	-0.058937598
154	0x3dcd318d	0.10019217
155	0xbde6f519	-0.112772174
156	0x3cbf8b9f	0.023382006
157	0xbbe3dab9	-0.006953564
158	0x3d0f4bb0	0.03498429
159	0x3df623d3	0.12018552
160	0x3c94c1cf	0.018158821
161	0xbc7aeb1d	-0.015314844
162	0xbd8c87b5	-0.068618216
163	0xbe380e9f	-0.17974328
164	0x3bdbffe5	0.0067138546
165	0xbe24b0af	-0.16083024
166	0x3db72292	0.08942141
167	0x3d6a8653	0.057257008
168	0x3e20f0ba	0.1571683
169	0xbe1eeeb2	-0.15520743
170	0x3e4d3c64	0.20042568
171	0x3e317b53	0.173322
172	0xbde50759	-0.11183042
173	0x3e3b4b2b	0.18290393
174	0xbc05056c	-0.008118968
175	0x3e1f018a	0.15527931
176	0x3e4637c4	0.1935721
177	0xbe00b1a0	-0.12567759
178	0xbde5e15d	-0.11224625
179	0xbd05665a	-0.032568313
180	0xbe3071f2	-0.17230967
181	0x3d8e6fb8	0.069549024
182	0x3e267d23	0.16258673
183	0x3e4a671c	0.19765896
184	0xbd826e0e	-0.063686475
185	0x3e23adf5	0.15984328
186	0x3cd94562	0.026522342
187	0x3d5f3115	0.054490168
188	0xbd5f31b8	-0.054490775
189	0xbe1cd9bf	-0.15317439
190	0xbe3231bc	-0.17401785
191	0xbcdc74b4	-0.026911117
192	0xbd9723f3	-0.07379904
193	0x3e412110	0.18860269
194	0xbdf64fd0	-0.12026942
195	0x3e3d2cc0	0.18474102
196	0xbe3dd0ef	-0.18536733
197	0x3dc976a5	0.09837083
198	0x3e32b1d8	0.17450655
199	0xbe47e89c	-0.19522327
200	0xbd00a4a0	-0.031407
201	0x3e10629e	0.1410012
202	0xbcb8c794	-0.022556104
203	0x3e06b99f	0.13156746
204	0xbd8977bb	-0.0671229
205	0x3d3a9b41	0.045558218
206	0xbe127de5	-0.14305837
207	0x3d58ad01	0.052899364
208	0x3e18574a	0.14877048
209	0x3e49c864	0.19705349
210	0x3c0048d2	0.007829862
211	0x3e3220bb	0.17395298
212	0xbe1f1f60	-0.15539312
213	0xbe4f3da7	-0.20238362
214	0x3d16dd4f	0.03683215
215	0xbe4e5b72	-0.20152071
216	0x3ddb38f0	0.10704219
217	0xbe2ceeab	-0.1688792
218	0xbe351d78	-0.17687023
219	0x3e27e68d	0.16396542
220	0x3e45ba4b	0.19309346
221	0xbbea7b9b	-0.007155848
222	0x3daae350	0.08344138
223	0xbde496c9	-0.111615725
224	0x3dd50025	0.10400418
225	0x3e3975c4	0.1811133
226	0x3db55f54	0.08856073
227	0xbde5fd82	-0.112299934
228	0xbe2f505d	-0.171205
229	0x3d95f080	0.07321262
230	0x3d5b18e1	0.053490523
231	0x3e3a702f	0.18206857
232	0xbe45215a	-0.19251004
233	0xbe3d0d5d	-0.18462129
234	0x3c645b86	0.0139378365
235	0xbd9f5f88	-0.07781893
236	0xbaf18120	-0.0018425323
237	0xbe4bc058	-0.19897592
238	0x3e40ca82	0.1882725
239	0xb9c27df7	-0.00037096415
240	0x3dd3a594	0.10334316
241	0x3c146452	0.009057121
242	0xbde1921c	-0.11014196
243	0x3cfac0c2	0.030609492
244	0xbdadd84c	-0.08488521
245	0x3dd656e8	0.10465795
246	0xbdaa6198	-0.08319396
247	0xbe27afcd	-0.16375656
248	0xbd89cf1f	-0.06728958
249	0xbda1f5f4	-0.0790824
250	0x3dfc8833	0.123306654
251	0xbdb0033c	-0.08594367
252	0xbe3d9b42	-0.18516257
253	0x3e2302ed	0.15919085
254	0xbe274271	-0.16333939
255	0xbd9d9a12	-0.07695402

bias f4 [24]
0	0xbe50041b	-0.20314066
1	0x3e08fe4f	0.13378261
2	0xbe47c054	-0.19506961
3	0x3e4f23da	0.2022852
4	0xbe24c674	-0.16091329
5	0xbda6e5ca	-0.081492975
6	0x3e007f13	0.12548475
7	0xbe07f8ea	-0.13278547
8	0x3dc2296e	0.09480558
9	0xbd9bf48a	-0.076150015
10	0xbe18a719	-0.14907493
11	0xbd85d375	-0.06534473
12	0xbc367b09	-0.011137732
13	0xbddc0f1a	-0.10745068
14	0x3cee1e9e	0.029067334
15	0x3e46b474	0.19404775
16	0x3df455d1	0.11930431
17	0xbe0ed82a	-0.13949648
18	0xbe3eb959	-0.18625392
19	0xbdafe4fc	-0.08588597
20	0x3cbff0d1	0.02343026
21	0xbd7af848	-0.061271936
22	0xbd9fb622	-0.07798411
23	0xbdbae795	-0.09126202
