DeepCGSR_triet/chkpt/triet_deepcgsr.pt (torch, 8139 bytes, 4 tensors)

user_bias f4 [991]
0.5028982 0.82269067 0.50149006 0.43411317 0.5719008 0.5075806 0.55592865 0.4123032
1.0324188 0.8254012 0.62252104 0.29840446 0.55840117 0.50471604 0.5111582 0.48766243
0.49096462 0.42296925 0.655974 0.44188476 0.5401662 0.40320566 0.48578754 0.5081637
0.49111164 0.4205026 0.42230722 0.50454485 0.6386847 0.5227292 0.62009287 0.43730316
0.5406845 0.0 0.30201733 0.51722044 0.6221375 0.65447944 0.60116106 0.4904068
0.0 0.5025849 0.4055351 -1.7361008 0.33404002 0.505952 0.63619703 0.6783421
0.5530852 0.48659247 0.48086783 0.2887519 0.5516543 0.46468133 0.38597924 0.48993275
0.47776294 0.53804445 0.70932704 0.4762493 0.55901504 0.33545527 0.50807273 0.69355667
0.40978676 0.36966693 0.4293642 0.5389147 0.15277414 0.55990297 -0.6397355 0.4216089
0.4871752 0.5045686 0.40563217 0.4883357 0.50084335 0.48404193 0.5216881 0.47357574
-1.2974713 0.0 0.01646162 0.5585822 0.4450432 0.64398617 0.29728854 0.53121054
0.0 0.41394785 0.4879116 0.42988732 0.47632027 0.52921945 0.64035183 0.51898915
0.47212315 0.48992416 0.49330664 0.5371593 0.50613594 0.4303854 0.40959516 0.41839203
-0.8307054 0.41975817 0.4249901 0.50135314 0.44231513 0.5388237 0.49027544 0.49286422
0.39501652 0.61598194 0.46794844 0.50316316 0.44596142 0.42722026 0.0 0.4912571
0.68072027 0.522899 0.0 0.4942923 0.4052789 0.72023535 0.49271864 0.4926351
0.4554576 0.48294422 0.36489195 0.4165921 0.38693964 0.5072223 0.5389951 0.49856025
0.42956755 0.55219 0.67534393 0.41743353 0.57730377 0.5186703 0.46120408 0.63079846
0.48499617 0.631403 0.4891276 0.3259464 0.43889427 0.539411 0.30542126 0.4983804
0.4783219 0.11206343 0.49016616 0.6478623 0.38279995 0.50577146 0.45120025 0.7462923
0.32572785 0.5011738 0.42767888 0.6903279 0.48631048 0.49611518 0.52905154 0.4768957
0.31655478 0.4882267 0.42448542 0.5075124 0.47968194 0.43879333 0.48723415 0.5051283
0.061207876 0.51194286 0.4814737 0.49911806 0.5049648 0.71348923 -1.1999071 0.49289846
0.43126014 0.41113752 0.4998165 0.518233 0.569436 0.0 0.41600078 0.7006479
0.43373805 0.49420276 0.6018527 0.4250265 0.039271135 0.6466434 0.541041 0.47697955
0.6392134 0.49823365 -1.5065823 0.41009122 0.48187643 0.6782026 0.4063553 0.40323374
0.4949817 0.52809256 0.41723523 0.49590763 0.48152304 0.5009554 0.6047773 0.41015857
0.4116161 0.5436266 0.4151581 0.5165132 0.4248328 0.41618615 0.4455293 0.4813678
0.5063687 0.5678236 0.4450856 0.44144067 0.47187346 -1.0874033 0.670695 0.5681558
0.41988045 0.50029594 0.03380704 0.5288605 0.67086446 0.5313472 0.47097972 0.4653018
0.6174194 0.44432747 0.40064436 0.65700847 0.29734382 0.7494199 0.6790512 0.38082442
0.4363753 0.2724697 0.49819314 0.5012902 0.54122466 0.4218957 0.4789259 0.5361232
00000000: f0bd 003f db9b 523f a761 003f 1544 de3e
00000010: 1768 123f cdf0 013f 5751 0e3f 6819 d33e
00000020: 4d26 843f 7e4d 533f 8a5d 1f3f 78c8 983e
00000030: 61f3 0e3f 1235 013f 44db 023f e4ae f93e
00000040: b75f fb3e 6d8f d83e e9ed 273f b83e e23e
00000050: 5548 0a3f f970 ce3e 25b9 f83e 0417 023f
00000060: fc72 fb3e 1e4c d73e a738 d83e da29 013f
00000070: d780 233f 95d1 053f 68be 1e3f 33e6 df3e
00000080: 4d6a 0a3f 0000 0000 04a2 9a3e 8f68 043f
00000090: 6744 1f3f f78b 273f b1e5 193f 9a16 fb3e
000000a0: 0000 0000 67a9 003f 4ca2 cf3e 8d38 debf
000000b0: 4b07 ab3e 1286 013f cfdd 223f d4a7 2d3f
000000c0: fe96 0d3f a622 f93e 4f34 f63e 4ad7 933e
000000d0: 3739 0d3f b6ea ed3e 129f c53e 77d8 fa3e
000000e0: 589d f43e 48bd 093f 7596 353f f3d6 f33e
000000f0: 9c1b 0f3f cbc0 ab3e 0e11 023f ee8c 313f
00000100: 92cf d13e fc44 bd3e a0d5 db3e 50f6 093f
00000110: d370 1c3e cd55 0f3f b5c5 23bf 1fdd d73e
00000120: 076f f93e 682b 013f 05af cf3e 2307 fa3e
00000130: 4537 003f 58d4 f73e 5a8d 053f 8578 f23e
00000140: 8a13 a6bf 0000 0000 85da 863c 3eff 0e3f
00000150: b4dc e33e 47dc 243f 3436 983e 6afd 073f
00000160: 0000 0000 f9f0 d33e 8dcf f93e 311a dc3e
00000170: 40e0 f33e ed7a 073f 19ee 233f 79dc 043f
00000180: 20ba f13e 57d7 fa3e b092 fc3e 4683 093f
00000190: 2092 013f 7a5b dc3e 75b6 d13e 7b37 d63e
000001a0: 1ca9 54bf 8bea d63e 4d98 d93e ae58 003f
000001b0: 2177 e23e 5af0 093f 6205 fb3e b358 fc3e
000001c0: 9b3f ca3e feb0 1d3f f096 ef3e 4dcf 003f
000001d0: 0e55 e43e 9dbc da3e 0000 0000 0d86 fb3e
000001e0: af43 2e3f b5dc 053f 0000 0000 e113 fd3e
000001f0: b780 cf3e 5861 383f 9e45 fc3e ab3a fc3e
00000200: bd31 e93e 7744 f73e 1ed3 ba3e 8f4b d53e
00000210: f41c c63e 52d9 013f 95fb 093f 4a43 ff3e
00000220: 47f0 db3e 535c 0d3f 57e3 2c3f d9b9 d53e
00000230: 2eca 133f 94c7 043f f122 ec3e 027c 213f
00000240: 6b51 f83e a1a3 213f ef6e fa3e 72e2 a63e
00000250: c0b6 e03e d716 0a3f 2d60 9c3e b72b ff3e
00000260: 9ce6 f43e 8381 e53d 0ff7 fa3e 4eda 253f
00000270: 5bfe c33e 3d7a 013f b803 e73e 030d 3f3f
00000280: cdc5 a63e ed4c 003f baf8 da3e 54b9 303f
00000290: b0fd f83e cf02 fe3e ec6f 073f ac2b f43e
000002a0: 7813 a23e daf8 f93e 2756 d93e 55ec 013f
000002b0: df98 f53e 85a9 e03e c176 f93e 1750 013f
000002c0: 1cb5 7a3d b00e 033f b983 f63e 678c ff3e
000002d0: 6045 013f 3ba7 363f 8e96 99bf 305d fc3e
000002e0: 21ce dc3e 9e80 d23e f3e7 ff3e ebaa 043f
000002f0: 8fc6 113f 0000 0000 0efe d43e a95d 333f
00000300: ea12 de3e 2508 fd3e 0513 1a3f 139d d93e
00000310: c5da 203d 6c8a 253f aa81 0a3f aa36 f43e
00000320: 7da3 233f 7b18 ff3e b0d7 c0bf 7af7 d13e
00000330: 82b8 f63e b09e 2d3f cd0d d03e a774 ce3e
00000340: 3e6e fd3e 1331 073f db9f d53e 9be7 fd3e
00000350: 308a f63e 9d3e 003f afd2 1a3f 4e00 d23e
00000360: 58bf d23e 1d2b 0b3f 9a8f d43e 363a 043f
00000370: af83 d93e 5a16 d53e 6b1c e43e d775 f63e
00000380: 61a1 013f e35c 113f 42e2 e33e 8304 e23e
00000390: 6699 f13e 0830 8bbf abb2 2b3f a972 113f
000003a0: 92fa d63e 6513 003f 4079 0a3d 6763 073f
000003b0: c6bd 2b3f 5f06 083f 4124 f13e 0a3c ee3e
000003c0: 330f 1e3f e47e e33e 4221 cd3e b531 283f
000003d0: 733d 983e fcd9 3f3f 4dd6 2d3f 6bfb c23e
000003e0: 956c df3e 2681 8b3e 2c13 ff3e 8e54 003f
000003f0: b38d 0a3f b702 d83e c735 f53e 5f3f 093f

item_bias f4 [85]
0.34211314 2.0277843 0.6993009 0.5361232 2.0512774 2.0471184 1.1065859 0.704977
1.1856946 0.7654378 0.42210987 0.0 2.0309067 0.84437984 0.0 0.5452225
0.5366303 0.19003114 1.3855108 0.2510645 0.036394928 0.0 0.0 2.046858
0.83147746 0.5148209 0.27365637 0.60727376 0.486958 1.0030409 0.86130327 0.95967674
1.9856373 0.744756 0.8245762 0.8617993 0.70451814 0.73467666 0.5492976 0.8673996
-0.6602246 0.516393 0.5597673 0.5542423 0.86328113 0.75735503 1.0744063 0.70452195
0.0 0.82136714 1.2298357 0.7906946 1.2339513 0.8078606 1.0434539 0.8818363
0.0 1.1672117 1.4195393 0.74783987 0.876295 0.8910001 1.7494442 1.0082124
1.0514942 0.97333723 0.89467514 0.95908856 0.58080083 0.5833864 1.2785277 1.004416
0.0 0.0 0.0 0.0 0.0 0.0 0.0 0.0
0.0 0.0 0.0 0.0 0.0
00000000: 7429 af3e 38c7 0140 6205 333f 5f3f 093f
00000010: 2148 0340 fd03 0340 9ba4 8d3f 5f79 343f
00000020: d7c4 973f bbf3 433f c91e d83e 0000 0000
00000030: 60fa 0140 4729 583f 0000 0000 b493 0b3f
00000040: 9a60 093f 8697 423e 6b58 b13f 878b 803e
00000050: d912 153d 0000 0000 0000 0000 b9ff 0240
00000060: b5db 543f 4dcb 033f b01c 8c3e 4b76 1b3f
00000070: 8f52 f93e a563 803f 5f7e 5c3f 60ad 753f
00000080: 5d29 fe3f 54a8 3e3f 6d17 533f e19e 5c3f
00000090: 4d5b 343f c513 3c3f c49e 0c3f e60d 5e3f
000000a0: 7b04 29bf 5532 043f e94c 0f3f d3e2 0d3f
000000b0: feff 5c3f 05e2 413f 2586 893f 8d5b 343f
000000c0: 0000 0000 1e45 523f 426b 9d3f f66a 4a3f
000000d0: 1ef2 9d3f f4cf 4e3f e68f 853f 06c0 613f
000000e0: 0000 0000 3167 953f 77b3 b53f 6f72 3f3f
000000f0: de54 603f 9518 643f caed df3f 1b0d 813f
00000100: 5d97 863f a12c 793f 6e09 653f d486 753f
00000110: 5daf 143f d058 153f cca6 a33f b490 803f
00000120: 0000 0000 0000 0000 0000 0000 0000 0000
00000130: 0000 0000 0000 0000 0000 0000 0000 0000
00000140: 0000 0000 0000 0000 0000 0000 0000 0000
00000150: 0000 0000

weight f4 [13, 13]
0.21346128 0.06262487 0.043489464 0.1501174 0.18945593 -0.15446143 -0.22416943 -0.23478517
-0.100128725 0.24097824 -0.1734467 0.08999544 0.061150108 -0.18287021 0.27386868 -0.17789662
-0.21294074 -0.13960342 0.13354361 -0.05320666 -0.01780741 -0.010265078 -0.16361047 0.11231997
0.022013018 -0.23520024 -0.21698827 -0.1698057 -0.084999524 0.13274892 0.2282088 0.09345115
-0.23359624 0.11390626 0.17102692 0.1326171 -0.03874331 -0.20845059 0.22445105 -0.035395548
-0.26355037 0.0051230337 -0.11261807 -0.04478919 -0.23690104 0.13177797 0.13476518 -0.16579345
0.18922274 0.2557912 -0.10402916 -0.23231277 -0.15848985 0.22888714 0.091962665 0.005287686
0.16731793 0.13327277 -0.24652986 -0.15131198 0.27688247 0.08002376 0.26031116 -0.10829564
-0.057089675 0.24307431 0.05670747 0.25651303 0.081493825 0.18458708 -0.2116787 -0.26893455
-0.21756522 0.12345311 -0.042017147 0.0007473825 0.19582774 0.019854553 -0.028107204 0.122930326
0.12695234 0.09186864 0.1789649 -0.23417275 -0.063766025 0.010706498 -0.11485581 -0.16124044
0.028933441 -0.2358156 -0.021082701 -0.09599615 0.121435985 -0.075697795 -0.018769534 -0.20411779
0.13794787 0.07937424 -0.09751648 -0.09492561 -0.1674267 0.1351797 0.12672427 0.10589926
-0.059893128 -0.068719976 0.22144209 0.06263631 -0.07557335 -0.19797225 -0.035998512 -0.23615879
-0.087183155 -0.014010224 0.002892491 0.19614528 0.23919676 -0.22285911 0.099890836 0.066677995
0.18939576 0.20131083 -0.12478471 -0.138729 -0.22542638 0.23358764 0.2705194 0.15267228
-0.25920746 -0.005395338 -0.15913524 0.24635744 0.098953545 -0.10604024 -0.09305268 0.1478437
0.2437248 -0.13273461 0.027406307 0.039739292 0.10763396 0.11746347 -0.2523281 0.27451342
-0.032175634 -0.11191581 0.24496242 0.05217322 -0.12053804 -0.10596287 -0.16834076 -0.03812008
-0.25082028 0.20752996 -0.14252818 -0.025250684 0.19402838 0.18750057 0.12320018 -0.18479273
-0.09245487 0.08521222 -0.2652435 0.060857568 0.2539671 -0.103436686 -0.021863608 0.012432735
0.20508827
00000000: 9895 5a3e 7841 803d 0222 323d 60b8 193e
00000010: bc00 423e 232b 1ebe ac8c 65be 866b 70be
00000020: 4a10 cdbd 00c3 763e 039c 31be 874f b83d
00000030: 8978 7a3d 5442 3bbe 8438 8c3e 882a 36be
00000040: 230d 5abe 33f4 0ebe a8bf 083e 3aef 59bd
00000050: d8e0 91bc dc2e 28bc 8189 27be 0308 e63d
00000060: a554 b43c 55d8 70be 2c32 5ebe 8ce1 2dbe
00000070: 3b14 aebd 55ef 073e 91af 693e 5163 bf3d
00000080: da33 6fbe af47 e93d ae21 2f3e c7cc 073e
00000090: 4eb1 1ebd 1274 55be 7fd6 653e ecfa 10bd
000000a0: 13f0 86be 1fdf a73b 4da4 e6bd df74 37bd
000000b0: 3096 72be cef0 063e e2ff 093e c2c5 29be
000000c0: 9bc3 413e 10f7 823e 3e0d d5bd 66e3 6dbe
000000d0: 2a4b 22be 6461 6a3e ec56 bc3d 5344 ad3b
000000e0: 6455 2b3e a878 083e 5372 7cbe 87f1 1abe
000000f0: 8ac3 8d3e 7fe3 a33d 8147 853e 1bca ddbd
00000100: ddd6 69bd 79e8 783e 1846 683d ad55 833e
00000110: 3ce6 a63d 6504 3d3e 4dc2 58be cab1 89be
00000120: 6bc9 5ebe fcd4 fc3d 2c1a 2cbd feeb 433a
00000130: 1187 483e 04a6 a23c 1441 e6bc e5c2 fb3d
00000140: cbff 013e a025 bc3d 9342 373e fbca 6fbe
00000150: c397 82bd 4f6a 2f3c 8639 ebbd 371c 25be
00000160: d305 ed3c a579 71be a1b5 acbc a199 c4bd
00000170: 6eb3 f83d 7207 9bbd 91c2 99bc 4104 51be
00000180: 3542 0d3e f68e a23d b8b6 c7bd 5c68 c2bd
00000190: e871 2bbe 8c6c 0a3e 02c4 013e b6e1 d83d
000001a0: 7f52 75bd 0fbd 8cbd b7c1 623e 7747 803d
000001b0: 33c6 9abd 3db9 4abe 2d73 13bd 9cd3 71be
000001c0: 158d b2bd 238b 65bc f28f 3d3b 4fda 483e
000001d0: ffef 743e 2e35 64be 9193 cc3d 798e 883d
000001e0: f6f0 413e 6d24 4e3e 208f ffbd fa0e 0ebe
000001f0: 2cd6 66be 9931 6f3e 8581 8a3e 1f56 1c3e
00000200: d7b6 84be 60cb b0bb 59f4 22be 2045 7c3e
00000210: 28a8 ca3d a02b d9bd 6792 bebd 5764 173e
00000220: fe92 793e 95eb 07be 3183 e03c abc5 223d
00000230: 326f dc3d b090 f03d 2631 81be 068d 8c3e
00000240: 99ca 03bd 1e34 e5bd 6ed7 7a3e 96b3 553d
00000250: a6dc f6bd 1003 d9bd 8561 2cbe cd23 1cbd
00000260: 846b 80be bc82 543e e8f2 11be 86da cebc
00000270: 60af 463e 2600 403e 6050 fc3d 4e3a 3dbe
00000280: fb58 bdbd bf83 ae3d ffcd 87be c945 793d
00000290: fa07 823e 9dd6 d3bd 4f1b b3bc acb2 4b3c
000002a0: a902 523e

bias f4 [13]
0.12571026 0.22248009 0.11622061 -0.20452571 0.0074808015 -0.17702822 0.0253056 0.22470659
0.05083064 -0.27203315 0.10590726 0.12406312 0.19484082
00000000: 31ba 003e d2d1 633e 1205 ee3d 306f 51be
00000010: 8321 f53b e346 35be b14d cf3c 7c19 663e
00000020: ca33 503d ee47 8bbe e8e5 d83d ce14 fe3d
00000030: 5a84 473e
