DeepCGSR_triet/chkpt/triet_deepcgsr.pt (torch, 7563 bytes, 4 tensors)

user_bias f4 [991]
000000 f9 83 ec 3e 39 d3 ee 3e a0 0a 2a 3f 39 ea fa 3e
       0.46194437 0.46645525 0.6642246 0.49006823
000010 61 76 f6 3e a8 90 24 3f fe 78 e0 3e d7 c3 fb 3e
       0.4813719 0.6428323 0.4384231 0.4917285
000020 3b c2 dd 3e fa c2 84 3f 81 de 1c 3f 64 3a 1c 3f
       0.4331225 1.0372002 0.61277014 0.610266
000030 13 62 eb 3e 2c 80 dd 3e 0d 63 e3 3e 43 ef e6 3e
       0.45973262 0.4326185 0.44411507 0.45104417
000040 d5 ca f4 3e 92 bf cd 3e c6 42 ed 3e 00 d6 11 3f
       0.47811 0.4018522 0.46340007 0.56967163
000050 d9 4a f1 3e 35 1c 84 be c8 34 fa 3e cf 18 d6 3e
       0.47127417 -0.2580277 0.48868394 0.41815802
000060 fd 94 8b 3e f1 90 e7 3e ff 34 e3 3e c1 80 d9 3e
       0.27262107 0.4522777 0.4437637 0.42481044
000070 62 b4 d3 3e aa 3b f3 3e 00 1b d5 3e 6e 5f da 3e
       0.4134856 0.47506458 0.41622162 0.42650932
000080 7f 6e ea 3e 88 79 01 3f c1 7a 14 3f c2 bc f0 3e
       0.45787427 0.50576067 0.5799981 0.4701901
000090 df f6 6a 3f 86 01 c9 3e cc 10 be 3e 36 59 fe 3e
       0.91782945 0.39258975 0.3712219 0.49677438
0000a0 57 08 b8 3e ed c0 d4 3e 38 38 00 3f 5b 4a 67 3f
       0.35943863 0.4155344 0.50085783 0.9034783
0000b0 09 0e 00 3f 21 bf a4 3e 3c b5 e9 3e 59 af d8 3e
       0.50021416 0.3217707 0.45646083 0.4232128
0000c0 90 63 00 3f db 64 e7 3e 83 be e7 3e 00 00 00 00
       0.5015192 0.45194134 0.45262536 0.0
0000d0 52 46 c0 3e 24 a4 f8 3e d7 1b eb 3e fe 9e 18 3f
       0.3755365 0.4856273 0.45919678 0.596176
0000e0 97 b3 fe 3e 49 bc 07 3f 1f ee e5 3e 61 0b 18 3e
       0.4974639 0.53021675 0.44908234 0.1484809
0000f0 99 1f e7 3e 8c 5a bf 3e 5d 5f e2 3e a4 a1 f7 3e
       0.45141295 0.3737377 0.4421338 0.4836551
000100 e0 f1 8b 3e 30 b5 f0 3e 9e 22 00 3f 77 c4 01 3f
       0.27332973 0.47013235 0.5005282 0.50690407
000110 55 59 03 3f ef 7b 2e 3f 95 0a 8d bf 01 31 08 3f
       0.51308185 0.6815786 -1.1018854 0.53199774
000120 22 a0 16 3f 97 fd de 3e 29 d5 bd 3e 54 20 bb bf
       0.58838093 0.4355285 0.3707669 -1.4619241
000130 f7 fc 62 3f 9a 1b e3 3e fc e7 e1 3e d3 f7 0c 3f
       0.88667244 0.44356996 0.44122303 0.5506565
000140 5f 0b ae 3e 25 ed fa 3e e5 cc 70 bd 1c 1c 02 3f
       0.3399305 0.49009052 -0.058789153 0.5082414
000150 1a 38 7d bf 07 07 e7 3e c7 58 f3 3e 66 92 f6 3e
       -0.9891373 0.4512255 0.4752867 0.48158568
000160 91 9f d6 3e 6e b3 f0 3e 7e c9 c7 3e 0d 54 b7 3e
       0.41918615 0.47011894 0.39020914 0.35806313
000170 b2 e9 d9 3e 24 fd c0 bf d3 ac a7 3e 41 c5 0e be
       0.42561108 -1.5077252 0.32749042 -0.13942434
000180 ed 35 22 3f 5b bb db 3e 2a 59 e4 3e 6b ab e9 3e
       0.63363534 0.42916378 0.44599277 0.45638594
000190 6c 7f ec 3e 95 6b a3 3e f5 97 03 3f 1f a5 f9 3e
       0.46190965 0.31918016 0.51403743 0.4875879
0001a0 48 38 d1 3e da c7 fa 3e eb 49 e0 3e b5 30 de 3e
       0.40863252 0.489806 0.43806395 0.43396536
0001b0 2c 52 9f 3f c0 21 ed 3e f0 18 1a 3f af 8c ac 3e
       1.2446952 0.46314812 0.601943 0.33701083
0001c0 47 57 1f 3f 04 98 ee 3e c9 b0 f4 3e 24 c4 ea 3e
       0.6224255 0.46600354 0.47791126 0.45852768
0001d0 f3 3d f9 3e 8e f2 ee 3e 7f 65 00 3f 29 93 de 3e
       0.48680076 0.4666943 0.5015487 0.4347165
0001e0 0c 77 f8 3e 53 d1 98 3e 96 71 f9 3e dc 69 c3 bf
       0.48528326 0.29847202 0.48719472 -1.5266681
0001f0 ab 43 2e 3f 17 45 e6 3e 59 5f e7 3e e7 07 a4 3e
       0.68072003 0.44974586 0.45189932 0.3203728
000200 0a 24 c6 3e 97 c6 e8 3e 0b a2 01 3f 55 42 19 3f
       0.3869937 0.45464012 0.5063788 0.5986684
000210 89 61 e7 3e b6 b7 b7 3e 91 2a f3 3e 95 5a db 3e
       0.451916 0.35882348 0.47493413 0.42842546
000220 37 fa ea 3e 9d a6 f0 3e d2 73 d7 3e cc 89 e6 3e
       0.45894024 0.47002116 0.4208055 0.45027006
000230 2c ad ea 3e 87 18 f5 3e cd 64 e0 3e b5 25 cd 3e
       0.45835245 0.47870275 0.43826905 0.4006783
000240 d1 01 84 3e a2 b9 2f bd 37 2f e0 3e 3a 27 9b 3e
       0.25782636 -0.042901643 0.43786022 0.30303365
000250 3e a2 1c 3f b9 d6 db 3e b9 2a cf 3e 1f ea 26 3f
       0.6118506 0.42937258 0.40462282 0.6520099
000260 b1 98 e0 3e e3 88 2f 3f 1a 95 f1 3e 6f 53 ca 3e
       0.43866494 0.6856825 0.47184068 0.3951678
000270 50 fb e3 3e 59 9f eb 3e 51 ed e0 3e 4d 43 f4 3e
       0.44527674 0.4602001 0.43931058 0.47707596
000280 06 43 ce 3e 13 da 23 3f 39 84 9c 3e f2 86 ca 3e
       0.4028551 0.6400463 0.30569628 0.3955608
000290 94 70 15 3f f1 84 ef 3e ac c3 f9 3e 98 7a 1f 3f
       0.58374906 0.46781114 0.48782098 0.6229644
0002a0 c0 cd ea 3e a0 94 ba 3e 67 38 17 3f 1a 1d fa 3e
       0.458601 0.36441517 0.5907044 0.48850328
0002b0 a5 60 86 3f 4a e8 eb 3e e7 34 96 3e b2 e3 dc 3e
       1.0498244 0.4607566 0.29337236 0.43142468
0002c0 04 b7 e2 3e 11 4d 40 bd 76 62 c4 3e 0a 7a d3 3e
       0.44280255 -0.046948496 0.3835637 0.41304046
0002d0 26 04 07 3f 87 70 f8 3e f0 c2 fa 3e 82 ba e2 3e
       0.52740705 0.48523352 0.4897685 0.4428292
0002e0 4c ec 33 3f eb 09 f6 3e 20 c8 e7 3e 58 93 eb 3e
       0.70282435 0.48054442 0.4526987 0.46010852
0002f0 9c 37 07 3f 0a 33 ef 3e b5 a1 ee 3e 08 74 fe 3e
       0.5281923 0.46718627 0.46607748 0.496979
000300 01 bf 01 3f b7 1b cd 3e 8c 3d c0 3e e9 07 29 3f
       0.50682074 0.40060207 0.37546957 0.66027695
000310 2a ee ee 3e 8d d1 a3 3e cd 26 0a 3f 87 35 cf 3e
       0.4666608 0.31995812 0.53965455 0.40470526
000320 88 ef f0 3e 9a ba d2 3e 0c ee e8 3e d8 7b d1 3e
       0.47057748 0.4115799 0.45494115 0.40914798
000330 38 b7 fa 3e 03 de da 3e 03 22 1e 3f 29 a6 00 3f
       0.4896791 0.42747506 0.6177065 0.5025354
000340 0d ac f0 bd 80 01 19 3f 73 64 f9 3e c7 33 f6 3e
       -0.11751566 0.59767914 0.4870945 0.48086378
000350 eb c7 f3 3e 42 11 eb 3e 27 ba f1 3e 50 53 19 3f
       0.47613463 0.45911604 0.47212335 0.5989275
000360 05 c1 25 3f d2 48 b0 bf 98 57 f4 3e 04 34 ea 3e
       0.6474765 -1.3772223 0.4772308 0.4574281
000370 21 15 f8 3e 1c a4 e4 3e ad e4 f6 3e d9 da f0 3e
       0.4845362 0.44656456 0.4822134 0.47041968
000380 29 27 d6 bf 0c 73 f8 3e 86 c0 23 bd cc 64 f6 3e
       -1.6730701 0.48525274 -0.039978527 0.48123777
000390 56 aa ee 3e 42 eb 1a bf 2d 54 6e 3f 2d dc ff 3e
       0.4661433 -0.60515225 0.9309719 0.49972668
0003a0 67 65 ef 3e 2e ea 02 3f 1c ab e9 3e ec ef c6 3e
       0.4675705 0.5113858 0.4563836 0.3885492
0003b0 b0 51 96 be 0e da 0f 3f 48 b4 dc 3e c4 13 e2 3e
       -0.29359198 0.561921 0.43106294 0.44155705
0003c0 86 13 22 3f 6e 77 d2 3e de 62 fb bf 6c 1f c8 3e
       0.6331104 0.41106743 -1.9639547 0.39086473
0003d0 66 d3 ed 3e 70 7d 50 3f c4 2d dc 3e 98 69 e5 3e
       0.46450347 0.814414 0.43003666 0.44807124
0003e0 11 1c f2 3e 0e c7 d6 3e 64 45 fd 3e a8 c3 d9 3e
       0.47287038 0.41948742 0.49467003 0.42532086
0003f0 d8 98 d8 3e 46 31 b9 3e 99 14 e0 3e d0 07 c1 3e
       0.4230411 0.36170405 0.43765715 0.37701273

item_bias f4 [85]
000000 5b 65 87 3f 41 60 f7 3f de fd 27 3f 0c 73 2b 3f
       1.0577806 1.9326249 0.65621746 0.6697242
000010 98 95 3a 3f 7c 63 02 40 83 18 03 40 59 0b 90 3f
       0.7288451 2.037322 2.048371 1.1253463
000020 ca a6 4f 3f 8a b6 af 3f b5 83 7f bc cd c6 41 3f
       0.81113875 1.3727582 -0.015595366 0.7569397
000030 74 c6 21 be a7 25 fe 3f ab e9 39 3f 71 31 83 3f
       -0.1579836 1.985524 0.72622174 1.0249463
000040 24 71 86 3f 00 00 00 00 31 16 28 3f bb 57 08 3f
       1.0503278 0.0 0.6565886 0.53258866
000050 74 fe 0f 3f 1f 0f 52 3f f1 b1 de 3c 8f 09 8d 3f
       0.5624764 0.8205432 0.027184458 1.1018542
000060 3c b8 59 3e e8 8d cc bd 77 84 15 3f fa a6 29 3f
       0.21261686 -0.09988004 0.5840525 0.6627041
000070 8a 9f d4 3e 44 76 fe 3f 28 df b7 3f 5f 63 68 3f
       0.4152797 1.9879842 1.4364977 0.9077663
000080 14 8e 1c 3f 1c 8c 5b 3f cd 22 f3 3e 14 56 1c 3f
       0.61154294 0.85760665 0.47487488 0.61068845
000090 d7 2a 82 3f dd cb 98 3f 7e 66 85 3f 96 e3 80 3f
       1.0169324 1.1937214 1.0421903 1.0069454
0000a0 b2 9c f7 3f 59 13 20 3f 9c 9c 49 3f ec 37 52 3f
       1.9344695 0.6252952 0.7875459 0.8211658
0000b0 5f 0d 93 3f 4e 2e 96 3f ad 7b 8a 3f dc 44 6a 3f
       1.1488456 1.1732881 1.0818993 0.9151132
0000c0 04 37 a1 3f 7a 55 01 3e da b9 55 3f cd 0e 14 3f
       1.2594914 0.12630263 0.8348671 0.57835084
0000d0 79 f0 69 3f f6 56 1d bf 4a fd 88 3f 04 e3 7b 3f
       0.9138256 -0.61460817 1.0702298 0.98393273
0000e0 f6 d9 b4 3f dc 70 7f 3f 9b 60 13 3f 49 68 e1 bd
       1.4129016 0.99781585 0.57569283 -0.11006219
0000f0 87 4a 9c 3f b9 00 14 bd ce f5 92 3f a7 38 ad 3f
       1.2210244 -0.0361335 1.1481264 1.3532914
000100 4d df a9 3f 82 0b 82 3f 00 00 00 00 a3 c7 9f 3f
       1.3271271 1.0159762 0.0 1.2482799
000110 98 86 7f 3f 7c ae 59 3f 25 b7 be 3f 12 3b d8 3f
       0.9981475 0.8503187 1.4899641 1.6893027
000120 94 94 4a 3f a7 70 79 3f 59 21 a4 3f 6d 52 e5 3f
       0.7913296 0.9743752 1.2822677 1.7915779
000130 50 01 8c 3f 4b 41 8c 3f 6a fd 85 3f c6 44 92 3f
       1.09379 1.0957426 1.0467961 1.1427238
000140 c1 fe 78 3f ba c6 9c 3f 03 d0 3e 3f 5a b5 b8 3f
       0.97263724 1.2248147 0.7453615 1.4430344
000150 29 d4 a4 3f
       1.2877246

weight f4 [4, 4]
000000 02 ca bd be 90 e1 eb be 00 0a 9c 3e 00 08 3f 3a
       -0.37068182 -0.46070528 0.3047638 0.0007287264
000010 76 3e a2 3e b0 92 23 3d 40 53 7a be a0 10 a5 bd
       0.3168828 0.039934814 -0.2444582 -0.080598116
000020 40 74 81 3c 98 6c fa bd d8 86 69 3e 38 c1 e3 be
       0.015802503 -0.12227744 0.22805345 -0.44483352
000030 f4 88 79 be 10 88 f4 3e bc cf 71 3e e0 0e a6 3c
       -0.2436865 0.47760057 0.236144 0.020270765

bias f4 [4]
000000 dc 05 fb 3e aa 80 91 be 92 34 ef be 14 33 d7 3e
       0.49027908 -0.28418475 -0.46719795 0.42031157
